experiment/meta/model/model_3.pt (torch, 28984 bytes, 14 tensors)

feat_extraction.stage0.rbr_dense.conv.weight f4 [14, 3, 3, 3]
000000 b5 84 1d 3e b7 1f 0c bd 3b 22 c6 3c 2c b8 15 3e
       0.15382655 -0.034209933 0.024186244 0.14621037
000010 f7 ef 18 be 9a b2 15 3e 5e b6 55 3c b3 f5 06 3e
       -0.1493529 0.14618912 0.013043968 0.13179664
000020 9d 24 2d 3d 09 2d e1 3c a1 dd d1 3d 77 9e 8f 3d
       0.042271245 0.027487295 0.102473505 0.07012647
000030 76 9b ff 3d c7 59 2c bd 97 94 94 3c fa 46 09 3d
       0.12480824 -0.042077806 0.01813726 0.033514954
000040 11 66 78 3d 0f e1 8f 3c 66 eb 40 3e d0 d1 9b 3d
       0.060644213 0.017563371 0.18839797 0.07608378
000050 99 58 2d bd 42 b8 b9 bd ea 56 f1 bc 72 cb 9f bd
       -0.04232082 -0.090683475 -0.02946039 -0.07802476
000060 e8 18 17 bd 5f cb 4b 3c 7d cb dd 3d 2c 1c c3 3d
       -0.036888987 0.012438624 0.10829828 0.09526858
000070 88 60 54 be d4 c6 de 3d 2e 5f 3d 3d f0 ee 2a 3e
       -0.20739949 0.10877767 0.04623335 0.1669271
000080 ed fd 04 3e 7e ce 61 be 7b 29 63 be 12 99 e8 bd
       0.1298749 -0.22051427 -0.22183792 -0.11357321
000090 6b c6 2c 3e e4 20 21 bd 6d ee a5 3d f7 52 b4 bd
       0.16872565 -0.039338008 0.08102117 -0.08804887
0000a0 8b f4 3c 3e 4b 5e 8f bd 91 0c cd 3d 7d 4a 07 bd
       0.1845266 -0.07000407 0.100121625 -0.033030022
0000b0 4d 22 f4 bd 37 c0 1d 3e 52 76 4f bd ff d2 df 3d
       -0.11920605 0.15405355 -0.05064995 0.10928916
0000c0 c8 e7 e1 b9 f0 d4 05 3d 0d 0d f9 bd 92 52 ac bd
       -0.00043088035 0.032673776 -0.12160692 -0.084141865
0000d0 e7 bb fb 3d 9a aa 7c bc 19 3d 6c 3e 08 b8 42 3e
       0.12291699 -0.015421534 0.23070182 0.19015515
0000e0 29 f4 b0 3c 1d f9 b1 bd 28 5d 1d 3e 5b 5a c7 3d
       0.0216008 -0.08690093 0.15367568 0.09734031
0000f0 e4 f7 b0 bd 95 0a 23 3e c6 6a 19 3e e6 58 51 3e
       -0.086410314 0.15922005 0.14982137 0.20444068
000100 20 c2 99 bd 3a 48 3a bb e9 65 03 3d df 9f 79 3d
       -0.075077295 -0.0028424398 0.03207961 0.06094348
000110 ac a7 e2 bd 32 2a d8 bd 49 1a 09 3e c5 b0 84 bc
       -0.11067137 -0.10554923 0.13388933 -0.016197572
000120 5b 83 01 3e d6 66 32 3d ef ef ba 3d 84 c2 9c 3d
       0.12647764 0.043555103 0.09127795 0.076542884
000130 a8 b6 d2 3d 87 14 05 3e 32 e2 19 be 50 75 fe 3d
       0.10288745 0.12996112 -0.15027693 0.12424719
000140 94 6e e0 bd 29 61 15 be ee 63 66 3d 17 de db bc
       -0.10958591 -0.14587845 0.056247644 -0.0268393
000150 ec 05 d0 3d d6 6b 95 bd 2d 9a 37 be c7 df d9 3d
       0.101573795 -0.07295959 -0.17929907 0.10638385
000160 d9 4d 68 bc 8d 22 b8 3d ec 47 37 3d d2 4f e0 bd
       -0.014178717 0.08990965 0.044746324 -0.109527245
000170 fc 65 03 3d 8b 00 bd 3c 24 b7 c4 bd 3f d1 db bd
       0.03207968 0.023071548 -0.09605244 -0.1073327
000180 e7 27 b2 3c 18 93 25 3d 0b f0 de bd 47 3b 46 bd
       0.021747543 0.040423483 -0.10885628 -0.048396375
000190 5f 04 67 3e 33 88 7e bc 62 f3 ee 3d 32 f3 07 3e
       0.22560261 -0.015535402 0.11667515 0.13276365
0001a0 98 ee e4 bd 17 0b 34 be 4d af 54 3e 41 45 28 3c
       -0.11178321 -0.17582355 0.20769997 0.010270418
0001b0 59 56 27 3e e5 55 95 3d 4f 98 b2 3d 46 41 39 3e
       0.16341533 0.07291774 0.08720457 0.18091306
0001c0 28 d8 62 3e 10 22 c9 bd 1f b6 5b 3d 11 ae 37 3e
       0.2215277 -0.0982095 0.05364048 0.17937495
0001d0 8f 57 2b 3e 2d d2 22 3e 99 8b c7 bd 60 03 d5 bd
       0.1673262 0.15900488 -0.09743423 -0.10401034
0001e0 fe f2 93 bd 26 21 91 3d 35 21 6b 3e a8 db b2 bd
       -0.072240815 0.07086401 0.22961886 -0.08733302
0001f0 54 db 12 3e a5 59 95 bd c7 4b 0a be 21 46 94 3b
       0.1434148 -0.07292489 -0.1350547 0.0045249616
000200 25 ca 15 3e 79 4a 6a 3e eb 29 8f bd fa 53 a3 3d
       0.14627893 0.22879972 -0.06990417 0.07975002
000210 b7 74 4f 3e 08 01 2c 3e c6 2d 1a 3e 7b 33 0a 3e
       0.20259367 0.16797268 0.15056524 0.134962
000220 0e 07 0b 3e 02 e4 1a 3d b2 cd 09 be 11 5f 00 be
       0.1357691 0.0378151 -0.13457373 -0.12536265
000230 c0 47 af bd d7 9a df bc 05 38 af bd c1 1e a0 3d
       -0.08558607 -0.027295513 -0.08555607 0.07818366
000240 d7 69 88 3d dc 3f 3e bc c7 4b a0 3d 32 8c 85 3d
       0.06660812 -0.011611905 0.078269534 0.06520881
000250 45 c1 30 3e d2 a6 18 3e d3 86 8b bd 0f 0c 6e 3e
       0.17261226 0.14907387 -0.06812825 0.23246787
000260 32 cb d0 bb 4d cc 2a 3b 3a 31 17 be 80 4d ef bd
       -0.006371879 0.0026061714 -0.14764872 -0.11684704
000270 9a a1 db bd 4e 1f e6 bc 23 c8 1f 3e 6f f1 85 bd
       -0.107241824 -0.0280911 0.1560369 -0.065401904
000280 86 02 cc bd 99 1a b6 3d a9 23 15 3d e9 26 ec 3d
       -0.09961419 0.08891792 0.03641096 0.11530859
000290 ee 6f 02 be d4 a0 0b 3d 54 83 57 bd b4 64 5f bd
       -0.1273801 0.034088925 -0.05261548 -0.054539397
0002a0 aa 3b 29 be 46 3e 97 bd 05 44 80 bd 22 37 92 3d
       -0.16526666 -0.073849246 -0.06262974 0.07139422
0002b0 b0 75 42 3d 99 cf 1d 3d c9 ba 4a 3e a8 35 67 3e
       0.047475517 0.03852806 0.19797815 0.22579062
0002c0 ea f2 0c 3e 6e 28 a9 ba 56 04 e2 bd 0e 1e 1c 3e
       0.1376454 -0.0012905726 -0.11035983 0.1524584
0002d0 48 ee b3 bc 20 41 f0 3c 6b 8b 1a be 97 5d 8d 3b
       -0.021964207 0.029327929 -0.15092246 0.0043141353
0002e0 c6 5b 66 bd 7d 25 52 3e 24 b4 17 be 93 86 dc bd
       -0.056239866 0.20522113 -0.14814812 -0.107678555
0002f0 d4 ec 01 3c 5e d6 0f be 64 0e 3d 3d b9 7f f0 bd
       0.007929999 -0.14046618 0.046156302 -0.11743111
000300 6a 3d f7 bd 9b a5 d3 3b ce bc e4 3d 29 50 31 be
       -0.12072261 0.0064589507 0.11168824 -0.17315735
000310 5f 5d 9e 3d ea b0 c3 3d a8 53 26 3e 01 59 0f be
       0.07732653 0.09555228 0.1624285 -0.13998796
000320 cc 20 ab 3c 6a 6f 25 be 43 ad 35 3e 92 c1 ac bd
       0.020889662 -0.16155782 0.17741875 -0.08435358
000330 5c a7 b0 3d f7 d9 ca 3b 6c 17 fa bc 28 de 19 3c
       0.08625671 0.006190534 -0.030528747 0.009391345
000340 0a 90 90 3d 9a 15 d4 3d 05 02 5d 3d 97 d4 eb 3d
       0.07058723 0.10355683 0.053957004 0.11515158
000350 40 f1 12 be fe a4 17 3e d7 e0 53 3e e1 6e 36 3e
       -0.14349842 0.14809033 0.20691238 0.17815734
000360 4e f7 2a 3e 07 93 ef bd a6 93 04 bd 07 4f 51 3e
       0.16695902 -0.11697965 -0.03236737 0.20440303
000370 f4 d6 06 be 62 99 47 3e d2 66 ef bd 14 5c e2 bd
       -0.13167936 0.19492105 -0.11689533 -0.11052719
000380 8f 9d d8 3d 48 45 cd bd c5 8e b8 bc 2c 8e 37 3e
       0.10576927 -0.1002298 -0.022529015 0.17925328
000390 64 6e 49 3e 71 87 48 3e 95 62 ae bc 16 6d ca bd
       0.19671017 0.19582917 -0.021287242 -0.09884088
0003a0 c0 00 61 3e c9 64 d3 bc 1f 20 78 bd 2e 59 4c 3d
       0.21972942 -0.025804894 -0.060577508 0.049889736
0003b0 41 c9 ca bd c0 c1 09 3e e6 76 cc 3d 57 80 1d be
       -0.099016674 0.13452816 0.099836156 -0.15380989
0003c0 e9 da 04 be d4 16 e9 bb f9 b3 b1 3d f3 41 6b bd
       -0.12974133 -0.007113317 0.08676905 -0.05743594
0003d0 a8 73 09 be 7d d0 75 bd 33 72 6d be f1 ed 30 be
       -0.13423026 -0.060013283 -0.23188095 -0.17278267
0003e0 8d 0e 3a be ba 06 aa 3d a1 df ba 3d 4d 47 01 be
       -0.18169613 0.08302064 0.09124685 -0.12624855
0003f0 87 9d 3e bd 31 a4 28 3d 77 f9 4c bd d4 ad 06 be
       -0.04653695 0.04117221 -0.050042596 -0.13152248

feat_extraction.stage0.rbr_1x1.conv.weight f4 [14, 3, 1, 1]
000000 d7 97 a4 3e 30 e3 d7 3d f4 5a dd bd 7d 31 01 bf
       0.32147095 0.105413795 -0.108083636 -0.5046614
000010 d0 05 e2 3e c4 fb c2 bd 2d 59 ac be a5 56 ce 3e
       0.4414506 -0.09520677 -0.33661786 0.4030048
000020 9b ab 73 3e 6a b9 39 3e 35 44 a7 bd 15 e1 05 be
       0.23795931 0.18137136 -0.08167306 -0.13074143
000030 bf 4e 0c 3e dd a7 fc 3e ff 77 07 3e a7 6e 72 be
       0.13701914 0.4934682 0.13229369 -0.23675023
000040 f9 ee 20 3f fd 56 88 3d 7f 9c f2 3e c7 3a 37 3e
       0.62864643 0.06657217 0.47385022 0.17893516
000050 d3 dc 15 3f 06 48 a8 3e 0a fe 8f be 15 8c ec 3e
       0.58540076 0.3286745 -0.28123504 0.46200624
000060 18 80 98 3c e9 35 e6 be 82 29 11 be c0 d1 0e bf
       0.018615767 -0.44963005 -0.1417599 -0.55788803
000070 37 ff a8 be b2 c7 e1 be 76 55 d2 3e c1 f7 ac bd
       -0.33007213 -0.44097668 0.41080827 -0.08445693
000080 9e e9 bf bd 77 19 8d 3e 9d 98 86 3e 92 e6 b4 be
       -0.09370731 0.2755849 0.2628831 -0.3533216
000090 bc fc 27 3e 09 3d 60 3e 82 47 f8 be 27 10 05 3f
       0.16405004 0.21898283 -0.48492056 0.5197777
0000a0 8b 2d b2 be b5 3c 75 be
       -0.34800372 -0.23948939

feat_extraction.stage1.rbr_identity.weight f4 [14]
000000 1c 61 6e 3f a4 80 63 3f d6 85 7a 3f fb 80 78 3f
       0.9311693 0.88868165 0.9786047 0.9707181
000010 8d a3 7f 3f 30 33 79 3f cb 2d 79 3f 96 81 7c 3f
       0.99858934 0.9734373 0.973355 0.9863523
000020 ba ca 79 3f 4c 2a 71 3f 80 21 6e 3f 54 4f 7d 3f
       0.9757496 0.94205165 0.93019867 0.9894917
000030 48 e6 75 3f c6 4a 6c 3f
       0.96054506 0.92301595

feat_extraction.stage1.rbr_identity.bias f4 [14]
000000 71 75 82 3d 21 fd 76 3d 06 25 4d 3c c7 e9 b8 3d
       0.063700564 0.060299996 0.012521034 0.090289645
000010 56 7e a6 3b 5f 15 0c 3d 8d 04 3e 3d 49 64 43 3d
       0.0050809784 0.03420007 0.04639106 0.04770306
000020 33 9e 6f 3d bb bd 5e 3c 53 8b b6 3d cd de 0e 3e
       0.05850048 0.01359504 0.08913293 0.13952179
000030 c2 91 3c 3c 85 5c 96 3d
       0.011509361 0.073418655

feat_extraction.stage1.rbr_identity.running_mean f4 [14]
000000 fd 06 0f 3f 8d de 14 3d a1 f3 38 3f 42 4d 1f 3c
       0.5587004 0.036345053 0.7224675 0.00972301
000010 29 73 95 3f 49 05 ac 3e 26 bf 1f 3f 73 38 e7 3e
       1.1675769 0.33597782 0.62401044 0.45160255
000020 9f c1 e1 3c f8 7f 31 34 d4 91 65 3d 39 48 ec 3c
       0.027558146 1.6530964e-07 0.056047276 0.028843032
000030 3e 48 b3 33 f7 7c ba 3d
       8.348478e-08 0.091058664

feat_extraction.stage1.rbr_identity.running_var f4 [14]
000000 0b 68 df 3d ae 64 ab 3b 33 c4 39 3e 90 85 83 3a
       0.109085165 0.005230508 0.1814125 0.0010034312
000010 1c 26 ed 3e 0a 82 24 3d 83 9b 0b 3e 52 2a c5 3d
       0.46318138 0.040163077 0.13633542 0.096272126
000020 97 76 a5 3a 3a 92 83 30 2a 81 98 3b fd f7 fe 3a
       0.0012623844 9.573065e-10 0.0046540694 0.0019452568
000030 82 88 8e 2f be 55 62 3c
       2.5926644e-10 0.013814388

feat_extraction.stage1.rbr_dense.conv.weight f4 [14, 14, 3, 3]
000000 a8 41 06 bc d5 2e 0f 3e 8b 25 a1 3d 33 e5 09 3e
       -0.008194365 0.13982709 0.07868489 0.13466339
000010 f9 3b 69 3d 21 95 d0 3d c4 f0 dc 3c aa 34 a4 bc
       0.05694196 0.10184694 0.026970275 -0.020044643
000020 f5 61 74 3d 83 30 f3 bb 07 53 28 bb 89 e7 28 bd
       0.05966373 -0.0074215545 -0.0025684254 -0.041236434
000030 1b 58 22 3c 4e 54 12 3d 8e b4 e4 3c b8 05 97 bd
       0.009908701 0.03572493 0.027918126 -0.07374138
000040 e5 dc 5b 3d 16 4e 2e 3c e1 7b d7 3d 3f 5c cb 3d
       0.05367746 0.010638734 0.10521675 0.09929704
000050 32 db cb bc 53 d4 03 3e d5 3f 70 bd 02 8e ad 3d
       -0.024884794 0.12873964 -0.058654625 0.084743515
000060 c7 b0 39 3d 75 26 92 3d e2 ac b9 bc f5 b6 a2 3d
       0.045334604 0.07136241 -0.022665445 0.079450525
000070 d6 65 b2 bd 96 ec 0f be ba 1b 2f 3c 21 f9 b0 3d
       -0.0871083 -0.14055094 0.010687763 0.086412676
000080 53 ef 2f 3d 50 50 98 bd 44 35 d8 3d ef 05 8a 3c
       0.042952847 -0.074371934 0.105570346 0.016848532
000090 bd 9d d6 ba f5 33 fa bc 70 21 be 3d 6b e4 ed bb
       -0.0016373914 -0.030542353 0.092837214 -0.0072598956
0000a0 cf 09 99 3d 48 b8 2d bd 63 cc d7 3d 7d 1f 7b 3d
       0.07472574 -0.042412072 0.105370305 0.061309326
0000b0 27 07 b2 3c f5 73 a6 3d 46 f1 a1 bc db b3 1e 3d
       0.021731926 0.08127586 -0.019768368 0.038745742
0000c0 81 1c 3a 3d 3b 7d a2 bc 12 e6 cd 3c a4 27 a6 3b
       0.04543734 -0.019835105 0.02513412 0.0050706435
0000d0 60 96 ef 3d c7 b4 eb 3d e1 44 ea 3d 17 39 e0 3d
       0.11698604 0.1150909 0.11438919 0.10948389
0000e0 f5 07 12 bd 22 ed 89 3d 7a ee 6e 3d d2 0f f9 bc
       -0.03565212 0.067346826 0.058332898 -0.030403052
0000f0 c8 17 98 3d 35 75 ad bc 79 46 21 3d ee 4d 4e 3d
       0.07426411 -0.021174053 0.03937385 0.05036729
000100 99 17 bc 3d cc 26 a7 bc a2 5c 3d bd 5a 41 be 3d
       0.091841884 -0.020404242 -0.04623092 0.092898086
000110 6f 01 57 3d 28 ef 8f 3d 42 13 41 3d 08 bc 92 bc
       0.0524916 0.07028037 0.047137506 -0.017911926
000120 06 3a 08 3e 78 5c 09 be f1 9c a7 3c 2a 3b c7 3d
       0.13303384 -0.1341418 0.020460578 0.097280815
000130 14 eb da 3d e5 8f 68 bd 55 e5 c3 bd 83 44 de 3d
       0.10689369 -0.056777854 -0.09565226 0.10852911
000140 d1 74 80 bc 15 48 8d bd 4f f1 97 bd 62 50 45 bd
       -0.015680702 -0.06898514 -0.07419073 -0.048172362
000150 f0 c7 a0 bc 9b 16 5c bd 1b 27 11 bd f3 36 b3 bd
       -0.019626588 -0.053732496 -0.035437685 -0.08750715
000160 08 00 3e 3d fe 43 dc bc 80 e7 a7 bc f8 ea 69 3d
       0.04638675 -0.02688789 -0.02049613 0.05710885
000170 9d 3c a5 bc b6 ef cb 3d 94 f9 ae 3d 34 ff 4b bd
       -0.020170504 0.099578306 0.08543697 -0.049803928
000180 d4 02 6e bd fc f6 24 bd 03 17 23 bd c4 db b8 3d
       -0.058108166 -0.040274605 -0.039816868 0.09026292
000190 59 37 07 bd c2 d6 7f 3d 2e 89 df 3d 67 52 83 3d
       -0.033011768 0.06246067 0.10914837 0.064122014
0001a0 fe d3 4c 3d 78 03 6d bd 2d 8a ae 3d 9c 28 90 3d
       0.05000686 -0.057864636 0.08522449 0.070389956
0001b0 4e 97 1a bd cc 60 6e bd 46 a9 82 3c 15 85 be 3c
       -0.03774195 -0.05819778 0.015949856 0.023256818
0001c0 04 b8 1e 3d 12 c6 d5 3c cb 84 71 bc 52 cc 8e bd
       0.03874971 0.026095424 -0.014741133 -0.06972565
0001d0 bf 28 67 3d a9 62 d3 3c d9 04 2b bc 11 8a 09 3e
       0.056435343 0.02580388 -0.0104381675 0.13431574
0001e0 f4 1a 83 3d 0f 83 3a bd a6 9d 55 bc 86 65 d4 bc
       0.06401625 -0.045535143 -0.013038075 -0.025927316
0001f0 5d e7 bd bc dd f4 b0 3d 33 27 98 bd 9a 86 95 3d
       -0.023181612 0.08640454 -0.07429352 0.07301064
000200 43 0b 32 bd ae 74 3b 3d 1f e8 50 ba 53 53 25 bd
       -0.04346777 0.04576557 -0.0007969159 -0.040362667
000210 bb 62 61 3d fb 3d 94 bd 01 67 40 bd 3b bd 99 3d
       0.055025797 -0.07238384 -0.046973232 0.07506796
000220 c3 89 09 3e 01 32 ec 3c f3 aa 34 3c 76 b0 45 3c
       0.13431458 0.028832437 0.011027086 0.012065997
000230 39 79 d9 3c fa da 14 3d 26 43 70 3d 12 62 9c 3c
       0.026547061 0.036341645 0.058657788 0.019089732
000240 20 0f 5c 3d c3 38 d4 3c ba 86 e1 bc 93 bd ab bc
       0.05372536 0.025905972 -0.027530063 -0.02096442
000250 93 40 53 3d 9e 70 14 3d e1 1a bb 3d 3c b9 93 3c
       0.051575255 0.036240213 0.09135986 0.018032663
000260 4b e5 0e bd 7a 82 55 bd 22 57 56 bd 5a de 5d 3d
       -0.03488664 -0.052126385 -0.05232919 0.05416713
000270 d4 51 91 3d e8 63 59 bd b2 24 9d 3d e8 3d 04 3d
       0.070956856 -0.053073794 0.07673015 0.0322856
000280 19 05 41 bc d4 96 9c 3d 94 12 04 bc 4f 6a c9 3d
       -0.0117810005 0.07645956 -0.00806107 0.0983473
000290 14 9d 34 3d 8b 13 2e bd 61 0a fc bc d1 5e a2 3d
       0.044095114 -0.042499106 -0.030766668 0.07928241
0002a0 68 04 6b 3d cc 6c b6 3d 67 ea 91 3c e2 ac bc 3d
       0.05737725 0.0890747 0.017811967 0.09212662
0002b0 37 f0 96 3d 8f 76 56 3d 7a a0 22 3c ec 2c f6 3d
       0.07370036 0.05235916 0.009925956 0.12020287
0002c0 7a e0 48 3d c3 74 a2 3b a8 8b 09 3d d6 23 f4 3d
       0.049042203 0.0049577667 0.033580452 0.11920898
0002d0 0b 1b ab 3d 20 ee 7e 3c e3 ad e2 3d 83 11 85 3d
       0.083547674 0.015559703 0.110683225 0.06497481
0002e0 d0 7c c3 bc 34 2c 5a bd 86 e0 98 3d e2 fe de 3d
       -0.023863226 -0.05326481 0.074646994 0.10888459
0002f0 5d 8f a0 bc 7d 8b b2 3d 3c e6 61 3d 1f ca 15 3d
       -0.019599611 0.087180115 0.05515121 0.03656971
000300 09 83 c2 3c f4 57 9a 3d 92 34 a0 3d 02 6f d4 3d
       0.023744123 0.07536307 0.07822527 0.103727356
000310 ed f0 a8 3d 47 94 c6 3d 7d 9c fe 3a 2b cc b9 3c
       0.08249078 0.096962504 0.0019425299 0.022680363
000320 e7 d5 07 bd 1b 57 a0 bd 82 10 17 3d 1d 3d f4 bd
       -0.033162978 -0.07829114 0.036880977 -0.11925719
000330 f7 60 00 3d 19 ee 7c 3c c1 33 f7 bd c6 04 7d 3d
       0.031342473 0.015437626 -0.12070418 0.06177213
000340 c8 20 9a bc 78 ff 8d 3d 50 b7 a2 3d 4e 9a ac bc
       -0.01881446 0.069334924 0.0794512 -0.021069672
000350 87 61 1e 3c dc 22 dc bc e9 c3 f1 bc 27 b9 3c bc
       0.009666807 -0.026872091 -0.029512363 -0.011518753
000360 31 85 7f bd 09 3d ce bd 0b 06 1d be 54 66 a8 bd
       -0.06238288 -0.10070235 -0.15334336 -0.082226425
000370 01 63 56 bd cc 8f a5 bd 8b 52 51 3d 90 e6 4a 3d
       -0.05234051 -0.08084068 0.05110411 0.049536288
000380 55 44 0a 3d a1 fc a9 3c e3 52 d8 bd 44 a1 95 3d
       0.033756573 0.020750346 -0.105626844 0.073061496
000390 ce f1 1a bd d3 01 40 bd 9e 61 7b bd a0 fb ae 3d
       -0.03782826 -0.04687674 -0.061372392 0.085440874
0003a0 b9 b9 8d bd 3b cb df ba af d7 81 bd 67 20 7c bd
       -0.069201894 -0.0017074117 -0.063399665 -0.06155434
0003b0 73 96 46 bd a5 00 aa 3d 67 71 47 bc cb 19 b2 3c
       -0.048483323 0.08300904 -0.012173033 0.021740815
0003c0 0c b9 bd bd 49 d8 98 3d 0d a6 c9 bc 1a 4e 3a be
       -0.092638105 0.07463128 -0.024615312 -0.18193856
0003d0 b1 84 16 bd 6c a3 0b be 35 68 1c bd e0 e9 38 be
       -0.036747638 -0.13636559 -0.038185317 -0.18057966
0003e0 23 95 58 be 72 50 2a be 81 b6 68 bd 2d cb ef bd
       -0.21150641 -0.1663225 -0.056814674 -0.117086746
0003f0 6a cf 85 bd 84 c4 c4 3c a2 6c b1 3b c8 94 42 3d
       -0.06533702 0.024019487 0.0054145614 0.04750517

feat_extraction.stage1.rbr_1x1.conv.weight f4 [14, 14, 1, 1]
000000 8b 00 44 3d 29 73 4c be 60 c3 95 3c 46 5d 57 bd
       0.04785208 -0.19965805 0.018281639 -0.052579187
000010 4d 18 53 bd 63 79 91 bc d2 e7 b7 3d cd ef 53 bd
       -0.051536847 -0.017758077 0.08979763 -0.051742364
000020 12 ca 10 be f1 a4 09 be 2f 33 42 be 87 d2 31 be
       -0.14139584 -0.13441826 -0.18964837 -0.17365466
000030 02 72 03 3e d9 fb 31 3e 84 e3 4a 3e 11 85 b8 3d
       0.1283646 0.17381229 0.19813353 0.090097554
000040 84 24 9e bd ee 7c 46 be 23 93 1b 3e d0 3e 02 be
       -0.077218086 -0.19383594 0.15192847 -0.12719274
000050 9b a7 64 3e 22 47 c1 bd 91 38 8e be 8d f7 39 be
       0.22329561 -0.09437396 -0.27777532 -0.1816084
000060 16 18 31 3e be 8f 3c 3e 74 21 77 3d fb 3c e9 bd
       0.17294344 0.18414208 0.060334638 -0.11388584
000070 f3 93 6f 3e 74 53 05 3e 7e d0 24 3e 85 98 41 be
       0.23396282 0.13020116 0.16095158 -0.18905838
000080 c6 0c 4a 3d f4 01 7f 3e 34 f9 3f be a8 c7 8d 3e
       0.049328588 0.24903089 -0.18747407 0.27691388
000090 e4 8a 56 be a8 ae a2 bd 7b d6 ff bc 6f 56 8a 3d
       -0.2095142 -0.07943469 -0.031230202 0.06754767
0000a0 1b c5 a1 3d 58 50 25 be 55 59 00 3e 1e 59 2a 3e
       0.07898923 -0.1614393 0.12534077 0.16635558
0000b0 59 56 68 bc 99 e7 55 be 50 45 8b 3e 68 35 eb bd
       -0.014180743 -0.20889129 0.2720132 -0.11484796
0000c0 ef c1 03 be ba d8 8e 3e ce 2a 06 be 9f d4 20 3e
       -0.12866949 0.27899724 -0.13102266 0.15706109
0000d0 4f 6b 63 3e 1d c2 d1 bc 6d fd 6a be 02 bd 75 bd
       0.22208904 -0.025605256 -0.22948237 -0.059994705
0000e0 5c 42 b2 3d 19 44 80 3e b9 8c ea bc c5 bb 4e bd
       0.08704063 0.25051954 -0.028631555 -0.05047204
0000f0 1c bc b0 bd 48 39 48 be d2 ea 81 3e 64 5a d0 bc
       -0.08629629 -0.19553101 0.25374466 -0.025433727
000100 69 5b 02 be 15 86 3c be 84 bf 40 3e f4 fb da 3d
       -0.12730183 -0.18410523 0.18823057 0.106925875
000110 fb 3b 2f 3e cd d8 49 3d b0 0a 16 bd b0 39 c7 3d
       0.17112724 0.049279023 -0.036631286 0.097278
000120 82 6b e0 3c 59 7a 4e bc 71 98 ae 3d d6 50 ff bd
       0.027395014 -0.012602412 0.0852517 -0.1246659
000130 f4 dd 23 be d8 3c f2 bc 53 db 53 be b1 c7 a5 3b
       -0.16002637 -0.029570028 -0.20689134 0.0050592055
000140 e2 7f 66 3d 9c b7 88 3e 5b 96 a0 3d 41 3d b3 bb
       0.056274302 0.26702583 0.07841178 -0.0054699485
000150 93 67 2b be da f2 94 bd 70 92 9f 3a 94 d7 f9 bd
       -0.16738729 -0.07272883 0.0012174379 -0.121993214
000160 94 cc b4 3d 9a 16 6d 3e 1d 56 48 3e 3b 1d 7d bd
       0.08828083 0.23153153 0.195641 -0.061795454
000170 ec e1 f5 bc d6 a7 86 3e 98 73 03 bd 15 0c 35 be
       -0.030014955 0.26299924 -0.03209266 -0.1768039
000180 27 ff 65 bb d9 52 a9 bb bc bd b0 bd df 33 bf 3c
       -0.003509471 -0.005167347 -0.08629939 0.023340164
000190 b6 a0 36 be 02 93 14 3e bc 2c 21 be e1 95 00 3e
       -0.17834744 0.14509204 -0.15739721 0.12557174
0001a0 ff e2 72 3e 67 21 ff bd c8 a4 00 bd 0d 75 b5 3c
       0.23719405 -0.12457543 -0.031407148 0.02215054
0001b0 fe b9 98 3c 12 27 6b 3e 98 51 9a bc d8 88 95 3c
       0.018643375 0.22964123 -0.018837735 0.018253729
0001c0 b5 b8 52 bd 24 ae 11 3e 29 4d 9f 3d c1 69 b4 bd
       -0.05144568 0.14226586 0.07778389 -0.088092335
0001d0 33 48 18 3e 28 49 45 bd ed 25 75 3e ab e0 91 be
       0.14871292 -0.04816547 0.23940249 -0.2849172
0001e0 25 76 d5 3d 45 13 14 3e 5d 78 7a 3e 48 64 30 3e
       0.10422925 0.14460476 0.24459977 0.17225754
0001f0 d5 8a fb bd d4 94 b7 bd c1 1e 29 be aa 6a 94 3e
       -0.122823395 -0.089639336 -0.16515638 0.28987628
000200 95 7b 41 be f9 d9 52 bd 8e f7 37 3e 06 8e 3b 3e
       -0.18894799 -0.051477406 0.17965528 0.18315896
000210 a4 8d 3b be 30 8f b8 3d 0d 8d 8a 3d 47 c1 4c 3e
       -0.1831575 0.09011686 0.067651846 0.19995604
000220 af 09 6c 3d e5 43 86 3e 1b 6e 4e bd 4d 1d a0 3e
       0.057626422 0.26223674 -0.050397974 0.31272355
000230 77 91 30 3d 05 4c 15 be b8 8c b1 3d 2c 04 56 bd
       0.043107476 -0.1457978 0.08669418 -0.052250072
000240 46 00 e2 3d d3 11 69 3e 85 8f 27 be eb de 40 be
       0.110352084 0.22760706 -0.16363342 -0.18835036
000250 7a 0c 6f 3e ca 60 ad bc 2f 01 4b 3c 18 be b3 3e
       0.23344603 -0.021164317 0.012390419 0.35105968
000260 ba 17 e5 3d 68 52 66 3d f7 9b 9e 3d 58 f1 5c 3d
       0.11186166 0.056230932 0.07744592 0.0539411
000270 2a b4 18 be 20 77 a2 3e db 28 15 be 08 e2 b9 3d
       -0.14912477 0.3173151 -0.14566366 0.09076315
000280 28 39 5c 3e a8 b7 73 be c8 0a 04 3e fe c3 8a 3e
       0.21506178 -0.23800528 0.12894738 0.27102655
000290 0b 22 3f 3e 4d 67 98 3d 36 0a 33 3d 92 d0 2c be
       0.1866533 0.07441578 0.04371091 -0.16876438
0002a0 7b 9d 94 3d 72 8b a4 3e e2 d3 91 3e ca 94 03 3d
       0.072565995 0.32137638 0.28481966 0.03212432
0002b0 52 92 0c 3e 45 6d 85 bb b6 f6 b4 bc e5 25 75 3d
       0.13727692 -0.004071864 -0.022090297 0.059850592
0002c0 3f f9 44 be 9e f7 86 3d 8b c4 2a 3e 1f 60 d7 bb
       -0.19235705 0.06590198 0.16676538 -0.006572738
0002d0 5e 96 9d bd c6 92 3e be 08 7f 91 3d 72 ec b1 3d
       -0.07694696 -0.18610677 0.071043074 0.086876765
0002e0 da b3 86 3e eb dc 49 be f6 c1 51 be 84 e1 92 3c
       0.2630909 -0.1971318 -0.20484146 0.0179298
0002f0 96 5c 85 3e b1 67 25 3c e5 b7 28 3e cb 71 4d 3d
       0.260472 0.010095523 0.164764 0.05015735
000300 f4 9e aa 3c 29 00 4b 3e 46 45 40 3e 8a cc 43 bd
       0.020827748 0.1982428 0.18776426 -0.047802486

feat_extraction.stage2.rbr_dense.conv.weight f4 [12, 14, 3, 3]
000000 b0 8a 98 bd 18 51 b0 bd 44 6d f5 bc cd 95 f7 bc
       -0.074483275 -0.086092174 -0.029959328 -0.030222798
000010 14 63 58 3d 30 ec c3 bd e1 1d 03 3d 0d 42 92 bd
       0.052828863 -0.095665336 0.032010917 -0.071415044
000020 d3 b2 a7 b9 a1 65 b9 3b a5 46 a1 3d f2 36 3a bd
       -0.00031985957 0.005657867 0.078748025 -0.045462556
000030 6e 47 dc bc f8 6c 4c 3d b8 76 bb 3d 59 f1 ac bc
       -0.02688953 0.04990861 0.09153503 -0.021111177
000040 cd c1 5d 3d 60 3c e1 3b b0 d9 bc bd ed c0 78 3c
       0.0541399 0.0068736523 -0.09221208 0.015182716
000050 79 8d 6c bc 26 4a 42 3d b4 a6 8a 3d 18 a2 8c 3d
       -0.014438027 0.047433995 0.06770077 0.068668544
000060 fe a8 29 3d 56 db 8f bd a9 f1 a4 bd da 6e 50 bd
       0.04142093 -0.07024257 -0.080539055 -0.050886966
000070 21 fe a0 3d 85 cd 96 bb fa 76 b8 bc fe 23 e1 bb
       0.07860971 -0.0046021366 -0.02251767 -0.0068707457
000080 e0 8b ec bb d8 ff 3d 3c 0d 7a b3 3d 59 2b 77 3b
       -0.007218823 0.011596642 0.08763514 0.0037715046
000090 b7 b5 c1 bc ea cf d3 3c a0 da 2c bd ea 0d 5b 3d
       -0.023646219 0.025855977 -0.042200685 0.053480066
0000a0 d8 95 87 3d 8f 63 66 3a 41 2a a4 bd 79 71 89 3d
       0.06620377 0.0008788639 -0.08015872 0.06711096
0000b0 ad c1 7b bd 1c 12 54 bd ac 15 67 3d 0f cc 4a bd
       -0.061464 -0.051775083 0.056417152 -0.04951101
0000c0 bd 46 8e 3c 1f 0c a7 3d 0c 78 34 bc 5a d4 19 bd
       0.017367715 0.08156609 -0.0110149495 -0.03755603
0000d0 0c 84 99 3d b9 ed c4 3b f3 5d cf 3c b0 e3 e5 bc
       0.07495889 0.006009784 0.025313353 -0.028062671
0000e0 ad ec 9d bd 3f e0 77 3c f6 15 28 bd 8f f1 1d bd
       -0.07711158 0.015129148 -0.04103657 -0.038560446
0000f0 13 c8 ad bd 9c 6e 96 3d 52 3f 81 bd 0b d0 0d 3d
       -0.08485427 0.07345316 -0.063109055 0.034622233
000100 f5 23 2f 3d 30 97 ab 3d 11 80 4f 3d 71 15 35 bd
       0.0427589 0.08378446 0.050659243 -0.0442099
000110 11 fd 5b 3d 99 f5 5c bd 44 59 e4 3b c5 75 e2 bc
       0.05370814 -0.053945158 0.006968649 -0.027644048
000120 78 b3 aa 3b ba 20 cc bb 60 07 ec bd 43 ee 8e 3d
       0.0052093826 -0.0062294872 -0.11524844 0.069790386
000130 ff a1 44 bd b8 67 cf 3c 10 02 ae bc 8c bc b7 bd
       -0.048006054 0.025318012 -0.021241218 -0.08971509
000140 de 03 b4 3b 69 ff 1f bd ea f8 12 3d db 65 36 3d
       0.005493625 -0.039061937 0.035881914 0.04453073
000150 60 21 bc 3d 58 92 07 3d 89 f0 ff 3a 05 6f 1c bd
       0.09186053 0.03309855 0.0019526641 -0.038191814
000160 61 f1 a4 bb 9d 8b 5c 3d c9 1d db bd 1b f3 db bd
       -0.0050336574 0.053844083 -0.106990404 -0.10739728
000170 91 c6 59 3c 97 5e a2 bc 77 3a 4e bc df 22 2a bd
       0.013291971 -0.019820495 -0.012587181 -0.041537162
000180 31 0f 74 bd f5 34 89 bd e3 fa 5d bd c3 91 8e bd
       -0.0595848 -0.06699554 -0.054194342 -0.069613956
000190 1d 75 9f bc 12 0f 0c 3d 2c af 9d bd 88 79 c0 3d
       -0.019465024 0.03419406 -0.07699427 0.0939818
0001a0 d2 a2 b3 bd 5c b2 46 3b 41 ef 89 3b f9 b0 0f be
       -0.0877129 0.0030318713 0.0042094295 -0.14032353
0001b0 96 98 a6 3c 42 eb d0 3d 91 85 9b bc 82 be d6 3d
       0.02033643 0.10201122 -0.018984588 0.10485555
0001c0 41 09 c1 3c d5 92 aa ba 0d 78 64 3d d5 b0 ba 3d
       0.023563983 -0.001301373 0.05577855 0.09115759
0001d0 e6 1f c1 3d aa bf 8a 3d 56 79 a5 bd 44 63 f4 bc
       0.09429912 0.06774838 -0.080797836 -0.02983249
0001e0 8f e1 b3 3c a9 f4 34 bd 2f 04 10 3d 24 2c 30 bd
       0.02195814 -0.04417864 0.03516024 -0.043010846
0001f0 24 3e e0 bd 99 68 81 bd df 8c cf bd 24 f3 9f bc
       -0.109493524 -0.063187785 -0.10134291 -0.019525118
000200 97 10 33 be 64 04 9c bd 1d 8e dd bc 92 2e 64 bd
       -0.17486797 -0.07618025 -0.027045304 -0.055708475
000210 67 97 da bd 63 fc e4 3c 55 c5 05 be 32 3b 89 bd
       -0.10673409 0.027952379 -0.13063557 -0.06700744
000220 17 d2 a2 3d ee c4 54 bd 92 31 d4 3d b8 6f d4 3d
       0.07950228 -0.05194562 0.10361017 0.10372871
000230 bf e9 21 3c 95 65 f1 bc 2f 15 8e bd 6f 57 9a bc
       0.00988239 -0.029467383 -0.06937634 -0.01884052
000240 f8 08 fa 3b aa b7 b7 bc 0d ee 36 be ed 2e 8f bd
       0.0076304637 -0.022426445 -0.17864247 -0.06991372
000250 ed 99 a7 bc ed 5e b2 bd 9e 7e 43 3c b1 7d eb bc
       -0.02045914 -0.08709512 0.011932043 -0.028746458
000260 4a 43 61 bd da e3 08 be 01 d3 17 3e 09 08 d0 bb
       -0.054995812 -0.13368168 0.14826585 -0.006348614
000270 7a 77 1c be 4b e7 3d bc a2 91 e7 bc 6a dc 80 bd
       -0.15279952 -0.011590789 -0.028267685 -0.06292041
000280 29 89 bf 3d 65 82 87 bd bc 17 3d 3c 71 e4 a3 bd
       0.09352333 -0.06616668 0.011541303 -0.08002556
000290 44 3c 82 3c 61 3b 82 bd 07 7f cb bc 0e c3 94 3c
       0.015897878 -0.06358982 -0.024840845 0.018159416
0002a0 04 ac a3 3c 48 42 fb bd f1 f9 ed bb 4b ac 8e 3b
       0.019979484 -0.122685015 -0.0072624614 0.004354035
0002b0 08 07 90 bd 40 72 29 bd 88 44 6a 3d 67 1b 36 3d
       -0.07032591 -0.041368723 0.057194263 0.044459727
0002c0 ae 48 e1 bd b3 9e 2b bd c6 d4 d7 bc 31 74 0d bd
       -0.11000191 -0.041899394 -0.026346575 -0.034534637
0002d0 08 bc 63 3d 4e 0e b8 bd 6f fb 0e be ae 2b 5b bd
       0.055599242 -0.089871034 -0.13963102 -0.053508453
0002e0 2a 8d 6b bd a5 1c 35 be 1e b1 d2 bd 44 95 c5 bd
       -0.05750767 -0.17686708 -0.10287689 -0.09647611
0002f0 be 0d a5 bd d3 23 97 3c 66 ff 0b 3d ef 08 e4 bc
       -0.08059262 0.0184497 0.034179114 -0.027836291
000300 3e cf 94 bd b4 98 51 bb a2 9b 63 bd 78 ee d5 bd
       -0.07266091 -0.0031981887 -0.055568345 -0.10445875
000310 df 3f c2 bd f4 f5 74 bd 4a 7a 5a bd 4d a0 55 3c
       -0.09484839 -0.05980487 -0.05333928 0.013038707
000320 7d ad 33 bd b6 f1 b3 3b 43 d3 4c 38 56 10 62 bd
       -0.043866623 0.0054914607 4.8834143e-05 -0.05519136
000330 e1 35 e9 3d 83 47 01 be 1d 64 83 bb 2a 62 65 3d
       0.1138723 -0.12624936 -0.004009737 0.05600182
000340 5d 68 02 3e a2 22 23 3d 9a 20 f7 bc 64 19 4b 3d
       0.12735124 0.03982795 -0.030166913 0.04958476
000350 c9 ee a3 3d 27 e4 39 3d a6 0c d1 bc 9c a5 98 3c
       0.08004529 0.0453836 -0.025518727 0.018633656
000360 19 59 ba 3b f6 c5 22 3d 29 16 e9 bb 51 3f 3d 3d
       0.005686891 0.03973957 -0.0071132374 0.04620296
000370 a8 f6 cc 3d 9c 0e a3 3c 80 1a 45 3d ab 00 2d 3d
       0.100079834 0.019904427 0.048120975 0.042236965
000380 c6 2e 92 3c ac 6b aa bb e6 bd c6 3c a8 57 48 bd
       0.017844569 -0.005200824 0.024260473 -0.04891172
000390 f2 71 9b 3d 2e df 99 3d ed cd c4 3c 2d 00 a2 3d
       0.07590093 0.07513271 0.024023974 0.0791019
0003a0 5a fa 04 3c 3d e3 c6 bc d0 d3 db bc 8b 9c da 3c
       0.008116329 -0.024278278 -0.026834399 0.026685974
0003b0 30 98 74 3d 8c ed ea bb 66 db a5 3c 3b 80 88 3b
       0.05971545 -0.007169431 0.020246219 0.004165677
0003c0 4f c4 4a 3c 31 77 89 3b 79 db 5f 3d 73 c0 a4 3c
       0.012375905 0.004195117 0.054652665 0.020111298
0003d0 83 4e b0 bc 09 f2 28 3d ac 7b 42 3d 74 4b 14 bd
       -0.021521812 0.041246448 0.047481224 -0.03620477
0003e0 ed 5a 20 3d 7f c4 3d bd 07 ae 7b 3d f4 02 12 3d
       0.039149214 -0.04632997 0.061445262 0.035647348
0003f0 d4 90 05 3a 6d 8e a0 3c c9 0b 3c bd 79 8e ad bd
       0.00050951284 0.019599164 -0.045909677 -0.0847444

feat_extraction.stage2.rbr_1x1.conv.weight f4 [12, 14, 1, 1]
000000 db 57 04 be 96 ae ac bd a9 90 5b be f7 5a d8 3d
       -0.12924139 -0.08431737 -0.21441902 0.10564225
000010 b1 a6 e6 bc 97 63 0f 3d 12 6a 8b 3e ba 1a 78 3d
       -0.028155657 0.035007086 0.27229363 0.060572363
000020 10 b8 fe 3d 04 a5 83 3d 7c 24 70 bc d7 a5 41 3e
       0.12437451 0.064279586 -0.014657136 0.18910919
000030 99 b7 ea 3d a8 5d 0e bd bb 21 df bc 92 71 84 bd
       0.114608 -0.034757286 -0.027237764 -0.06466974
000040 27 88 78 3c 95 ab 36 3e 1a 9d 61 3e 6b 3c 63 3e
       0.01516918 0.17838891 0.22032586 0.22191016
000050 11 62 40 be 63 82 e1 bc 67 bc 06 3d 00 e1 60 3e
       -0.1878741 -0.027527994 0.03289452 0.2196083
000060 c0 fd 2e bd 1a 64 67 bd 27 e6 08 3e df 5f 17 be
       -0.042722464 -0.05649195 0.13369046 -0.14782666
000070 2f 2e 82 3e 55 e7 0a be b2 a7 e9 3d f1 4d 79 bd
       0.2542586 -0.13564809 0.114089385 -0.060865346
000080 dc 27 5c be 55 b1 81 be 30 1d ee 3d 70 34 c8 bd
       -0.2149958 -0.25330606 0.11626661 -0.09775627
000090 9e c7 08 be fa e4 96 3e 7b 77 41 3e 46 aa 94 3e
       -0.13357398 0.2947157 0.18893234 0.29036158
0000a0 ac 71 c2 bd 1b 4d 96 3c e8 b6 0b 3d 6c e9 29 bc
       -0.094943374 0.018347314 0.03410998 -0.0103705935
0000b0 66 e2 e8 3d af 50 7a 3d 50 f4 a4 bd 53 fe 35 bd
       0.11371307 0.061112102 -0.080544114 -0.044431996
0000c0 7b 37 09 be 3c 60 3c be a1 e9 c2 3d f9 76 84 bd
       -0.1340007 -0.18396086 0.095172174 -0.06468005
0000d0 7e 85 ea bd c5 14 0a be 26 62 26 3e 2b be 85 bd
       -0.11451243 -0.13484485 0.16248378 -0.06530412
0000e0 cf 19 49 3e d5 62 c4 3d 32 72 b3 bd 9b 61 76 3e
       0.19638751 0.09589163 -0.087620154 0.24060671
0000f0 82 f1 b4 bd 3e 81 7b be 26 00 3b 3e 05 7e 1a be
       -0.088351265 -0.2456102 0.18261775 -0.15087135
000100 3c ac 62 3e db c5 61 3e 50 2d 95 bd 2b 0d 78 bd
       0.22136015 0.22048132 -0.07284033 -0.060559433
000110 98 d2 e3 3d 69 7b da 3d ae a8 56 3e cd e9 a0 3d
       0.11124152 0.1066807 0.20962784 0.07857094
000120 4f 6e ca 3c 76 72 47 3e 22 6b 22 3d ac 65 58 be
       0.024710802 0.19477257 0.03965295 -0.21132535
000130 e4 43 3e bd 65 b8 fc bc 43 45 7b bb f3 6c 69 be
       -0.046451464 -0.030849645 -0.0038340844 -0.22795467
000140 7a b9 82 be 2c 8b c6 bd 1b a5 97 3d 16 16 f1 3d
       -0.25532132 -0.09694514 0.07404538 0.11771791
000150 f7 90 5e be 18 e3 fb 3d af b3 08 3d 1f 16 35 3e
       -0.21734987 0.12299174 0.033374485 0.1768422
000160 87 ba 11 be 3d ac a5 bd 12 f2 e5 3d f6 b6 77 be
       -0.14231311 -0.080894925 0.11227812 -0.24190888
000170 ef e4 cc 3d 03 8a a9 bd b9 ff 8a 3d d8 20 e3 bd
       0.10004603 -0.08278277 0.067870565 -0.11090249
000180 70 74 80 3e 2f c8 7f 3d fc 95 f5 3c 6f d7 fc bd
       0.25088835 0.06244677 0.029978745 -0.12345778
000190 ce 6d 39 be de df f1 bc f2 90 24 be 3d ab 0d 3d
       -0.18108293 -0.029525694 -0.16070917 0.034587134
0001a0 14 9c 85 3e 95 6d f8 3d 7d d2 93 bd 51 42 72 bd
       0.2609564 0.12130276 -0.07217882 -0.059145276
0001b0 4e 25 06 3e bc c5 5b bc 3b d4 32 be a8 36 95 bc
       0.13100168 -0.013413843 -0.17463772 -0.018214539
0001c0 43 8f 14 3e 92 15 f9 bd 36 33 4c bd 83 d5 4b bd
       0.14507775 -0.12162317 -0.049853526 -0.049764168
0001d0 44 d9 1c 3e 4e 8b 00 be f9 64 5e bd 0b de f5 3d
       0.15317255 -0.1255314 -0.054295514 0.12005242
0001e0 c3 17 ca bd fb 40 85 3e 7f c9 33 be 2c dc 24 be
       -0.098678134 0.2602614 -0.17557333 -0.16099614
0001f0 af 9e 35 b9 a7 cb 0d be 3c 09 85 be 91 15 25 be
       -0.0001732062 -0.13847218 -0.25983608 -0.16121508
000200 bd 22 71 be 1b 16 83 3e c9 e9 05 3d d0 6a fb bd
       -0.23548408 0.25602803 0.032693658 -0.12276232
000210 83 bb f4 3d a6 0b f3 3c 6b 39 ec bd 6b 19 58 3e
       0.119498275 0.02966864 -0.11534389 0.21103446
000220 3a 0e 13 be 17 c2 80 bd 84 34 69 3e e6 c6 29 3e
       -0.14360896 -0.0628702 0.2277394 0.1657978
000230 12 5b e6 3d 26 28 e0 3d 8c 97 dd bd 3d b4 73 be
       0.11247839 0.10945158 -0.10819921 -0.23799224
000240 76 f1 c5 bb 94 1e 0a 3e 3e e0 3f 3e aa 97 2e bd
       -0.0060407473 0.13488227 0.18737885 -0.042625107
000250 69 43 f2 bd 8c c5 c7 3c 77 eb 5b 3e b9 b9 90 3d
       -0.11829264 0.02438619 0.21476541 0.07066674
000260 e1 11 8c 3e 02 8c e1 bd 76 b4 7f 3d de 01 11 be
       0.2735739 -0.110130325 0.06242796 -0.14160869
000270 a3 8b db 3c cc 00 4b 3e 79 ae 57 be 59 07 6b 3e
       0.026799982 0.19824523 -0.2106265 0.22952022
000280 bd c9 65 3e ee 7b 63 3e ba e3 9a bd 86 f6 59 3e
       0.22440238 0.22215244 -0.07562967 0.21285447
000290 2c 69 8b 3d 89 ba b0 bd ae 24 96 3e 0a 16 6b be
       0.06807169 -0.08629329 0.2932486 -0.22957626

importance_map.upscale.weight f4 [12, 6, 3, 3]
000000 69 e4 8d 3d 99 25 4b 3d 5e 10 91 3d e1 0d 94 3c
       0.069283314 0.049596403 0.070832 0.018073024
000010 2f 7d 49 bd c3 1e 67 3d a1 ae f9 bd 5a 13 c2 bc
       -0.04919165 0.05642582 -0.12191511 -0.023690868
000020 d4 ef fc bc e7 10 0b be bb 56 f2 bb 5b ac a3 3d
       -0.030876078 -0.13580666 -0.007395593 0.079918586
000030 3e e7 05 3d 0b d5 d6 bc db 56 90 3d 5e 6c a0 3b
       0.032691233 -0.026224634 0.07047816 0.004895731
000040 67 21 51 3d 54 68 a2 3c cc 85 2e bd e8 2c 02 be
       0.051057246 0.019825138 -0.042608067 -0.12712443
000050 3f 67 9c 3d 96 68 22 3e 33 0c b4 bd ab 66 34 3e
       0.0763688 0.15860209 -0.08791389 0.1761729
000060 5f 7b f7 3d e7 c5 d9 3d 17 ab 12 3e 97 69 a3 3d
       0.12084078 0.1063345 0.14323078 0.07979124
000070 65 18 22 3d 87 cf 83 bd 1c 04 66 bd 2a de 83 bd
       0.039574046 -0.06436067 -0.056156263 -0.06438859
000080 a5 07 07 3d d9 c8 e3 3c 2e 7e d1 3c 25 8b 6f bd
       0.032966275 0.027805733 0.025572862 -0.058482308
000090 32 18 91 3d c0 27 0b bd 0c 44 d7 bd 97 ea 3c 3e
       0.07084693 -0.033973455 -0.10511026 0.18448864
0000a0 23 cf 11 3e d4 e1 38 3e 86 d5 0c ba c3 62 4c 3e
       0.14239173 0.18054897 -0.00053723936 0.1995955
0000b0 28 90 5f 3c 9f 2a f9 bd 7e ac 07 3e 70 7e b4 bc
       0.013645209 -0.121663325 0.13249394 -0.022032946
0000c0 01 a7 b5 bd 0a 7d f6 3d 23 01 25 3d ba 98 61 3d
       -0.08869744 0.12035568 0.040284287 0.055077292
0000d0 33 1a bd bc d3 7a f6 bd f3 f4 15 3e 20 2a ae 3d
       -0.023083782 -0.120351456 0.14644222 0.085041285
0000e0 43 e7 7c 3d 3c 32 a3 3d c3 53 2f 3e 47 27 88 3e
       0.061743986 0.07968566 0.17121796 0.26592466
0000f0 3b cc 06 bd 18 77 4c 3d 52 17 42 3e fb 25 8a 3d
       -0.032909613 0.049918264 0.18954208 0.067455254
000100 fa 40 47 3e b3 e0 a1 bd 54 f5 24 3e 77 e1 81 bc
       0.1945838 -0.07904186 0.1610921 -0.01585458
000110 de 97 18 3d c5 a8 64 3d f5 78 81 3d 43 d1 51 3e
       0.037254207 0.055825014 0.06321899 0.20489983
000120 1f d8 fe bd 5a 05 bb bd 71 17 cb bd 0b 97 8f 3d
       -0.124435656 -0.0913188 -0.099165805 0.07011231
000130 9b 7f 5f 3d d5 4d d0 3d 2b e8 79 3b be 86 56 be
       0.054565053 0.10171095 0.0038132768 -0.20949838
000140 d2 e7 2e bc 8c 5e ad 3c 90 26 e2 3d 71 9d ec 3d
       -0.010675387 0.021163248 0.110425115 0.11553467
000150 13 e0 a6 bd 47 6f 6a 3d 5a cb a0 bc 81 20 67 bc
       -0.081482075 0.05723503 -0.019628216 -0.014106871
000160 2c 57 1b 3d 5d c0 97 3d 3e 47 90 3d 39 a3 5b 3c
       0.03792493 0.07409737 0.07044838 0.0134056145
000170 1c e0 99 bd d8 60 22 bd d6 b8 90 bc b4 39 e8 bc
       -0.075134486 -0.03964314 -0.017666262 -0.028347827
000180 b4 dc a7 3c 87 42 67 bd 11 b0 7d bd 09 87 28 3c
       0.020490982 -0.05645993 -0.061935488 0.010286101
000190 f1 91 18 3c 80 e0 32 be 4b 7f ac bd e8 ef 16 3e
       0.009312139 -0.17468452 -0.08422717 0.14739954
0001a0 1b 36 7b bd 68 0a 99 bd d1 a2 d7 3c 13 66 42 be
       -0.061330896 -0.07472688 0.026322754 -0.1898425
0001b0 7e e7 ee 3d a2 01 e1 bd 7b ff 25 bd cc 81 af 3d
       0.116652474 -0.109866396 -0.04052685 0.08569679
0001c0 83 17 03 3e ee b8 d4 3d e9 63 3a bd 91 fc 7e 3d
       0.12801938 0.10386835 -0.045505438 0.062252585
0001d0 12 16 83 3d 80 78 c7 bd 4d 75 b7 bd a3 36 66 3c
       0.06400694 -0.097397804 -0.0895792 0.014051112
0001e0 f0 c3 ef 3d 76 f9 20 bd 45 74 41 3d db 0f bf 3d
       0.11707294 -0.039300404 0.047230024 0.09329196
0001f0 66 91 b0 3d f1 f6 73 3d 3a 92 1b bd 7b 8f b8 3d
       0.086214826 0.059561674 -0.03798125 0.09011742
000200 94 72 fb bd d1 1e b7 3c 2e c7 39 3d 17 8b 40 bc
       -0.122777134 0.022353562 0.04535597 -0.011751912
000210 c2 9c ff 3d b8 b8 ec bd 25 65 a7 bd 2c 10 12 3e
       0.12481071 -0.1155867 -0.08173589 0.14263982
000220 8e bb cc bc 90 dc 59 3d ed 47 2f 3d cb bb 08 3e
       -0.024991777 0.05318886 0.042793203 0.13352887
000230 d0 e1 0a 3d 22 80 8f 3b 70 80 17 bd d6 01 71 3b
       0.033906758 0.0043792883 -0.036987722 0.0036774776
000240 a9 95 c8 bd 47 70 25 3d c1 c8 02 bc 46 db af bd
       -0.097941704 0.04039028 -0.007982434 -0.08586745
000250 fe 13 db bc 9e ee 9c bc ca 4c 1d 3d 3f 3c d5 bd
       -0.026742931 -0.01915675 0.03840331 -0.10411882
000260 0b 00 06 3e fb 5a 02 be 23 a4 0d 3e 38 59 f5 39
       0.13085954 -0.12730019 0.13832144 0.00046796515
000270 17 81 85 3d 64 ff 64 3d 9c 05 cd bd ad 82 fc bd
       0.065187626 0.055907622 -0.100108355 -0.12329612
000280 db e8 fa 3c 52 11 d3 bc a3 9d 0e bd a8 a9 c1 bd
       0.030628612 -0.025765095 -0.034818303 -0.094561875
000290 36 01 9d bc f0 81 67 3d c2 b0 17 be 4d fa ad bd
       -0.019165616 0.056520402 -0.14813522 -0.08495007
0002a0 77 08 c6 3d 0d 2f d7 3b 6b e5 58 bc 53 48 28 be
       0.09669583 0.006566888 -0.013238291 -0.1643384
0002b0 a5 0f 58 3d 1b e4 12 3e af 9f 9f bd de d6 48 3d
       0.052749295 0.14344828 -0.07794129 0.04903304
0002c0 2e 7d e8 bd 3a 01 b6 3d de 73 23 3d 25 28 d3 bd
       -0.11352001 0.08886953 0.03990542 -0.10310391
0002d0 ff 08 21 3d a0 9d 1e be 8e fc 03 3c 88 21 66 3c
       0.03931522 -0.15489817 0.008055819 0.01404608
0002e0 83 12 40 be 8e 76 98 3d 2e c6 ff 3d d6 73 ef bd
       -0.18757062 0.074444875 0.12488972 -0.11692016
0002f0 63 00 e6 3d 50 16 f3 bd 04 47 37 bd 42 77 19 bd
       0.112305425 -0.1186949 -0.04474546 -0.03746725
000300 08 cb 22 bd 9e 5a ea bd 81 96 dd bd 04 41 44 bd
       -0.039744407 -0.11443065 -0.10819722 -0.047913566
000310 14 94 1e be 54 36 4e bd 90 18 47 bd 54 89 c9 3d
       -0.15486175 -0.05034478 -0.04860741 0.098406464
000320 0c 43 f5 bc cf d7 58 3c b6 ef 8b bd 5a 7f b0 bd
       -0.029939197 0.0132350465 -0.068328306 -0.086180404
000330 b1 d4 cf 3d d4 61 c8 bd b7 e7 f3 3d d8 e3 f7 bd
       0.101479895 -0.09784284 0.119094305 -0.121040046
000340 1b 7c 04 3e 76 d3 61 3d 45 5f 32 3d d4 f0 db 3d
       0.12937967 0.055133305 0.043547887 0.10739294
000350 1f 7a c2 bd 40 51 38 be b1 f7 17 3d ee 0c 34 be
       -0.09495949 -0.17999744 0.03710145 -0.17583057
000360 05 59 02 3d fb 64 e9 bd 1b cd 8e bc ed 4f 0b 3e
       0.031823177 -0.113962136 -0.017431786 0.13604708
000370 11 c6 19 3d af d3 8c bc d7 0c 22 3e ce 02 49 bd
       0.037542406 -0.017190782 0.1582521 -0.04907494
000380 5f 58 d9 bd 2c 95 5d 3d fa e2 d0 3d fb f3 e0 bc
       -0.106125586 0.05409734 0.10199542 -0.027460089
000390 95 cf b3 bd 68 ca 78 3d 82 4a ca 3c 87 15 7e bd
       -0.087798275 0.060739905 0.024693731 -0.06203225
0003a0 26 4a 0c bd 0f 9f 85 3c 90 0c e0 3d 5f 43 bf bc
       -0.0342504 0.016311197 0.10939896 -0.023347555
0003b0 d6 f4 12 3e 08 c0 2b 3e 83 2d 2e 3d 45 76 8f bd
       0.1435121 0.16772473 0.042523872 -0.0700498
0003c0 4a cd 01 bd 00 3e 15 bd 55 91 d7 3c eb 1a 88 bd
       -0.03168992 -0.03643608 0.026314417 -0.06645759
0003d0 e2 25 2e be b0 68 f9 bc 4f 54 91 bd f2 95 40 3d
       -0.17006639 -0.030445427 -0.07096159 0.047018
0003e0 b0 cd 71 bd 44 15 95 3b 89 58 44 3d 22 b0 92 3d
       -0.05903405 0.004549654 0.047935996 0.07162501
0003f0 f9 46 07 3c 91 e2 93 3d 0d 19 db bd ba bb 9b 3d
       0.008256667 0.072209485 -0.106981374 0.076041654

importance_map.upscale.bias f4 [6]
000000 5c 7b a3 3d 2c 8b 6a 3d 0f 34 e5 bd 1d 6b cf bc
       0.07982513 0.05726163 -0.1119157 -0.02531963
000010 a5 86 b2 bd d7 be 76 3d
       -0.08717088 0.060240593

importance_map.genmap.weight f4 [18, 6, 3, 3]
000000 e9 2c 84 3d dd f7 c1 3c 6b d0 d9 3d 9e de 8d 3c
       0.064538784 0.02367776 0.10635456 0.017318066
000010 06 07 cd 3d d7 47 9a 3b 4c 52 ec 3d c6 e4 90 3d
       0.10011105 0.004708271 0.115391344 0.07074885
000020 04 b2 21 3e 79 df 25 bc de 0a d7 3c 79 db fc bd
       0.15790564 -0.010124081 0.026250299 -0.123465486
000030 a9 2f 0a 3e 2b 9e d3 3c a4 3a 8b 3d 60 21 e4 bd
       0.13494743 0.025832256 0.06798294 -0.11139178
000040 1e c4 40 bc 51 77 00 3e 60 83 c2 bc 9a b8 ee 3c
       -0.011765508 0.12545516 -0.023744285 0.02914076
000050 a5 96 eb 3d 22 bc 59 3d 00 72 9d 3d 42 50 b8 bd
       0.115033425 0.053157933 0.076877594 -0.08999683
000060 38 ec 70 bd 55 9a d6 3c 33 49 3c 3c ce bd a1 bd
       -0.058819026 0.026196638 0.011492061 -0.078975305
000070 e5 35 14 be 96 02 03 3e 3c 48 44 bd c7 e9 e3 3d
       -0.14473684 0.12793955 -0.04792045 0.11128574
000080 43 e0 8f bd d4 57 a8 3d 40 a4 89 bd 5c 23 e9 3d
       -0.070251964 0.08219877 -0.06720781 0.113836974
000090 b8 a4 fe 3d 8b d4 cc 3d 80 b6 9f bd cc d1 62 bd
       0.12433761 0.10001477 -0.07798481 -0.05537586
0000a0 6a 6e c9 bd 11 c6 3d bd 04 95 1f 3d 1b a1 a3 3d
       -0.09835513 -0.04633147 0.03896047 0.07989713
0000b0 2a 69 8d bd 2f 4d af 3d 91 91 ee 3c fd 17 ba 3a
       -0.06904824 0.085596435 0.029122146 0.0014197823
0000c0 4d 97 9f bd 40 b7 6e 3d 3d 86 cf 3c 36 49 bb 3d
       -0.0779253 0.05828023 0.025332564 0.09144823
0000d0 26 35 0e 3e e1 40 e8 3d 09 b2 bc 3d 34 33 83 3c
       0.13887462 0.113405 0.09213645 0.016015626
0000e0 5f 87 c0 3d fd e9 0b 3e 3a a8 01 3e 4c 1a f2 3d
       0.0940082 0.13663478 0.1266183 0.11821422
0000f0 82 68 06 bd a3 45 c2 3c fe bb 2e bd cb 06 c7 3d
       -0.03281451 0.023714846 -0.042659752 0.097180925
000100 4d 4f 09 bc 1c 46 de bd c9 03 45 bd 92 c1 bd bd
       -0.008380723 -0.10853216 -0.048099313 -0.09265436
000110 a9 c1 19 3d b7 39 00 3e 6c db 8a 3c 64 ac fe bc
       0.037538204 0.12522016 0.016950332 -0.031088062
000120 58 fc 94 bd 5a 42 ed bd 67 b7 05 3d 7d b1 54 3d
       -0.07274693 -0.11584921 0.03264561 0.05192708
000130 85 f1 e5 bd 39 26 5e 3d ea 83 2f 3c b7 ad 0a be
       -0.11227707 0.05423567 0.010712603 -0.1354283
000140 38 a5 52 3d cf 21 d0 3c fd 74 6f bd 14 fe c8 3d
       0.051427096 0.025406746 -0.058461178 0.098140866
000150 77 29 93 bd 13 54 82 3c 85 5c 04 3e ef 0c d5 3d
       -0.07185643 0.01590923 0.12925918 0.104028575
000160 3a 9b c0 3d f5 f7 3f bd 1c c9 8f bd 89 c0 34 3d
       0.09404607 -0.04686733 -0.070207804 0.04412893
000170 ee 27 c0 3a 70 99 cd 3d 35 58 f2 3d bb ec d9 3d
       0.0014660337 0.100390315 0.118332304 0.10640856
000180 4d d4 45 3d 6d d7 b0 bd 32 99 04 3c 40 e8 54 3d
       0.04829817 -0.08634839 0.008093165 0.051979303
000190 d0 ef 86 bb b5 78 1f 3c 7b f7 97 3c 8b dd c4 bd
       -0.0041179433 0.009733369 0.018550625 -0.096125685
0001a0 7a 5c 76 3c e1 d2 a0 bd 12 66 0d 3e 5b 33 0c bd
       0.015036697 -0.07852722 0.13808468 -0.034228664
0001b0 e2 57 46 3d 06 85 26 bd 8a 2f b0 bd ec f6 07 3d
       0.048423655 -0.040654205 -0.08602817 0.033194467
0001c0 fe a6 f7 bd 69 ae a4 3d 4c 06 45 3c 11 c0 2f 3c
       -0.12092398 0.080410786 0.012025427 0.010726945
0001d0 5e 88 ab 3d aa de b4 3d bf d3 e4 3d 15 fc b1 3d
       0.08375619 0.08831532 0.111732 0.08690659
0001e0 25 db bc bc 67 0b af bb ad 59 f7 bd 87 71 09 3d
       -0.023053715 -0.0053419354 -0.12077651 0.033555534
0001f0 a6 21 9c 3b 54 9f c8 3d 34 6f fb 3d 49 5a c1 bd
       0.0047647534 0.097960144 0.1227707 -0.09441049
000200 91 1a 26 bd 7f 5f 09 3e 39 dd 22 3d e8 86 2c bc
       -0.04055268 0.13415335 0.039761756 -0.010530211
000210 08 e7 7b bd 66 27 49 be 04 f7 ba 3d 92 d7 87 3d
       -0.061499625 -0.19643936 0.09129146 0.06632914
000220 70 f2 4e 3d 2a 6f af 3d 28 fa 77 bd c3 84 24 3e
       0.050524175 0.08566125 -0.060541302 0.1606627
000230 2b 3a a6 3d 74 ec 83 3d d9 47 11 bc 02 df d2 bd
       0.081165634 0.06441584 -0.0088672275 -0.102964416
000240 61 f1 84 3d 1a b3 68 3d d3 bf 6d 3d e3 ae 9a 3d
       0.06491352 0.05681143 0.058044266 0.07552888
000250 83 50 3d bd 7b 50 0a 3e 96 ed 2e 3d b0 5c c8 bd
       -0.04621936 0.13507263 0.04270705 -0.09783304
000260 bf 23 d7 bc a1 27 43 bd 07 b2 bc 3d d3 49 f0 bd
       -0.026262162 -0.047645215 0.092136435 -0.11732831
000270 de b8 bd bd d3 46 10 bb 67 00 14 be 1d c7 09 be
       -0.09263776 -0.002201487 -0.14453278 -0.13454862
000280 56 66 af bd 66 b4 60 3d 94 f7 a1 bd f6 15 82 bc
       -0.08564441 0.05485954 -0.0790855 -0.015879612
000290 f2 3a e0 3d e5 b6 a2 bc 07 3f 0c 3e bc de 8c bd
       0.10948743 -0.019862602 0.13695918 -0.06878421
0002a0 09 b6 c5 3a b0 1b 82 3a a9 cb 96 bd 79 d9 02 3e
       0.0015084158 0.0009926464 -0.07363064 0.12778272
0002b0 49 76 02 3d 24 74 b7 bd 96 b2 94 3d 5d 7f 25 bd
       0.031851087 -0.08957699 0.07260625 -0.040404666
0002c0 76 79 5e bd 71 f2 e5 3d be 55 81 3d e7 06 bd bc
       -0.054315053 0.11227883 0.06315182 -0.02307458
0002d0 18 b9 4e 3d 30 08 8a 3d 81 63 27 bd 89 2f 0f 3e
       0.050469488 0.06739843 -0.04086638 0.13982977
0002e0 84 7f 47 3e 5d 69 f5 3d 1c b7 26 bd 3b ba 9f 3d
       0.19482237 0.11982987 -0.04070197 0.077991925
0002f0 f5 22 fd 3c e9 ae 15 3e e4 f6 fa bd 10 de 4c 3c
       0.030900458 0.14617504 -0.12254122 0.012504116
000300 5e c0 c5 3d 5d b8 7e bd b0 b0 89 bd 2b d7 06 3e
       0.09655832 -0.06218754 -0.067231536 0.13168018
000310 58 dd 86 3d cf 02 2f 3e e0 64 d7 3d 39 e0 30 3d
       0.06585187 0.17090915 0.10517287 0.043182585
000320 0d 37 6f bd bb c9 fc bc 3d 46 bf 3d de b0 81 3c
       -0.05840211 -0.030857911 0.09339569 0.015831407
000330 96 c4 2e 3e 1b b0 2a 3e 8a 26 50 3d 50 a0 2f 3e
       0.17067179 0.16668741 0.050818004 0.17150998
000340 83 9f 10 bb 18 28 9b 3d 60 f2 13 3e f5 6f 72 bd
       -0.0022067733 0.07576007 0.14447927 -0.0591888
000350 84 ca 63 3d 2a c5 cf 3c 4c ed f1 3d 45 58 cb 3d
       0.055613056 0.02536257 0.11812839 0.099289455
000360 61 08 1a be 04 15 85 be 4d 6c c0 bd 73 74 9f bd
       -0.15042259 -0.25992596 -0.09395657 -0.07785883
000370 44 73 d6 bc 8b be e1 bc 85 21 69 be 11 75 84 be
       -0.02617801 -0.027556678 -0.22766693 -0.25870565
000380 2c 58 15 be 9e f9 34 be 9e bc 25 bd ed 08 86 3c
       -0.14584416 -0.17673346 -0.040463082 0.016361678
000390 e5 7e fe 3c 8f e9 ca bd 3b 6a 58 be 2b 70 ef 3c
       0.031066367 -0.09907829 -0.21134274 0.02922829
0003a0 1b 1e 1d be 28 fa c3 3c a1 33 12 3c 78 16 92 bd
       -0.15343516 0.023922995 0.008923442 -0.07133192
0003b0 e3 50 10 3e 45 57 1a bb 3d 4a d2 bd 1e 28 f9 3c
       0.14093356 -0.0023550552 -0.10268066 0.030414637
0003c0 37 72 52 bd a8 05 0f bd 92 f2 ac bb 35 ab d6 bd
       -0.051378455 -0.034917504 -0.00527794 -0.10481874
0003d0 fd 7d 23 be 66 68 d3 bd 86 6c 23 bd 47 73 9a bd
       -0.1596603 -0.10322647 -0.039898418 -0.07541519
0003e0 85 54 dd 3c 34 51 f5 bc cb d0 32 bc f1 ff 9b 3d
       0.027017841 -0.029945947 -0.010914038 0.07617176
0003f0 55 c2 25 3c 22 4a fc bd c7 9e 3b bd f0 88 ed bb
       0.010117133 -0.12318827 -0.04580572 -0.0072489902

importance_map.genmap.bias f4 [18]
000000 1d 0c 07 3d 6b 67 0e 3e c1 2c 31 3d 0c 19 ca 39
       0.032970537 0.13906638 0.04325557 0.00038547104
000010 17 33 2f be 60 55 e8 3d cc 45 0c 3e e0 f1 a3 bc
       -0.17109333 0.11344409 0.136985 -0.020012796
000020 f7 a0 17 bd 92 63 0d 3e bc 68 ca 3d 77 c2 c4 bc
       -0.037018742 0.13807514 0.09883258 -0.02401851
000030 a0 9d 39 3d 78 0b 81 bd 5b 93 77 3d 13 fc 22 be
       0.04531634 -0.063010156 0.060443264 -0.15916471
000040 61 ee ad 3d 06 66 d6 3d
       0.08492733 0.10468678
