experiment/meta/model/model_2.pt (torch, 28984 bytes, 14 tensors)

feat_extraction.stage0.rbr_dense.conv.weight f4 [14, 3, 3, 3]
0	0x3e121bce	0.14268419
1	0xbd36bb5d	-0.044612277
2	0x3c5742dc	0.013138499
3	0x3e094435	0.13404925
4	0xbe20f408	-0.1571809
5	0x3e0d5899	0.13803329
6	0x3b02b14a	0.0019942098
7	0x3dfef41c	0.12448904
8	0x3d212fe1	0.0393523
9	0x3cb1562d	0.021647537
10	0x3dc58a49	0.096455164
11	0x3d81241b	0.06305715
12	0x3df11252	0.117710724
13	0xbd3b5043	-0.04573084
14	0x3c6e8e70	0.014560327
15	0x3ce3f40d	0.027826333
16	0x3d6f73d0	0.058460057
17	0x3c99f009	0.018791215
18	0x3e41af69	0.1891457
19	0x3d9edd02	0.07756998
20	0xbd2b8b32	-0.041880794
21	0xbdbbe89f	-0.09175228
22	0xbcd8bb06	-0.026456367
23	0xbd997823	-0.074936174
24	0xbd1a1e9f	-0.03762686
25	0x3c83b60b	0.016078016
26	0x3deae92f	0.114702575
27	0x3db90f58	0.0903613
28	0xbe5557d5	-0.20834287
29	0x3de0b64c	0.1097227
30	0x3d17dc23	0.037075173
31	0x3e255c18	0.16148412
32	0x3e010ad2	0.12601784
33	0xbe5bcd49	-0.21465029
34	0xbe5d2a07	-0.21598063
35	0xbddb6dc7	-0.10714298
36	0x3e2c373a	0.16817942
37	0xbd18eb9e	-0.037334077
38	0x3daf61f9	0.08563609
39	0xbdbf6084	-0.09344581
40	0x3e39a6cf	0.18130039
41	0xbd90ca8a	-0.07069881
42	0x3de06736	0.10957186
43	0xbcc92d5e	-0.024557766
44	0xbde064fb	-0.109567605
45	0x3e1b11d5	0.15143521
46	0xbd555900	-0.05208683
47	0x3de1de46	0.110287234
48	0xbbde2838	-0.006779697
49	0x3cdca340	0.026933312
50	0xbdffba0f	-0.1248666
51	0xbd9e25bd	-0.07722042
52	0x3e032f78	0.12811077
53	0xbc117469	-0.008877852
54	0x3e678d8a	0.22612587
55	0x3e3e9c69	0.18614353
56	0x3ca93fcd	0.020660305
57	0xbdbdb462	-0.09262921
58	0x3e186d92	0.14885548
59	0x3dbfd658	0.09367055
60	0xbdb8f820	-0.09031701
61	0x3e1f4bdf	0.15556286
62	0x3e178ffa	0.14801016
63	0x3e50cd05	0.20390709
64	0xbd9bb3d1	-0.07602657
65	0xba99d6cf	-0.0011736992
66	0x3cf8bd0d	0.030363584
67	0x3d724bcf	0.059154328
68	0xbde4d7fa	-0.11174007
69	0xbdd6b1cc	-0.10483131
70	0x3e092729	0.13393845
71	0xbc6f3710	-0.01460053
72	0x3dfce7cf	0.123489015
73	0x3d241810	0.04006201
74	0x3dba4b69	0.090964146
75	0x3d94665f	0.07246088
76	0x3dc980c5	0.09839014
77	0x3e01eff6	0.12689194
78	0xbe1acf04	-0.15118033
79	0x3dfae70f	0.12251102
80	0xbddf0b15	-0.108907856
81	0xbe0e923f	-0.13922976
82	0x3d350953	0.044198345
83	0xbd01baa5	-0.03167214
84	0x3de9a5fd	0.11408613
85	0xbda1761f	-0.07883858
86	0xbe347d7c	-0.17625993
87	0x3e010bcb	0.12602155
88	0xbc479233	-0.012180853
89	0x3dc35f25	0.09539632
90	0x3d6db116	0.05803021
91	0xbdef8634	-0.11695519
92	0x3d07c93a	0.03315089
93	0x3d210515	0.039311487
94	0xbdcc5eec	-0.099790424
95	0xbdcee9e9	-0.101032086
96	0x3d32668f	0.04355484
97	0x3d370da5	0.044690747
98	0xbdce5380	-0.1007452
99	0xbd464d6b	-0.048413675
100	0x3e57bac3	0.21067338
101	0xbce2119e	-0.027596291
102	0x3df14612	0.11780943
103	0x3df66773	0.1203145
104	0xbdf5950b	-0.11991318
105	0xbe2d96bb	-0.1695203
106	0x3e4f9d69	0.20274891
107	0x3ba9c547	0.005180988
108	0x3e27080b	0.16311662
109	0x3d941ee8	0.072324574
110	0x3db5dc1d	0.08879874
111	0x3e37b3f6	0.17939743
112	0x3e60bc34	0.21946794
113	0xbdc76b9d	-0.097373225
114	0x3d5eb80f	0.05437475
115	0x3e35f625	0.17769678
116	0x3e2c3cb2	0.16820028
117	0x3e21b224	0.15790612
118	0xbdcb236c	-0.099188656
119	0xbdd48634	-0.1037716
120	0xbd98cfa4	-0.07461479
121	0x3d8a9cc2	0.067681804
122	0x3e6a965b	0.22908919
123	0xbdb25b04	-0.08708766
124	0x3e10824b	0.14112203
125	0xbd951104	-0.07278636
126	0xbe0e8b15	-0.13920243
127	0x3a6989b9	0.0008908767
128	0x3e157567	0.14595567
129	0x3e64bc20	0.22337389
130	0xbd996ab4	-0.07491055
131	0x3da12fcf	0.07870447
132	0x3e4df53f	0.20113085
133	0x3e290c34	0.16508561
134	0x3e1aecf3	0.15129451
135	0x3e034ec7	0.1282302
136	0x3e06a376	0.13148293
137	0x3d1f1125	0.03883471
138	0xbe0eac02	-0.13932803
139	0xbe09fbe9	-0.13475002
140	0xbdaf8c31	-0.08571661
141	0xbd07be08	-0.033140212
142	0xbdc4c79b	-0.09608384
143	0x3d976831	0.0739292
144	0x3d7f95f9	0.062398884
145	0xbc713933	-0.01472311
146	0x3da5741f	0.08078789
147	0x3d835a97	0.06413763
148	0x3e287673	0.16451435
149	0x3e1a14d2	0.15047005
150	0xbd8fc961	-0.07020832
151	0x3e652316	0.22376665
152	0xbbfaf003	-0.007658006
153	0x3b3476a1	0.0027536529
154	0xbe177fe5	-0.14794882
155	0xbde34af4	-0.110982805
156	0xbdd4b22d	-0.10385547
157	0xbd09d03e	-0.03364586
158	0x3e2446fc	0.16042703
159	0xbd7f1219	-0.06227312
160	0xbdd70d9d	-0.105006434
161	0x3dbb8a85	0.0915728
162	0x3d1f2231	0.038850967
163	0x3df299d3	0.11845746
164	0xbdf75827	-0.120773606
165	0x3d13acc5	0.036053438
166	0xbd59c409	-0.05316547
167	0xbd494cb1	-0.049145404
168	0xbe26a879	-0.16275205
169	0xbd9a06b4	-0.0752081
170	0xbd7de694	-0.061987475
171	0x3d9bad24	0.07601383
172	0x3d4cc56d	0.049992967
173	0x3d3a558b	0.045491736
174	0x3e4e4035	0.2014168
175	0x3e651b5a	0.22373715
176	0x3e125089	0.14288534
177	0x3b9205ec	0.0044562723
178	0xbde1f310	-0.110326886
179	0x3e1fd91a	0.15610161
180	0xbcd271f7	-0.025689108
181	0x3cc9bd1e	0.02462631
182	0xbe168cf7	-0.14702211
183	0xbad1d279	-0.001600816
184	0xbd8716aa	-0.0659612
185	0x3e53e897	0.20694195
186	0xbe1728a4	-0.14761597
187	0xbde37b27	-0.11107474
188	0x3c3ec1e4	0.011642907
189	0xbe0df58e	-0.13863203
190	0x3d4bd912	0.04976756
191	0xbde3007b	-0.11084076
192	0xbdf18c14	-0.11794296
193	0x3bf785a1	0.0075537716
194	0x3dee636c	0.11640057
195	0xbe2cb48e	-0.16865751
196	0x3da516a4	0.08060959
197	0x3dcbe151	0.09955085
198	0x3e290368	0.16505206
199	0xbe0d099e	-0.137732
200	0x3cd1e7e6	0.025623273
201	0xbe224f3f	-0.15850542
202	0x3e351f77	0.17687784
203	0xbda76ed1	-0.081754334
204	0x3dbb6a9d	0.09151194
205	0x3c0df709	0.008664855
206	0xbcdf6a3e	-0.02727234
207	0x3b095182	0.0020953123
208	0x3d7f8a51	0.06238777
209	0x3dcb31d3	0.099216126
210	0x3d3f8275	0.046755273
211	0x3dd4af28	0.10384971
212	0xbe19e291	-0.15027834
213	0x3e1440ee	0.14477894
214	0x3e4d3ae8	0.20042002
215	0x3e31dfb0	0.17370486
216	0x3e2c44ba	0.16823092
217	0xbdf03430	-0.11728704
218	0xbd1491ca	-0.036271848
219	0x3e4d3dc8	0.20043099
220	0xbe06b464	-0.13154751
221	0x3e459791	0.19296099
222	0xbdefae7f	-0.11703204
223	0xbde13e70	-0.10998237
224	0x3de21c80	0.11040592
225	0xbdce6c0d	-0.10079203
226	0xbcb95957	-0.022625608
227	0x3e345ecb	0.17614286
228	0x3e4467d4	0.19180232
229	0x3e499ce2	0.19688752
230	0xbcb95e39	-0.022627937
231	0xbdcbffef	-0.09960925
232	0x3e62977c	0.22128099
233	0xbcad0edc	-0.02112525
234	0xbd702035	-0.058624465
235	0x3d54b6a6	0.051932
236	0xbdd1568c	-0.10221586
237	0x3e0928ce	0.13394472
238	0x3dd47ac6	0.1037498
239	0xbe1ee7bf	-0.15518092
240	0xbe0224e8	-0.12709391
241	0xbb607d1e	-0.0034254263
242	0x3dba8753	0.09107842
243	0xbd5d9d2b	-0.054104965
244	0xbe088a12	-0.1333392
245	0xbd64b492	-0.055836268
246	0xbe6ab5ba	-0.22920886
247	0xbe2fc409	-0.17164625
248	0xbe37c905	-0.17947777
249	0x3db7f4c4	0.08982232
250	0x3dc9dfa6	0.09857111
251	0xbdfc19f2	-0.12309636
252	0xbd30b125	-0.04313769
253	0x3d3087b2	0.04309816
254	0xbd306b87	-0.043071296
255	0xbe0555a7	-0.13020955

feat_extraction.stage0.rbr_1x1.conv.weight f4 [14, 3, 1, 1]
0	0x3ea095c4	0.31364262
1	0x3dd067f5	0.10176078
2	0xbdd733fb	-0.10507961
3	0xbf029629	-0.51010376
4	0x3ee05ee5	0.438224
5	0xbdcebd6d	-0.10094724
6	0xbeaed0ea	-0.34143764
7	0x3ecd6c23	0.40121564
8	0x3e6f10b4	0.23346215
9	0x3e33b436	0.17549214
10	0xbdaeebfd	-0.08541105
11	0xbe12a099	-0.14319076
12	0x3e0a32ca	0.13495937
13	0x3efb06bd	0.49028578
14	0x3e025797	0.12728725
15	0xbe7c0b7f	-0.2461376
16	0x3f1edc4d	0.620549
17	0x3d79ed5a	0.06101737
18	0x3ef25478	0.4733007
19	0x3e352079	0.17688169
20	0x3f135fb3	0.575679
21	0x3ea8d78d	0.32976952
22	0xbe9044e4	-0.2817756
23	0x3ee6c2b0	0.4507041
24	0x3c9994c5	0.018747697
25	0xbee5ab39	-0.44857195
26	0xbe0d278e	-0.1378462
27	0xbf0e874e	-0.5567521
28	0xbea84f8d	-0.32873192
29	0xbee0dac0	-0.43916893
30	0x3ecf8a28	0.40535092
31	0xbdbd5e24	-0.092464715
32	0xbdcb3660	-0.099224806
33	0x3e8ab4a5	0.27090946
34	0x3e857e69	0.26073006
35	0xbeb6b85d	-0.35687533
36	0x3e2a4d1f	0.16630982
37	0x3e60be10	0.21947503
38	0xbef7d226	-0.48402518
39	0x3f035085	0.5129474
40	0xbeb1e2d9	-0.34743384
41	0xbe744248	-0.2385341

feat_extraction.stage1.rbr_identity.weight f4 [14]
0	0x3f769329	0.963183
1	0x3f6c1b44	0.92229104
2	0x3f7c87e2	0.9864484
3	0x3f7d95b4	0.99056554
4	0x3f806b81	1.0032808
5	0x3f7cfb01	0.988205
6	0x3f7c63c9	0.9858976
7	0x3f7fbc9b	0.99897164
8	0x3f7c69ad	0.9859875
9	0x3f72aeaa	0.94797766
10	0x3f777973	0.9666969
11	0x3f82fd63	1.0233577
12	0x3f765f2a	0.9623896
13	0x3f7412c7	0.9534115

feat_extraction.stage1.rbr_identity.bias f4 [14]
0	0x3d5e5fc7	0.05429056
1	0x3d4bc43a	0.049747683
2	0x3c69ab39	0.014262014
3	0x3d537ef9	0.051634762
4	0xbb95cf67	-0.0045718434
5	0x3cf045cb	0.029330155
6	0x3d201d47	0.03909042
7	0x3d23cf96	0.03999289
8	0x3d435874	0.047691777
9	0x3b845b84	0.00403923
10	0x3d9f5f31	0.07781828
11	0x3de699d7	0.11259811
12	0x3bd05d8f	0.0063588093
13	0x3d7b3879	0.061333153

feat_extraction.stage1.rbr_identity.running_mean f4 [14]
0	0x3f10f743	0.5662729
1	0x3cdb290e	0.026752975
2	0x3f3de240	0.74173355
3	0x3c4e1933	0.01257925
4	0x3f9f301c	1.2436557
5	0x3ea0ea7f	0.31428906
6	0x3f2c8430	0.673892
7	0x3eea8f13	0.45812282
8	0x3d1d8293	0.038454603
9	0x33849d88	6.175384e-08
10	0x3d88e738	0.066847265
11	0x3d046a05	0.03232767
12	0x347e5845	2.3687706e-07
13	0x3dd54926	0.104143426

feat_extraction.stage1.rbr_identity.running_var f4 [14]
0	0x3dc0cc57	0.09413975
1	0x3b7dceb7	0.0038727948
2	0x3e2e3c79	0.17015256
3	0x3ab3726d	0.0013690718
4	0x3ee99ab8	0.45625854
5	0x3d10009b	0.035156827
6	0x3e13846f	0.14405988
7	0x3db64db3	0.08901539
8	0x3ad6748c	0.0016361638
9	0x2fcc9688	3.7214343e-10
10	0x3bb19e4d	0.0054204823
11	0x3b0488bd	0.0020223104
12	0x3182a44e	3.8021772e-09
13	0x3c88d7a7	0.016704394

feat_extraction.stage1.rbr_dense.conv.weight f4 [14, 14, 3, 3]
0	0xbcbc6036	-0.022995096
1	0x3e03c6cf	0.12868808
2	0x3d8a27a3	0.06745841
3	0x3df83cdd	0.12120984
4	0x3d42a7f8	0.04752347
5	0x3dbcbf50	0.092161775
6	0x3c673038	0.014110617
7	0xbcf04924	-0.029331751
8	0x3d55d22d	0.052202392
9	0x3a76878e	0.00094043545
10	0x3bec2eec	0.007207742
11	0xbcf43f12	-0.02981523
12	0x3c8a2e4e	0.016867783
13	0x3d34f1fa	0.04417608
14	0x3d1e33f2	0.038623758
15	0xbd7c5399	-0.061603162
16	0x3d868d10	0.06569874
17	0x3cc1a11a	0.02363639
18	0x3dc988d3	0.0984055
19	0x3dc1dff8	0.09466547
20	0xbcfdddc0	-0.030989528
21	0x3df98b30	0.12184751
22	0xbd7c1c01	-0.061550144
23	0x3da5d005	0.08096317
24	0x3d1ffc03	0.039058696
25	0x3d8c3d08	0.06847578
26	0xbcc6c1ac	-0.024262272
27	0x3d8d8f11	0.069120534
28	0xbdc991fa	-0.09842296
29	0xbe11a537	-0.1422318
30	0x3c95770f	0.018245248
31	0x3d7b1f08	0.06130889
32	0x3d3786fc	0.044806466
33	0xbd713b12	-0.058894224
34	0x3da4b3b7	0.080420904
35	0x3cb9e732	0.02269325
36	0xbc19f92c	-0.009397786
37	0xbd13b8ce	-0.036064915
38	0x3db13396	0.08652417
39	0xbc7b021d	-0.015320328
40	0x3d8f4811	0.069961675
41	0xbd40015e	-0.046876304
42	0x3dc7440d	0.097297765
43	0x3d6690c8	0.056290418
44	0x3c93db93	0.018049037
45	0x3d9dd0bf	0.07705831
46	0xbccd3bf2	-0.025052998
47	0x3cf6d54c	0.030131005
48	0x3d23748d	0.039906073
49	0xbcb473f7	-0.022027953
50	0x3c99e104	0.018784054
51	0x38e6d189	0.000110062836
52	0x3ded13d4	0.115760475
53	0x3de535b9	0.111918874
54	0x3ddf9133	0.109163664
55	0x3dd65a28	0.10466415
56	0xbd321775	-0.0434794
57	0x3d7ddb72	0.061976857
58	0x3d66ce37	0.056349006
59	0xbd103e11	-0.03521544
60	0x3d8dad30	0.069177985
61	0xbcb77830	-0.022396177
62	0x3d1f089d	0.038826574
63	0x3d4f788d	0.050652076
64	0x3dbf3a9c	0.09337351
65	0xbcb0346d	-0.021509374
66	0xbd41c756	-0.047309242
67	0x3dc35125	0.095369615
68	0x3d5d0e93	0.053968977
69	0x3d89f07f	0.06735324
70	0x3d43f328	0.047839314
71	0xbc84759c	-0.016169362
72	0x3ddaabdb	0.1067731
73	0xbe0abe7f	-0.13549231
74	0x3bcdbbbb	0.0062784827
75	0x3d974f46	0.07388167
76	0x3dc36246	0.095402285
77	0xbd8ec63a	-0.069714025
78	0xbdcca569	-0.09992487
79	0x3dc3086d	0.095230915
80	0xbca2a22f	-0.019852726
81	0xbd8d64ad	-0.06903968
82	0xbd982415	-0.07428757
83	0xbd455138	-0.04817316
84	0xbca03ddd	-0.019560749
85	0xbd5c169b	-0.053732496
86	0xbd117eb8	-0.03552124
87	0xbdb2fce5	-0.08739642
88	0x3d3deeaf	0.046370205
89	0xbcde7fdd	-0.02716058
90	0xbcfd0637	-0.030886753
91	0x3d482d99	0.04887161
92	0xbd08e00d	-0.033416796
93	0x3db6280e	0.088943586
94	0x3d9d633b	0.07684942
95	0xbd7a3089	-0.061081443
96	0xbd6402ed	-0.055666853
97	0xbd22a937	-0.039712157
98	0xbd0b8e26	-0.03407111
99	0x3dc56828	0.09639007
100	0xbd056ecf	-0.03257638
101	0x3d238abd	0.039927233
102	0x3ddecf45	0.10879377
103	0x3d459195	0.04823454
104	0x3d03491c	0.032052144
105	0xbd2a46f6	-0.04157158
106	0x3db47960	0.08812213
107	0x3d9248c7	0.071427874
108	0xbd199732	-0.037497707
109	0xbd6dab6c	-0.05802481
110	0x3c840334	0.016114809
111	0x3cbe0e3c	0.023200147
112	0x3d1e77b1	0.038688365
113	0x3cd53711	0.026027234
114	0xbc718504	-0.014741186
115	0xbd8ecc45	-0.06972555
116	0x3d6725cc	0.05643253
117	0x3cc79a1a	0.024365474
118	0xbc900b70	-0.017583579
119	0x3e009077	0.12555109
120	0x3d815cbf	0.06316518
121	0xbd44a4f4	-0.048008874
122	0xbca12f86	-0.019675981
123	0xbcb1b1ec	-0.021691285
124	0xbccdea42	-0.025136117
125	0x3da11d15	0.07866875
126	0xbd919047	-0.07107597
127	0x3d9e148b	0.07718762
128	0xbd2072c0	-0.039171934
129	0x3d495a75	0.049158532
130	0x3b46ab00	0.0030314326
131	0xbd14801c	-0.036254987
132	0x3d6c62f4	0.057711557
133	0xbd8dc9cc	-0.06923255
134	0xbd35114d	-0.044205952
135	0x3d679f42	0.056548364
136	0x3dead0a1	0.11465574
137	0x3c1528fd	0.009104011
138	0xbbcc714e	-0.006239093
139	0xbbec4617	-0.007210504
140	0x3c02aea0	0.007976204
141	0x3c7614bb	0.015019591
142	0x3d0be902	0.03415776
143	0xbb6ce305	-0.0036146056
144	0x3d5374c6	0.051625036
145	0x3ccbbd77	0.024870617
146	0xbcec05fa	-0.028811444
147	0xbcbeab62	-0.023275081
148	0x3d49dc36	0.049282275
149	0x3d0c4290	0.034243166
150	0x3db608f9	0.0888843
151	0x3c7b1ec2	0.015327157
152	0xbd1ae5f8	-0.03781697
153	0xbd9352f9	-0.0719356
154	0xbd8776cd	-0.06614456
155	0x3d3b83b0	0.045779884
156	0x3d5f72e0	0.054552913
157	0xbd80e27a	-0.06293197
158	0x3d8d77d3	0.0690762
159	0x3c767f1b	0.015044953
160	0xbc0f3acb	-0.008742045
161	0x3d8fece9	0.07027609
162	0xbc0d7ce2	-0.008635731
163	0x3dc9f9c8	0.09862095
164	0x3d35ac62	0.04435385
165	0xbd3171a9	-0.043321285
166	0xbcfdd3bb	-0.03098475
167	0x3da1b377	0.07895558
168	0x3d694cb1	0.056957904
169	0x3db63f50	0.08898795
170	0x3c8db410	0.017297775
171	0x3db0ce8a	0.08633144
172	0x3d8fbeff	0.070188515
173	0x3d48c035	0.049011428
174	0x3b5c323d	0.003359928
175	0x3deb92da	0.11502619
176	0x3d369312	0.04457385
177	0xb94eddd4	-0.00019728328
178	0x3ce9b277	0.028527481
179	0x3dea1c79	0.11431212
180	0x3da6e52b	0.08149179
181	0x3c77c37a	0.015122289
182	0x3de1b405	0.11020664
183	0x3d7a5f87	0.06112626
184	0xbcd78f04	-0.026313312
185	0xbd6340cf	-0.05548173
186	0x3d9259d5	0.0714604
187	0x3dd8828c	0.10571775
188	0xbcbcaf36	-0.023032766
189	0x3da3bd58	0.07995099
190	0x3d462225	0.048372407
191	0x3ceefa8a	0.0291722
192	0x3c898f6a	0.016792018
193	0x3d8bdcca	0.068292215
194	0x3d8fdea3	0.070248865
195	0x3dc9379a	0.09825058
196	0x3d9b9a01	0.07597733
197	0x3db79684	0.089642555
198	0x3ca693ea	0.020334203
199	0x3d264e42	0.040601976
200	0xbc1e876f	-0.009675845
201	0xbd6b7b25	-0.057490487
202	0x3d557484	0.05211307
203	0xbdcb9070	-0.09939659
204	0x3d45d1e1	0.04829586
205	0x3d0aa82d	0.03385179
206	0xbde33d95	-0.1109573
207	0x3d800871	0.0625161
208	0xbc9c27dd	-0.019061977
209	0x3d8dfb1b	0.0693266
210	0x3da2d858	0.079514205
211	0xbcad67fd	-0.02116775
212	0x3c1e49e8	0.009661175
213	0xbcdcdc28	-0.026960447
214	0xbcee5390	-0.02909258
215	0xbc3e83af	-0.0116280755
216	0xbd2d9a9b	-0.04238377
217	0xbd9ae96d	-0.07564054
218	0xbe044a13	-0.12918882
219	0xbd91b51e	-0.071146235
220	0xbd13c09c	-0.03607236
221	0xbd80b6d4	-0.06284872
222	0x3d6969d8	0.056985706
223	0x3d6e679e	0.058204286
224	0x3d31732d	0.04332273
225	0x3cc17c07	0.023618711
226	0xbdc58214	-0.09643951
227	0x3d9d70cd	0.07687531
228	0xbd475d16	-0.048672758
229	0xbd37edc2	-0.044904478
230	0xbd89a71c	-0.06721327
231	0x3d963e3d	0.0733609
232	0xbd8fea56	-0.07027118
233	0xbc47d89d	-0.012197641
234	0xbd81d41b	-0.06339284
235	0xbd7c21c2	-0.06155563
236	0xbd469ac5	-0.048487443
237	0x3daa01db	0.08301135
238	0xbc477123	-0.01217297
239	0x3cb20ea7	0.021735502
240	0xbdbdbed0	-0.0926491
241	0x3d98d4ba	0.07462449
242	0xbcc9b38f	-0.024621753
243	0xbe1d8aac	-0.1538493
244	0xbb888d3f	-0.0041672285
245	0xbdd408b7	-0.10353225
246	0xbc2ab515	-0.01041915
247	0xbe16e72d	-0.14736624
248	0xbe374a3b	-0.1789941
249	0xbe109b92	-0.14121845
250	0xbcd7fca8	-0.026365593
251	0xbdb5dbe4	-0.088798314
252	0xbd8523db	-0.065009795
253	0x3cd3c26b	0.025849542
254	0x3be40317	0.006958376
255	0x3d4576a3	0.048208844

feat_extraction.stage1.rbr_1x1.conv.weight f4 [14, 14, 1, 1]
0	0x3d1d6c8c	0.038433596
1	0xbe43cbbb	-0.19120686
2	0x3c7c1619	0.015386128
3	0xbd9f1838	-0.07768291
4	0xbd669bb4	-0.056300834
5	0xbca37022	-0.01995093
6	0x3db3d7a5	0.08781365
7	0xbd49d014	-0.049270704
8	0xbe1c8e7e	-0.15288731
9	0xbe09a4f1	-0.13441826
10	0xbe4afe58	-0.19823587
11	0xbe42175e	-0.18954226
12	0x3e0361ed	0.12830324
13	0x3e2f7361	0.17133857
14	0x3e4ecf0d	0.20196171
15	0x3d910aac	0.070821136
16	0xbda2d6bc	-0.079511136
17	0xbe509541	-0.20369436
18	0x3e1b59f5	0.15171035
19	0xbe078bca	-0.13236919
20	0x3e62255a	0.22084561
21	0xbdcfc24c	-0.10144481
22	0xbe866c0d	-0.2625431
23	0xbe3a1146	-0.18170652
24	0x3e41c0b0	0.1892116
25	0x3e3e94c2	0.18611434
26	0x3d772183	0.060334694
27	0xbda5378d	-0.08067236
28	0x3e71d38f	0.2361586
29	0x3e1493f7	0.14509569
30	0x3e260883	0.16214184
31	0xbe546b21	-0.20743991
32	0x3d4ba690	0.049719393
33	0x3e811e72	0.2521854
34	0xbe3e60b7	-0.18591581
35	0x3e8cd127	0.2750332
36	0xbe48aced	-0.19597216
37	0xbda2aea8	-0.07943469
38	0xbcc6f0ae	-0.024284687
39	0x3dac536a	0.084143475
40	0x3da1c51b	0.07898923
41	0xbe1e2cd9	-0.15446796
42	0x3dfdbd2d	0.12389598
43	0x3e09058d	0.13381024
44	0xbca5bb7a	-0.020230997
45	0xbe6c17d7	-0.23055969
46	0x3e89353f	0.26798436
47	0xbde7e1ef	-0.1132239
48	0xbe08d26c	-0.1336152
49	0x3e8a6186	0.2702753
50	0xbe15aa89	-0.14615835
51	0x3e21285a	0.15738049
52	0x3e4a5fd6	0.19763121
53	0xbd71d6f8	-0.0590429
54	0xbe6b00c8	-0.22949517
55	0xbdb0f60d	-0.086406805
56	0x3da7fad7	0.08202141
57	0x3e806556	0.25077313
58	0xbcf83330	-0.030297846
59	0xbd9a2129	-0.07525856
60	0xbdb629ac	-0.08894667
61	0xbe4ad160	-0.19806433
62	0x3e810b16	0.2520377
63	0xbcc326d2	-0.023822222
64	0xbe1f43bd	-0.15553184
65	0xbe3c8615	-0.18410523
66	0x3e30f0c2	0.17279342
67	0x3daf96a7	0.085736565
68	0x3e2f41b9	0.17114915
69	0x3cb937e7	0.022609664
70	0xbd23ccae	-0.03999012
71	0x3dc56e23	0.096401475
72	0x3caedc16	0.02134518
73	0xbd3359f1	-0.043786947
74	0x3da6366f	0.08115851
75	0xbe043549	-0.12910952
76	0xbe289dd8	-0.16466463
77	0xbd158cdb	-0.036511283
78	0xbe4897cb	-0.19589154
79	0x3ba5c7b1	0.0050592055
80	0x3d63fc57	0.055660572
81	0x3e95246f	0.2912936
82	0x3da0965b	0.07841178
83	0xbbe24668	-0.0069053657
84	0xbe2e13f7	-0.16999803
85	0xbda690d1	-0.0813309
86	0xbba92adc	-0.00516258
87	0xbe0eb8eb	-0.13937728
88	0x3dabb665	0.08384398
89	0x3e67bb8b	0.22630136
90	0x3e42368b	0.18966119
91	0xbd906bee	-0.07051836
92	0xbcc843de	-0.024446424
93	0x3e86a7d6	0.26299924
94	0xbce75907	-0.028240694
95	0xbe38c466	-0.1804367
96	0xbb65ff27	-0.003509471
97	0x3bf1a50c	0.0073744114
98	0xbdaeb25a	-0.085301116
99	0x3bf5d12b	0.0075017414
100	0xbe3bedec	-0.18352479
101	0x3e122e22	0.14275411
102	0xbe23c377	-0.15992533
103	0x3dfc3b23	0.12315967
104	0x3e6e22c4	0.2325545
105	0xbe09490e	-0.13406774
106	0xbcc9d177	-0.024636013
107	0x3cb5750d	0.02215054
108	0x3c825b8b	0.015912792
109	0x3e822915	0.25421968
110	0xbc9a402c	-0.018829428
111	0x3d13ce0b	0.03608517
112	0xbd5d7bcf	-0.05407315
113	0x3e020bb8	0.12699783
114	0x3da3d784	0.08000091
115	0xbde23dda	-0.110469535
116	0x3e191219	0.1494831
117	0xbd3fe0f9	-0.04684541
118	0x3e77496c	0.24149102
119	0xbe8d37d1	-0.27581647
120	0x3d9d6f58	0.07687253
121	0x3e12b511	0.14326884
122	0x3e6641f4	0.22486097
123	0x3e21dbe4	0.15806538
124	0xbdfc43d5	-0.123176254
125	0xbdf37fb6	-0.11889593
126	0xbe2b7f5b	-0.16747801
127	0x3e8c55f4	0.27409327
128	0xbe44cbcd	-0.19218369
129	0xbd82c176	-0.06384556
130	0x3e352ea9	0.1769358
131	0x3e39e45a	0.18153515
132	0xbe401d3e	-0.18761155
133	0x3db2f12f	0.08737408
134	0x3d62f459	0.05540881
135	0x3e516404	0.20448309
136	0x3d320716	0.04346379
137	0x3e70dd1a	0.23521844
138	0xbd48c7e6	-0.049018763
139	0x3e97133a	0.29506856
140	0x3d0c0a55	0.03418954
141	0xbe06495b	-0.1311392
142	0x3daf33d0	0.08554804
143	0xbd8624dc	-0.06549999
144	0x3ddc4721	0.10755754
145	0x3e684df5	0.22685988
146	0xbe29318f	-0.16522811
147	0xbe3a1c3f	-0.18174838
148	0x3e4c472a	0.19949022
149	0xbca0cd22	-0.019629065
150	0xbc21e160	-0.009880394
151	0x3eaf056f	0.34183833
152	0x3de62771	0.112379916
153	0x3c958165	0.018250177
154	0x3d94ba31	0.07262076
155	0x3d3114c4	0.043232694
156	0xbe198b8c	-0.14994639
157	0x3e9ff85f	0.3124418
158	0xbe17428f	-0.14771484
159	0x3da5e990	0.08101189
160	0x3e594fde	0.21221873
161	0xbe6e7c7c	-0.23289675
162	0x3dd30acb	0.10304793
163	0x3e8be95e	0.27326483
164	0x3e309cbf	0.17247294
165	0x3d1a754f	0.03770953
166	0x3d371a7b	0.044702988
167	0xbe41f37e	-0.18940541
168	0x3d98032a	0.074224785
169	0x3e9a301d	0.30114833
170	0x3e8f6592	0.2800718
171	0x3c792e02	0.015208723
172	0x3e0a7328	0.13520491
173	0xbbc01fb5	-0.005863155
174	0xbce34569	-0.027743058
175	0x3d54aeba	0.051924445
176	0xbe36a5bd	-0.17836662
177	0x3d92358b	0.07139119
178	0x3e2a0521	0.16603519
179	0xbc94b68a	-0.018153448
180	0xbd9bfa5a	-0.0761611
181	0xbe2fb236	-0.17157826
182	0x3d8c2845	0.06843618
183	0x3dc982c5	0.098393954
184	0x3e87d9be	0.26533312
185	0xbe5a5747	-0.21322356
186	0xbe516c41	-0.20451452
187	0x3cbe46aa	0.023227055
188	0x3e86cfa7	0.263303
189	0x3c8250fe	0.01590776
190	0x3e126161	0.1429496
191	0x3d47eaa2	0.048807748
192	0x3bf050f0	0.0073338673
193	0x3e4a3f5c	0.19750732
194	0x3e401a9d	0.18760152
195	0xbd9edbc5	-0.077567615

feat_extraction.stage2.rbr_dense.conv.weight f4 [12, 14, 3, 3]
0	0xbd95cb36	-0.0731415
1	0xbdaf5dcd	-0.08562813
2	0xbd08026f	-0.033205446
3	0xbcdc1d49	-0.026869433
4	0x3d61c051	0.055115048
5	0xbdc8aec2	-0.097989574
6	0x3d16e675	0.036840875
7	0xbd8c5acb	-0.06853255
8	0xbb1d6570	-0.002401676
9	0x3c2896c9	0.010289856
10	0x3da158ad	0.07878242
11	0xbd35d188	-0.044389278
12	0xbce00b73	-0.02734921
13	0x3d3d0f9b	0.04615746
14	0x3db779a8	0.08958751
15	0xbca7f8c9	-0.020504372
16	0x3d5c9531	0.053853218
17	0x3be30f14	0.0069292877
18	0xbdb95245	-0.09048895
19	0x3c5125fb	0.012765403
20	0xbca224c8	-0.01979293
21	0x3d4516f5	0.048117597
22	0x3d843989	0.064562865
23	0x3d7e8a06	0.06214335
24	0x3d3799ae	0.044824295
25	0xbd8efb1d	-0.0698149
26	0xbdad30cd	-0.08456574
27	0xbd54ce92	-0.051954813
28	0x3d9c52be	0.07632969
29	0xbbf7a2de	-0.007557257
30	0xbc911a34	-0.01771269
31	0xbbb45731	-0.005503558
32	0xbc56cd24	-0.013110433
33	0x3bb2f93e	0.005461841
34	0x3db1bcc7	0.086785845
35	0x3c01f561	0.007932038
36	0xbcf3f1c2	-0.029778365
37	0x3c6a30f5	0.014293899
38	0xbd701b37	-0.058619704
39	0x3d518412	0.051151343
40	0x3d6f8279	0.058474038
41	0xbc3f3a53	-0.01167162
42	0xbda5e6b4	-0.08100644
43	0x3d7c6473	0.061619233
44	0xbd946497	-0.072457485
45	0xbd5dbcbd	-0.054135073
46	0x3d4a9f01	0.049468044
47	0xbd687378	-0.056750745
48	0x3c5a60ec	0.013328772
49	0x3d95ed49	0.07320649
50	0xbc9fcf7e	-0.01950812
51	0xbd173453	-0.036915135
52	0x3d928b0f	0.071554296
53	0x3a5325e5	0.0008054658
54	0x3cddb84d	0.02706542
55	0xbce2938e	-0.02765825
56	0xbda00b62	-0.07814671
57	0x3c7f5ead	0.015586537
58	0xbd2ffd4f	-0.042966183
59	0xbd28fcbb	-0.041256648
60	0xbda78c04	-0.08181003
61	0x3d98df2f	0.07464444
62	0xbd823dd4	-0.06359449
63	0x3d0f9da4	0.035062447
64	0x3d1d12a1	0.038347844
65	0x3d9ddbfc	0.07707974
66	0x3d590680	0.052984715
67	0xbd40d806	-0.047081016
68	0x3d4a8768	0.04944554
69	0xbd497ce7	-0.04919138
70	0x3c06ab2b	0.008219521
71	0xbced626b	-0.028977593
72	0xbc81dd46	-0.015852582
73	0xbc507967	-0.012724257
74	0xbdd58fc8	-0.10427815
75	0x3d9a1747	0.07523971
76	0xbcde7032	-0.027153108
77	0x3d01467d	0.031561363
78	0xbcf610a0	-0.030037224
79	0xbdd16007	-0.10223394
80	0xbba40d83	-0.0050064935
81	0xbd1b07a7	-0.037849095
82	0x3d10ab9b	0.035319906
83	0x3d368d66	0.04456844
84	0x3dbfb073	0.09359827
85	0x3d07bd1b	0.03313933
86	0x3b19c3e4	0.0023462707
87	0xbd05f506	-0.032704376
88	0xba94300c	-0.0011305823
89	0x3d6c6a97	0.05771884
90	0xbdd75df2	-0.105159655
91	0xbdd1f2f1	-0.102514155
92	0x3c8cdce3	0.01719517
93	0xbcb3c060	-0.021942317
94	0xbc6901d8	-0.014221631
95	0xbd3815e8	-0.044942766
96	0xbd76410a	-0.06012062
97	0xbd87198a	-0.06596668
98	0xbd612001	-0.054962162
99	0xbd9d3247	-0.07675605
100	0xbcc048f9	-0.023472296
101	0x3d01114b	0.031510632
102	0xbd970eef	-0.07375895
103	0x3dbac2c1	0.091191776
104	0xbdb46cd0	-0.08809817
105	0xbba7a2b6	-0.005115832
106	0xbaefbb89	-0.0018290143
107	0xbe0caaa8	-0.13736975
108	0x3ca26f3b	0.01982843
109	0x3dcb65f6	0.09931557
110	0xbca62549	-0.02028145
111	0x3dd2c993	0.102923535
112	0x3c9f131a	0.019418288
113	0xbb890263	-0.0041811927
114	0x3d6a2bf5	0.057170827
115	0x3db943d6	0.09046142
116	0x3dc10355	0.09424464
117	0x3d7cf076	0.06175276
118	0xbdadee99	-0.084927745
119	0xbd05e383	-0.032687675
120	0x3c9f5ebd	0.019454354
121	0xbd37d831	-0.04488391
122	0x3d0a794d	0.033807088
123	0xbd317f80	-0.043334484
124	0xbde0e3de	-0.10980962
125	0xbd87ea17	-0.06636446
126	0xbdb98c5f	-0.09059977
127	0xbc0a1845	-0.008428638
128	0xbe241a85	-0.16025741
129	0xbd800f23	-0.06252887
130	0xbc4da872	-0.0125523675
131	0xbd1095c4	-0.035299078
132	0xbdcad324	-0.09903553
133	0x3d19d720	0.037558675
134	0xbdec7fa4	-0.11547783
135	0xbd8e538f	-0.06949531
136	0x3d88a9c4	0.06673005
137	0xbd63f76d	-0.055655885
138	0x3dd21f1d	0.10259841
139	0x3dc119e1	0.09428764
140	0x3bac1f87	0.005252782
141	0xbcb3de13	-0.02195648
142	0xbd759c8c	-0.059963748
143	0xbc350567	-0.011048651
144	0xbb19eccb	-0.0023487087
145	0xbd02482d	-0.031807113
146	0xbe429f8d	-0.19006176
147	0xbd9a916e	-0.0754727
148	0xbce3dd97	-0.027815623
149	0xbdadf377	-0.08493703
150	0xbc07a3a4	-0.008278761
151	0xbd380a38	-0.04493162
152	0xbd9f1cb0	-0.077691436
153	0xbdf1f4de	-0.11814283
154	0x3e10fd7f	0.14159201
155	0xbc0658e7	-0.008199907
156	0xbe151179	-0.14557447
157	0xbc8c0b5f	-0.017095266
158	0xbd0a9e02	-0.033842094
159	0xbd6f453c	-0.058415636
160	0x3daf6eb9	0.085660405
161	0xbd8a4171	-0.06750763
162	0x3cd76c90	0.026296884
163	0xbd827014	-0.063690335
164	0x3cf75c79	0.030195462
165	0xbd55d29d	-0.05220281
166	0xbc479307	-0.01218105
167	0x3d06d187	0.032914665
168	0x3ca9e56f	0.020739285
169	0xbdeb4ea5	-0.1148961
170	0x3b9505c2	0.0045478055
171	0xbb9f5b89	-0.0048632068
172	0xbd979ebd	-0.07403324
173	0xbd2f374a	-0.042777337
174	0x3d4be487	0.049778488
175	0x3d2021a1	0.03909457
176	0xbdd823bd	-0.105536915
177	0xbd5f1a8c	-0.054468676
178	0xbd04811c	-0.03234969
179	0xbd059155	-0.032609303
180	0x3d814292	0.063115254
181	0xbd9c5402	-0.07633211
182	0xbdf35bb3	-0.118827246
183	0xbd3709b7	-0.044687
184	0xbd52bb0d	-0.051447917
185	0xbe1fc001	-0.15600587
186	0xbdcb9467	-0.09940415
187	0xbdbf5991	-0.09343255
188	0xbd89885a	-0.0671546
189	0x3bbfc502	0.0058523426
190	0x3cce8b87	0.025213016
191	0xbd2477c4	-0.04015328
192	0xbdab4c5d	-0.083641745
193	0xbc8b92ca	-0.017037768
194	0xbd723a4d	-0.05913763
195	0xbdf98a8b	-0.12184628
196	0xbdd25368	-0.10269815
197	0xbd5bf73d	-0.05370258
198	0xbd49278e	-0.049109988
199	0x3ca8d7c2	0.020610694
200	0xbd0bd87d	-0.034142006
201	0x3bd8f5d3	0.0066211014
202	0x3c135dd9	0.008994543
203	0xbd54db1e	-0.05196678
204	0x3df21d3f	0.118219845
205	0xbdf42952	-0.11921944
206	0x3b48e199	0.0030652045
207	0x3d4b643c	0.049656138
208	0x3defc964	0.11708334
209	0x3d11da22	0.03560842
210	0xbd190855	-0.03736146
211	0x3d1ec45c	0.03876148
212	0x3d99e7aa	0.075148895
213	0x3d2794af	0.04091328
214	0xbd05395b	-0.0325254
215	0x3c9026b9	0.01759659
216	0x3bdcf18f	0.006742663
217	0x3d055aab	0.03255717
218	0xbc12364c	-0.008924078
219	0x3d4b5637	0.049642768
220	0x3db90dba	0.09035821
221	0x3c6edfb6	0.014579704
222	0x3d5bd6a7	0.053671505
223	0x3d2250ea	0.039627947
224	0x3c88125e	0.01661032
225	0x3bb30097	0.005462717
226	0x3cc651bd	0.024208898
227	0xbc8ecfe9	-0.017433124
228	0x3d8c8ce9	0.06862814
229	0x3d4db023	0.050216805
230	0x3cd37a1e	0.025815066
231	0x3d9cbd16	0.07653253
232	0xbbe86401	-0.0070919995
233	0xbc4faee6	-0.012675976
234	0xbcf9f1fc	-0.030510895
235	0x3c9f6d01	0.019461157
236	0x3d78e285	0.0607629
237	0xbc2955f2	-0.010335432
238	0x3c5257ca	0.012838313
239	0x3bb0e2fc	0.0053981524
240	0x3c3c25e2	0.011483641
241	0xb9d4cb20	-0.0004058713
242	0x3d6c2acf	0.057658013
243	0x3cae986b	0.021312913
244	0xbcc26471	-0.023729535
245	0x3d2bfd50	0.041989625
246	0x3d2e807c	0.042603
247	0xbd3ad3fe	-0.045612328
248	0x3d0a7d46	0.033810876
249	0xbd42c81f	-0.04755413
250	0x3d6bf574	0.05760713
251	0x3d10270b	0.035193484
252	0x3acbaf4a	0.0015539911
253	0x3ca113f9	0.019662844
254	0xbd398d2e	-0.045300655
255	0xbda83e90	-0.08215058

feat_extraction.stage2.rbr_1x1.conv.weight f4 [12, 14, 1, 1]
0	0xbe02009f	-0.1269555
1	0xbdb45d51	-0.08806861
2	0xbe5ec74a	-0.2175571
3	0x3ddb27bc	0.10700938
4	0xbd12fc92	-0.0358854
5	0x3cda4bb6	0.02664743
6	0x3e8a6d17	0.27036354
7	0x3d6c5825	0.05770125
8	0x3e14b682	0.14522746
9	0x3d83ba69	0.06432039
10	0xbc8575f3	-0.016291594
11	0x3e3eca7a	0.18631926
12	0x3de23a05	0.110462226
13	0xbd11412f	-0.035462555
14	0xbc50cfb0	-0.012744829
15	0xbd97c769	-0.07411081
16	0x3c0000d5	0.007812698
17	0x3e310897	0.17288433
18	0x3e6e93c4	0.23298556
19	0x3e5dbdf9	0.216545
20	0xbe3a2d82	-0.18181422
21	0xbd297103	-0.041367542
22	0x3d2b60c2	0.041840322
23	0x3e55cbd2	0.20878533
24	0xbd56cfa8	-0.05244413
25	0xbda6b932	-0.08140792
26	0x3e015042	0.12628272
27	0xbe2101ff	-0.15723418
28	0x3e833d8d	0.25632897
29	0xbe0875f4	-0.13326246
30	0x3dedb4c7	0.11606746
31	0xbd7b2bad	-0.06132095
32	0xbe63edea	-0.22258726
33	0xbe816bc6	-0.25277537
34	0x3df468a9	0.11934025
35	0xbdc4d34f	-0.096106164
36	0xbe0698f8	-0.1314429
37	0x3e96c6bc	0.29448497
38	0x3e3fd737	0.18734442
39	0x3e93a2f1	0.28835252
40	0xbdbc0dea	-0.091823414
41	0x3c89b234	0.016808607
42	0x3d14da39	0.036340926
43	0xbc16ddbc	-0.009208139
44	0x3debd2b9	0.115148015
45	0x3d4c3120	0.049851537
46	0xbda924a4	-0.08258942
47	0xbd37529d	-0.04475652
48	0xbe07d4db	-0.13264792
49	0xbe3be742	-0.18349937
50	0x3db6a050	0.08917296
51	0xbd867057	-0.06564396
52	0xbdf149ac	-0.1178163
53	0xbe0e310d	-0.13885899
54	0x3e24cba5	0.16093309
55	0xbd8f7ddd	-0.070064284
56	0x3e497766	0.19674453
57	0x3dc6d13a	0.097078755
58	0xbdb557e3	-0.08854654
59	0x3e6eea9a	0.23331681
60	0xbdbb69c7	-0.09151035
61	0xbe7ecefb	-0.24883644
62	0x3e3b4afb	0.18290322
63	0xbe195a4c	-0.14975852
64	0x3e62b954	0.2214101
65	0x3e626adc	0.22111076
66	0xbd9aec5e	-0.07564615
67	0xbd848516	-0.06470697
68	0x3de1d8f8	0.11027712
69	0x3ddcd1e3	0.1078222
70	0x3e57c3db	0.21070807
71	0x3d96e9e6	0.07368831
72	0x3cb0d9d7	0.02158825
73	0x3e505d7d	0.20348163
74	0x3d0f6c32	0.035015292
75	0xbe5aa42c	-0.21351689
76	0xbd448194	-0.047975138
77	0xbd0f5b9b	-0.03499947
78	0xbb797995	-0.0038066853
79	0xbe6d122e	-0.23151466
80	0xbe81e948	-0.25373292
81	0xbdd757fe	-0.1051483
82	0x3d8e0500	0.069345474
83	0x3df9de54	0.12200609
84	0xbe5f343a	-0.21797267
85	0x3dfe4bb1	0.12416781
86	0x3cfcef90	0.030875951
87	0x3e3c0d7d	0.1836452
88	0xbe1495e7	-0.14510308
89	0xbdaf4a1c	-0.08559057
90	0x3de0b2bf	0.10971593
91	0xbe77e9f0	-0.24210334
92	0x3dd864a3	0.1056607
93	0xbda8f4b9	-0.08249802
94	0x3d8c1bc6	0.06841235
95	0xbded8695	-0.11597935
96	0x3e7daa73	0.24772052
97	0x3d85e4fe	0.065378174
98	0x3cf80a9e	0.0302785
99	0xbdfe9c9a	-0.12432213
100	0xbe39f705	-0.18160637
101	0xbd366929	-0.044533882
102	0xbe2cc237	-0.16870962
103	0x3d16226f	0.036653932
104	0x3e859433	0.2608963
105	0x3df7fa48	0.12108284
106	0xbd89b060	-0.06723094
107	0xbd765e9f	-0.06014883
108	0x3e049e68	0.12951052
109	0xbc354d4e	-0.011065794
110	0xbe32fb19	-0.17478599
111	0xbc9413d7	-0.018075867
112	0x3e1a09df	0.15042828
113	0xbe11167f	-0.14168738
114	0xbd3c4ce0	-0.04597175
115	0xbd6ee83e	-0.058326952
116	0x3e22ebad	0.15910216
117	0xbe049cf2	-0.12950495
118	0xbd3b730f	-0.045764025
119	0x3dfa84d9	0.1223237
120	0xbdaba739	-0.083815046
121	0x3e86f2eb	0.26357207
122	0xbe2b4d85	-0.1672879
123	0xbe053f50	-0.13012433
124	0x3c03ca8a	0.008043895
125	0xbe0a2a6b	-0.13492744
126	0xbe845408	-0.2584536
127	0xbe284d64	-0.16435772
128	0xbe729b59	-0.23692073
129	0x3e85168e	0.2599377
130	0x3cf43f06	0.029815208
131	0xbe027d74	-0.12743169
132	0x3df37af6	0.11888687
133	0x3cd4bfb0	0.02597031
134	0xbdedd368	-0.11612588
135	0x3e5672b4	0.20942193
136	0xbe168b55	-0.14701588
137	0xbd93c9dc	-0.07216236
138	0x3e67ea88	0.2264806
139	0x3e2900f6	0.16504273
140	0x3dea0def	0.11428439
141	0x3ddfe2e0	0.10931945
142	0xbdde5e15	-0.108577885
143	0xbe687879	-0.22702207
144	0xbb65d8bb	-0.0035071808
145	0x3e0a97d3	0.13534479
146	0x3e3ff254	0.18744785
147	0xbd28e7fc	-0.041236863
148	0xbdf10f4f	-0.11770498
149	0x3cc02351	0.02345434
150	0x3e5dc0b9	0.21655549
151	0x3d896a23	0.06709697
152	0x3e8a2684	0.2698251
153	0xbdda14b5	-0.10648481
154	0x3d816c18	0.06319445
155	0xbe16a75d	-0.14712282
156	0x3ccf31e5	0.025292346
157	0x3e5189e3	0.20462756
158	0xbe58187b	-0.21103089
159	0x3e6926da	0.22768727
160	0x3e6448db	0.22293417
161	0x3e62a4c1	0.22133161
162	0xbd9bad9c	-0.07601473
163	0x3e592f7e	0.21209523
164	0x3d87a1bc	0.06622645
165	0xbdb3f900	-0.08787727
166	0x3e94423a	0.28956777
167	0xbe6d4b74	-0.23173314

importance_map.upscale.weight f4 [12, 6, 3, 3]
0	0x3db295c1	0.087199695
1	0x3d4174d5	0.04723056
2	0x3d96d93f	0.07365655
3	0x3d380920	0.044930577
4	0xbd71c7db	-0.059028488
5	0x3d8f6de8	0.07003385
6	0xbde5b71e	-0.112165675
7	0xbceadaee	-0.028668847
8	0xbd001120	-0.03126633
9	0xbdd3a087	-0.103333525
10	0xba7c2125	-0.0009617976
11	0x3dba3d94	0.09093776
12	0x3d7358a9	0.059410725
13	0xbcf3f02e	-0.029777613
14	0x3db3af69	0.08773691
15	0x3cddde2d	0.02708348
16	0x3d5a2c15	0.053264696
17	0x3ce7339a	0.028222848
18	0xbd007ecc	-0.031370923
19	0xbde75f39	-0.11297459
20	0x3d9c17c9	0.07621724
21	0x3e2cee6f	0.1688783
22	0xbda460d6	-0.080262825
23	0x3e356b27	0.17716657
24	0x3dfff1b7	0.12497275
25	0x3dee3587	0.11631303
26	0x3e1002ee	0.14063618
27	0x3dc4632c	0.09589228
28	0x3ceb7ab4	0.028745033
29	0xbd658e35	-0.056043822
30	0xbd67716a	-0.056504644
31	0xbd920bca	-0.07131155
32	0x3d16a8f2	0.036782213
33	0x3d13c970	0.036080778
34	0x3cc43fc0	0.02395618
35	0xbd6367df	-0.05551898
36	0x3da51804	0.08061221
37	0xbceda417	-0.029008908
38	0xbde477cf	-0.11155664
39	0x3e42a946	0.19009885
40	0x3dfafe3a	0.12255521
41	0x3e32b37c	0.1745128
42	0x3bb18c4d	0.0054183365
43	0x3e489f10	0.19591928
44	0x3c1499e1	0.009069891
45	0xbdcd8280	-0.100346565
46	0x3df8fdcb	0.12157782
47	0xbbf87459	-0.007582229
48	0xbd88dc8c	-0.06682691
49	0x3daebd78	0.08532232
50	0x3d67511e	0.056473844
51	0x3d91e150	0.07123053
52	0xbd12e473	-0.035862397
53	0xbddbc94a	-0.10731752
54	0x3e1224b5	0.14271815
55	0x3dd6db7b	0.10491081
56	0x3d642753	0.055701565
57	0x3d4f8c5d	0.05067097
58	0x3e1cfcad	0.15330763
59	0x3e62431a	0.2209591
60	0xbd324fbf	-0.043533083
61	0x3d62836b	0.05530111
62	0x3e2de724	0.16982704
63	0x3d894f6f	0.06704604
64	0x3e421029	0.18951477
65	0xbda37ce6	-0.07982807
66	0x3e22f57f	0.15913962
67	0xbc8a16a4	-0.016856499
68	0x3cbf8e5a	0.023383308
69	0x3d3fd54e	0.046834283
70	0x3d2d4c92	0.04230935
71	0x3e411854	0.18856937
72	0xbe012c5f	-0.12614582
73	0xbd688d2f	-0.05677527
74	0xbdd39fcc	-0.10333213
75	0x3d842e4f	0.06454145
76	0x3daad46a	0.08341296
77	0x3daa4d56	0.08315532
78	0x3ab43e30	0.0013751443
79	0xbe3e9eeb	-0.1861531
80	0xbc9d6c94	-0.019216813
81	0x3ca23fd7	0.019805832
82	0x3e041de6	0.1290203
83	0x3dec0b3d	0.11525581
84	0xbd8cb46f	-0.068703525
85	0x3d3c94b6	0.04604026
86	0xbae42d41	-0.0017408506
87	0xbcc9c2a5	-0.024628947
88	0x3d3cbfcf	0.04608136
89	0x3d81c41a	0.063362315
90	0x3d77d53c	0.06050609
91	0x3c7edb83	0.015555265
92	0xbdc348fd	-0.09535406
93	0xbd1f2f66	-0.038863562
94	0xbcaa8dc6	-0.020819556
95	0xbd1a8aaf	-0.037729915
96	0x3c121f6e	0.008918626
97	0xbd770c57	-0.060314503
98	0xbdb56b35	-0.08858339
99	0x3d363ea6	0.04449334
100	0xbc38159e	-0.011235623
101	0xbe08c3be	-0.1335592
102	0xbd851b80	-0.06499386
103	0x3e0fe28d	0.14051266
104	0xbd23f310	-0.040026724
105	0xbd3d8496	-0.046269022
106	0xbc28c9cd	-0.010302019
107	0xbe2507dd	-0.16116281
108	0x3df0b941	0.117540844
109	0xbdddfee0	-0.10839629
110	0xbd1ea9df	-0.03873622
111	0x3db33ee3	0.08752229
112	0x3e0750f0	0.13214469
113	0x3dd70a85	0.10500053
114	0xbd3999ba	-0.04531262
115	0x3d7d166f	0.061788972
116	0x3d83d8e2	0.064378515
117	0xbdc89409	-0.097938605
118	0xbdb3d5b2	-0.087809935
119	0x3c45e759	0.012079083
120	0x3df60af5	0.12013809
121	0xbd19f5ee	-0.037588052
122	0x3d480519	0.048832987
123	0x3dc1997a	0.094531015
124	0x3db2516f	0.087069385
125	0x3d6df764	0.05809726
126	0xbd1acd30	-0.03779334
127	0x3db59700	0.088666916
128	0xbdfdb3cc	-0.12387809
129	0x3cc38feb	0.023872336
130	0x3d2a58d4	0.04158862
131	0xbc44b338	-0.01200562
132	0x3e0134d5	0.1261781
133	0xbdf1698d	-0.1178771
134	0xbda85265	-0.082188405
135	0x3e0e5afa	0.13901892
136	0xbcc2dcf5	-0.023787001
137	0x3d4ecb3e	0.050486796
138	0x3d2c81de	0.04211604
139	0x3e0b835c	0.13624328
140	0x3d0b39e1	0.033990745
141	0xbb1ea84b	-0.0024209197
142	0xbd0f42d8	-0.034975857
143	0xbb1d45ef	-0.0023997982
144	0xbdc648dd	-0.09681866
145	0x3d269484	0.04066898
146	0xbbef6de4	-0.007306801
147	0xbdabdcd3	-0.08391728
148	0xbccb4862	-0.024814788
149	0xbc99ae87	-0.018759979
150	0x3d282879	0.041054223
151	0xbdd3d2de	-0.10342954
152	0x3e07c7fd	0.13259883
153	0xbe04183e	-0.12899873
154	0x3e0ce35c	0.13758606
155	0xba8ff2c3	-0.0010982383
156	0x3d79469a	0.060858347
157	0x3d6d8fb7	0.057998385
158	0xbdd720be	-0.10504292
159	0xbdffd962	-0.12492634
160	0x3cf2f44f	0.029657511
161	0xbceaa6af	-0.028643934
162	0xbd57ee76	-0.05271765
163	0xbde3062f	-0.11085164
164	0xbd519202	-0.051164635
165	0x3d5cfe61	0.053953532
166	0xbe2a62a3	-0.1663919
167	0xbda297c2	-0.07939102
168	0x3d9cf283	0.07663443
169	0xbba7f3aa	-0.0051254826
170	0xbd0c8d03	-0.034314167
171	0xbe214096	-0.15747294
172	0x3d7be1f0	0.061494768
173	0x3e02c237	0.127694
174	0xbd97ea41	-0.07417727
175	0x3d75c171	0.059998933
176	0xbdc919fc	-0.09819409
177	0x3daed093	0.08535876
178	0x3d5ae677	0.053442445
179	0xbde1feb3	-0.11034908
180	0x3d3836ca	0.044974126
181	0xbe222210	-0.15833306
182	0x3bd43e62	0.006477163
183	0x3c723eef	0.014785512
184	0xbe49cf74	-0.19708043
185	0x3d96e5ab	0.073680244
186	0x3e01d4a3	0.1267877
187	0xbdf4ed1c	-0.119592875
188	0x3de732a5	0.112889566
189	0xbe002c8c	-0.12516993
190	0xbccc0a51	-0.024907263
191	0xbd4c96e6	-0.049948595
192	0xbd614959	-0.05500159
193	0xbdd38a16	-0.10329072
194	0xbe02be30	-0.12767863
195	0xbd647bd4	-0.055782154
196	0xbe10b979	-0.14133252
197	0xbd73fbc3	-0.05956627
198	0xbd47d809	-0.04879001
199	0x3de457be	0.11149548
200	0xbd07fb2f	-0.03319853
201	0x3cb1e14b	0.021713873
202	0xbd96195d	-0.073290564
203	0xbd99727e	-0.07492541
204	0x3dbb1345	0.09134535
205	0xbdb68afc	-0.08913228
206	0x3de61ecc	0.11236343
207	0xbdf76d60	-0.120814085
208	0x3de0a787	0.10969453
209	0x3d48a3a2	0.048984177
210	0x3cfa4c4b	0.030553957
211	0x3dfd557f	0.12369823
212	0xbdd67967	-0.104723744
213	0xbe3f9833	-0.18710403
214	0x3c5599ca	0.013037154
215	0xbe382f43	-0.17986779
216	0x3d0f439f	0.034976598
217	0xbdecd70b	-0.11564454
218	0xbc941f93	-0.018081462
219	0x3e18eb28	0.14933455
220	0x3d150bb6	0.03638812
221	0xbac0de45	-0.0014714679
222	0x3e1d6b2b	0.15372913
223	0xbd5ebc11	-0.054378573
224	0xbde629f2	-0.11238469
225	0x3d8e8b7e	0.069602
226	0x3de4204e	0.11138974
227	0xbcc189af	-0.023625223
228	0xbd979896	-0.0740215
229	0x3d83d398	0.06436843
230	0x3d144f6a	0.036208548
231	0xbd84c162	-0.06482197
232	0xbcf4bf17	-0.029876275
233	0x3bd87f7d	0.0066069947
234	0x3de65332	0.11246337
235	0xbc6ddbc4	-0.014517728
236	0x3e13638d	0.14393444
237	0x3e3243f8	0.1740874
238	0x3d27d776	0.040976964
239	0xbd85723a	-0.065159276
240	0xbcfecb1f	-0.031102715
241	0xbd0510ce	-0.03248673
242	0x3cd2838e	0.025697496
243	0xbd885697	-0.06657141
244	0xbe1cd7f0	-0.15316749
245	0xbcf97a7c	-0.030453913
246	0xbd9d23e0	-0.07672858
247	0x3d76d486	0.060261272
248	0xbd8a2b60	-0.067465544
249	0xbb5c7623	-0.003363975
250	0x3d5b7dd3	0.053586792
251	0x3d8117e4	0.06303385
252	0x3c69d8a6	0.014272844
253	0x3da40a07	0.08009725
254	0xbdd8188c	-0.10551557
255	0x3d9b71ca	0.07590063

importance_map.upscale.bias f4 [6]
0	0x3d9f4017	0.07775896
1	0x3d784b91	0.06061894
2	0xbddbc4b2	-0.10730876
3	0xbccb5299	-0.02481966
4	0xbdb09ede	-0.086240515
5	0x3d84b0f0	0.06479061

importance_map.genmap.weight f4 [18, 6, 3, 3]
0	0x3d801d95	0.06255642
1	0x3cb23c4a	0.021757264
2	0x3dd4d98b	0.103930555
3	0x3c76a412	0.015053766
4	0x3dcb6a8c	0.099324316
5	0x3b241e1f	0.0025042368
6	0x3dea326d	0.11435399
7	0x3d8baf79	0.06820578
8	0x3e1fcaf9	0.15604772
9	0xbc443937	-0.011976532
10	0x3cd675ea	0.026179273
11	0xbe00aa8a	-0.12565055
12	0x3e0665ee	0.1312482
13	0x3cc7c4f2	0.024385903
14	0x3d849eb0	0.0647558
15	0xbde81419	-0.11331958
16	0xbc456c51	-0.01204975
17	0x3dfd131b	0.1235716
18	0xbce85398	-0.028360173
19	0x3cc57dea	0.024107892
20	0x3de98c81	0.11403752
21	0x3d6c1c2c	0.057644054
22	0x3da07f0f	0.078367345
23	0xbdaf0fc1	-0.08547927
24	0xbd7c27bb	-0.061561327
25	0x3cc3b6ce	0.023890879
26	0x3c4897fa	0.012243265
27	0xbd9fc345	-0.078009166
28	0xbe10c933	-0.14139251
29	0x3e02da89	0.12778677
30	0xbd4b2add	-0.049601424
31	0x3de54b85	0.11196045
32	0xbd941feb	-0.0723265
33	0x3da9dc61	0.08293987
34	0xbd843f64	-0.06457403
35	0x3de769dd	0.11299489
36	0x3dfcbff0	0.12341297
37	0x3dce16dd	0.100629546
38	0xbda0719a	-0.07834168
39	0xbd60b8ab	-0.054863613
40	0xbdc2544e	-0.09488736
41	0xbd37962b	-0.044820946
42	0x3d165f3b	0.036711913
43	0x3da4efbe	0.0805354
44	0xbd909b4b	-0.0706087
45	0x3db7ca1d	0.08974097
46	0x3c8fd215	0.01755623
47	0x3bb159bb	0.005412308
48	0xbd9d60f9	-0.07684512
49	0x3d411666	0.0471405
50	0x3ce402cc	0.027833365
51	0x3dc289fa	0.09498973
52	0x3e0617ef	0.13095067
53	0x3deeb57b	0.116557084
54	0x3db90ede	0.09036039
55	0x3c504af5	0.012713184
56	0x3dbe6059	0.092957206
57	0x3e06b5ce	0.1315529
58	0x3dfd146a	0.12357409
59	0x3de7ce48	0.11318642
60	0xbd0b04d5	-0.033940155
61	0x3cae0bc2	0.021245841
62	0xbd32c3e4	-0.043643847
63	0x3dbeac1c	0.09310171
64	0xbc6cc311	-0.014450804
65	0xbde5362e	-0.111919746
66	0xbd4c01bc	-0.04980634
67	0xbdc60b5b	-0.09670135
68	0x3d156e36	0.03648206
69	0x3dfb788a	0.122788504
70	0x3c39a389	0.011330494
71	0xbd076374	-0.03305383
72	0xbda07ea6	-0.07836656
73	0xbdeedb83	-0.11662962
74	0x3cdc7c72	0.026914809
75	0x3d34cdcc	0.044141576
76	0xbddfd20a	-0.10928734
77	0x3d5047d7	0.05084976
78	0x3be1eced	0.006894699
79	0xbe090050	-0.13379025
80	0x3d3e6195	0.04647978
81	0x3c96c4a3	0.01840431
82	0xbd740383	-0.05957366
83	0x3dbb2a0c	0.09138879
84	0xbd9688c5	-0.073503055
85	0x3c801645	0.015635619
86	0x3e02b35b	0.12763731
87	0x3dc9c61d	0.0985224
88	0x3dbf78e9	0.09349234
89	0xbd58204d	-0.05276518
90	0xbda535b5	-0.080668844
91	0x3d22f355	0.03978284
92	0xbbedf406	-0.007261756
93	0x3dc31605	0.09525684
94	0x3dec5af1	0.11540783
95	0x3dd13228	0.10214645
96	0x3d1f5ae3	0.038905036
97	0xbdbc5f05	-0.09197811
98	0x39d224b0	0.00040081656
99	0x3d4d734e	0.05015879
100	0xbc4859e5	-0.012228464
101	0x3c0b8be3	0.008517238
102	0x3c87b602	0.01656628
103	0xbdbb70fb	-0.09152409
104	0x3c55e643	0.013055387
105	0xbda75a51	-0.08171523
106	0x3e070438	0.13185203
107	0xbd198025	-0.037475724
108	0x3d3f0286	0.046633266
109	0xbd254631	-0.040350143
110	0xbdb3d62c	-0.087810844
111	0x3cfd07e2	0.030887548
112	0xbdf963c2	-0.121772304
113	0x3da13efb	0.07873341
114	0x3c1890cd	0.009311867
115	0x3c219148	0.009861298
116	0x3da7df97	0.08196943
117	0x3db1f9b2	0.08690204
118	0x3de0a4df	0.10968947
119	0x3dae4668	0.08509523
120	0xbcd1b3ab	-0.025598368
121	0xbbd07790	-0.006361909
122	0xbdfc6200	-0.123233795
123	0x3cf57ea4	0.029967614
124	0x3b18c07c	0.002330809
125	0x3dc316ce	0.09525834
126	0x3e0395bf	0.12850092
127	0xbda6bc3a	-0.0814137
128	0xbd18e3e2	-0.0373267
129	0x3e0f58ba	0.1399869
130	0x3d1aea13	0.037820887
131	0xbc4b98f6	-0.012426605
132	0xbd65006e	-0.055908613
133	0xbe3f35ea	-0.1867291
134	0x3dc41801	0.09574891
135	0x3d84c55f	0.06482958
136	0x3d3e97cd	0.046531487
137	0x3dab9362	0.083777204
138	0xbd80b163	-0.06283834
139	0x3e1ab072	0.15106371
140	0x3da36026	0.07977323
141	0x3d7adcf9	0.061245892
142	0xbc611772	-0.0137385
143	0xbdd6df3c	-0.10491797
144	0x3d718ebb	0.05897401
145	0x3d516749	0.05112389
146	0x3d52fa03	0.05150796
147	0x3d9b7481	0.07590581
148	0xbd4e13be	-0.050311796
149	0x3e0ac704	0.13552481
150	0x3d0e0e86	0.03468182
151	0xbdcf4fb3	-0.10122623
152	0xbd0aee1c	-0.033918485
153	0xbd29ac14	-0.041423872
154	0x3dbcf53f	0.092264645
155	0xbdf04577	-0.11731999
156	0xbdc5d5e8	-0.0965994
157	0xbb597226	-0.003317961
158	0xbe1b2968	-0.15152514
159	0xbe00e7ac	-0.12588376
160	0xbdb0968f	-0.08622467
161	0x3d6d0abe	0.057871573
162	0xbda405c3	-0.080089115
163	0xbc9fcc62	-0.019506637
164	0x3ddcc23e	0.10779236
165	0xbc6aed21	-0.0143387625
166	0x3e0cc8da	0.13748494
167	0xbd8126c4	-0.06306222
168	0x3a085245	0.00052002474
169	0xbb08b2d6	-0.0020858548
170	0xbd9f2801	-0.07771302
171	0x3e00ed4b	0.1259052
172	0x3cdc0149	0.026856082
173	0xbdb9bde3	-0.09069421
174	0x3d912494	0.07087055
175	0xbd33ce2d	-0.043897796
176	0xbd64d5f7	-0.055868115
177	0x3ddc4f56	0.1075732
178	0x3d71f945	0.059075613
179	0xbce36d3d	-0.02776205
180	0x3d851868	0.06498796
181	0x3d95c668	0.073132336
182	0xbceb28d6	-0.028705996
183	0x3e12419d	0.14282842
184	0x3e2f4cce	0.17119142
185	0x3df7cb66	0.12099342
186	0xbca376e5	-0.019954154
187	0x3db68fa8	0.08914119
188	0x3d3a3aaa	0.045466103
189	0x3e0e1c0f	0.13877891
190	0xbded0058	-0.11572331
191	0x3b7fbeeb	0.0039023708
192	0x3da3f846	0.08006339
193	0xbd81c077	-0.06335538
194	0xbdbad728	-0.09123069
195	0x3dff5ace	0.124684915
196	0x3d9578af	0.07298409
197	0x3e262b2e	0.16227409
198	0x3ddaf19e	0.10690616
199	0x3d44d19c	0.04805146
200	0xbd6ad23f	-0.057329413
201	0xbcf86ab1	-0.030324312
202	0x3db4eb7e	0.08833979
203	0x3c8d328d	0.017236019
204	0x3e322cd8	0.17399919
205	0x3e31a07e	0.17346379
206	0x3d568a6a	0.052378096
207	0x3e350789	0.17678656
208	0x3c752c31	0.014964149
209	0x3d9e6ef5	0.07736007
210	0x3e0ef847	0.13961898
211	0xbd5548f5	-0.05207153
212	0x3d4d95ed	0.05019181
213	0x3cee2b6d	0.029073441
214	0x3e0a7e3a	0.13524714
215	0x3dcce09a	0.10003777
216	0xbe0895cf	-0.13338397
217	0xbe6faa94	-0.23404914
218	0xbd98071e	-0.074232325
219	0xbd85d3c2	-0.0653453
220	0xbc0a3b8b	-0.008437048
221	0xbc3faff9	-0.01169967
222	0xbe5860f2	-0.21130732
223	0xbe6a1890	-0.22860932
224	0xbe01dc5d	-0.12681718
225	0xbe2f1c5a	-0.17100659
226	0xbd101282	-0.0351739
227	0x3cc5b013	0.02413181
228	0x3d2eb4b6	0.042652808
229	0xbdb7b7a3	-0.08970573
230	0xbe49e412	-0.19715908
231	0x3d1171f3	0.03550906
232	0xbe12f008	-0.14349377
233	0x3d08bc8c	0.033382937
234	0x3b47a9c5	0.003046618
235	0xbd783ed8	-0.060606807
236	0x3e07b5fa	0.13253012
237	0x3bf7fe85	0.007568183
238	0xbdb0504f	-0.08609068
239	0x3d2f5a5b	0.04281078
240	0xbd75fabb	-0.06005357
241	0xbcd94a80	-0.026524782
242	0xbc87bbfb	-0.016569128
243	0xbe04b804	-0.12960821
244	0xbe26f13f	-0.16302966
245	0xbdfcae7b	-0.12337967
246	0xbcc9a206	-0.024613392
247	0xbdaaeacd	-0.08345566
248	0x3d3ce987	0.046121147
249	0xbd58bc27	-0.05291381
250	0xbc2fc9be	-0.010729251
251	0x3d774f55	0.06037839
252	0x3b676640	0.0035308748
253	0xbdf384db	-0.118905745
254	0xbd4b942b	-0.04970185
255	0xbc604ea9	-0.013690629

importance_map.genmap.bias f4 [18]
0	0x3ce03bd3	0.027372276
1	0x3e0cb3ab	0.13740413
2	0x3d2314d2	0.039814778
3	0xbbf4fe8c	-0.0074766334
4	0xbe2d32fb	-0.16913979
5	0x3dec69bd	0.115436055
6	0x3e0e6af7	0.13907991
7	0xbcfd60f0	-0.030930012
8	0xbcedb229	-0.029015617
9	0x3dca7523	0.09885623
10	0x3dc0c3de	0.09412359
11	0xbd0344a3	-0.03204788
12	0x3d3db0ce	0.046311192
13	0xbd8585c3	-0.06519654
14	0x3d6930b5	0.056931216
15	0xbe0b66c5	-0.13613422
16	0x3d95262e	0.07282673
17	0x3dd2c873	0.10292139
