experiment/meta/model/model_9.pt (torch, 28984 bytes, 14 tensors)

feat_extraction.stage0.rbr_dense.conv.weight f4 [14, 3, 3, 3]
000000 db b8 3c 3e 28 47 08 3b 27 82 57 3d 6c 10 34 3e
       0.18429892 0.0020794366 0.052614357 0.1758439
000010 e1 ac ff bd ad 06 2b 3e 6d 81 1c 3d 55 2b 1e 3e
       -0.12484146 0.16701765 0.038209368 0.15446217
000020 e2 fb 3e 3d b0 44 35 3d f5 bb 04 3e 19 17 c4 3d
       0.046626933 0.04425496 0.12962325 0.09574718
000030 26 5c 0f 3e 14 61 e5 bc b0 4d fd 3c b8 62 2e 3d
       0.13999996 -0.028000392 0.030920833 0.042574614
000040 e2 2f 8b 3d 74 0a 5e 3c 61 e2 3a 3e f0 79 9c 3d
       0.06796242 0.013552297 0.18250419 0.07640445
000050 bc 6c 1c bd fd bb c3 bd b0 cd 20 bd f7 34 ac bd
       -0.038189635 -0.0955734 -0.03925866 -0.0840854
000060 47 96 28 bd 2b 39 16 3b 4e 5f be 3d 8c 93 e4 3d
       -0.04115894 0.0022922258 0.09295522 0.11160955
000070 c1 32 56 be e8 37 ac 3d e2 a0 a7 3d 22 43 3b 3e
       -0.20917799 0.08409101 0.08184983 0.18287328
000080 59 7b fc 3d 01 3b 72 be 93 dd 75 be 73 a8 17 be
       0.12328214 -0.2365532 -0.24010305 -0.14810352
000090 e4 e7 23 3e 3d 35 63 bd 26 cb 25 3d 8d bd 92 bd
       0.16006428 -0.055470694 0.04047694 -0.0716506
0000a0 11 70 46 3e e9 44 b2 bd 56 18 8d 3d 1b bc 74 bd
       0.19378687 -0.0870455 0.06889407 -0.059749704
0000b0 3f 11 29 be 77 84 24 3e 17 02 3c bd 09 3f bb 3d
       -0.16510485 0.16066156 -0.04590043 0.091428824
0000c0 5f 38 e3 3c 01 74 76 3d ad 87 f5 bd a5 04 cc bd
       0.02773684 0.060169224 -0.11988769 -0.099618234
0000d0 18 44 ea 3d c0 7c 35 bd 87 13 79 3e 26 f0 4e 3e
       0.11438769 -0.044308424 0.24323855 0.20208797
0000e0 1d 92 b7 3c 1b 42 97 bd e6 48 2c 3e 69 e2 dc 3d
       0.02240854 -0.073856555 0.16824684 0.10785372
0000f0 78 ad a5 bd af 46 2f 3e a6 2d 1e 3e de 3d 4c 3e
       -0.08089727 0.17116807 0.15447101 0.19945475
000100 ec 30 96 bd 58 a8 16 bc a1 98 f3 3c b0 e0 89 3d
       -0.0733355 -0.00919541 0.029735865 0.06732309
000110 a3 e6 d8 bd 71 ea f0 bd 48 76 09 3e 59 f1 b1 bc
       -0.105908655 -0.11763466 0.13424027 -0.021721529
000120 99 9f 04 3e f9 a1 5b 3d 12 c7 b5 3d 7f cd a8 3d
       0.12951507 0.053621266 0.0887586 0.0824232
000130 90 51 f3 3d 02 21 0e 3e 57 07 23 be cf 81 02 3e
       0.11880791 0.13879779 -0.15920769 0.1274483
000140 31 ec f2 bd 5e 1d 11 be 69 5e d3 3d 8f 10 c5 bb
       -0.11861456 -0.14171359 0.10320742 -0.006013937
000150 18 91 b8 3d f7 90 88 bd 03 10 4b be 94 de a3 3d
       0.090120494 -0.06668275 -0.19830327 0.08001438
000160 c8 d6 e0 bc e4 87 9a 3d 65 1f 1c 3d 1f 08 92 bd
       -0.027446166 0.0754545 0.038115878 -0.07130455
000170 dc 4e 22 3d 25 26 93 3c 8c 7e 9f bd 1a 59 f5 bd
       0.039625987 0.017962525 -0.07787809 -0.119798854
000180 c1 56 43 3c 76 39 36 3d 20 ab e6 bd 60 7e 73 bd
       0.011922539 0.044488393 -0.11263108 -0.059446692
000190 13 32 7a 3e f9 94 2a bc 4f fc e2 3d 90 4a 10 3e
       0.24433164 -0.010411494 0.1108328 0.14090943
0001a0 d7 8e f3 bd 09 af 44 be d5 2c 49 3e 0a 21 d5 ba
       -0.11892479 -0.19207396 0.19646008 -0.0016260457
0001b0 02 da 24 3e 4d a7 93 3d e9 a7 a4 3d 1e 9d 3a 3e
       0.16098788 0.072096445 0.08039839 0.18223998
0001c0 41 b0 65 3e 30 54 d8 bd 95 0c 3e 3d f8 6c 3a 3e
       0.22430517 -0.105629325 0.046398718 0.18205631
0001d0 dd 93 22 3e 58 81 23 3e 99 ed bc bd 71 8b d2 bd
       0.15876718 0.1596731 -0.09225006 -0.102805026
0001e0 2b 7e 88 bd c8 67 a5 3d 6d 8d 6d 3e 46 44 b8 bd
       -0.0666469 0.08076435 0.23198481 -0.08997397
0001f0 30 66 1c 3e 6e 98 95 bd 54 f1 f4 bd 9a 13 a0 3c
       0.15273356 -0.07304464 -0.11960092 0.019540597
000200 67 ce 19 3e ac 0a 80 3e 7b e0 48 bd 73 3f b0 3d
       0.15020142 0.25008142 -0.049042206 0.08605852
000210 12 95 55 3e 47 a1 3a 3e db 3f 19 3e 42 19 24 3e
       0.20857647 0.18225585 0.14965765 0.1602526
000220 ef 85 17 3e 3d 36 67 3d 2a db e2 bd eb c8 c0 bd
       0.14797185 0.05644821 -0.110769585 -0.09413322
000230 c6 10 8f bd 75 ea 42 3b f5 ee 5e bd 95 3e d5 3d
       -0.06985621 0.0029741798 -0.054427106 0.10412327
000240 48 d9 9d 3d ad 28 d7 bb 40 46 b5 3d a3 37 95 3d
       0.07707459 -0.006566128 0.0885129 0.072860025
000250 cb 05 4d 3e c5 a2 24 3e 0c 9f 67 bd f4 95 82 3e
       0.20021741 0.16077717 -0.056548163 0.2550503
000260 4d e0 d6 3b c5 85 da bc 67 3c 36 be 28 10 17 be
       0.0065575005 -0.026675114 -0.17796479 -0.14752257
000270 af e0 0c be fd d8 f2 bc 5d 9e 07 3e a4 06 c5 bd
       -0.13757585 -0.029644484 0.13244005 -0.09620407
000280 ad 01 e1 bd e5 27 82 3d 00 9d 2e 3d a7 37 e9 3d
       -0.10986648 0.063552655 0.042630196 0.11387568
000290 8f 3a 04 be 74 e2 29 3d d2 f2 38 bd b9 9d 83 bd
       -0.12912963 0.04147573 -0.045153446 -0.064265676
0002a0 7a b6 1c be 54 1f 83 bd 07 f7 5d bd 4d 9a 5a 3d
       -0.15303984 -0.0640246 -0.05419066 0.05336981
0002b0 1c 0a 1a 3d dc c0 c9 3c 3e 86 40 3e e2 e4 6e 3e
       0.037607297 0.024628095 0.1880121 0.233295
0002c0 da 8b fc 3d 92 ad 2d bc fb 7a e1 bd 2f 55 14 3e
       0.12331362 -0.010600464 -0.11009785 0.1448562
0002d0 c0 a4 23 bc 1e 9f 37 3d d3 c0 26 be e3 44 fb 3c
       -0.00998801 0.04482948 -0.16284494 0.030672496
0002e0 96 a1 95 bc 75 a0 4b 3e 2c 58 11 be fb bf c7 bd
       -0.018265527 0.19885428 -0.14193791 -0.09753414
0002f0 05 78 ea bb 5a 5f 10 be 82 3e 2b 3d 58 9e fe bd
       -0.0071554207 -0.14098874 0.04180766 -0.124325454
000300 f9 7a f9 bd 68 95 28 3c cc 4b db 3d 11 69 33 be
       -0.12181658 0.0102895275 0.107078165 -0.17520548
000310 e8 95 9a 3d 9f 63 c3 3d 95 dc 21 3e b4 18 10 be
       0.075481236 0.095404856 0.15806802 -0.14071923
000320 5b 48 96 3c 29 6e 25 be 1e 70 41 3e 3c ab a5 bd
       0.018345049 -0.16155304 0.18890426 -0.08089301
000330 da 7d ad 3d b6 23 29 3c 8d 01 d9 bc 2e c7 fa 3c
       0.0847127 0.010323456 -0.026489997 0.030612554
000340 10 ba c4 3d 3c 25 f4 3d a9 d5 a9 3d 69 0a 20 3e
       0.09605801 0.119211644 0.082927056 0.15628971
000350 5d e3 f3 bd ae 3b 2c 3e dd dc 6d 3e 0c f9 47 3e
       -0.119086005 0.16819641 0.23228784 0.19528598
000360 4e f8 24 3e 6c 95 ee bd 7f bc cc bc f2 06 66 3e
       0.16110346 -0.11649594 -0.024992226 0.22463587
000370 5c 44 0b be 4d 0d 53 3e c4 15 df bd 03 98 cb bd
       -0.13600296 0.20610543 -0.10892823 -0.09941103
000380 ba f2 b4 3d b5 9f bd bd a0 16 97 bc 51 5f 41 3e
       0.08835359 -0.09258977 -0.018443406 0.18884017
000390 41 df 62 3e 34 9b 40 3e f8 5d fd bb 13 77 b5 bd
       0.22155477 0.18809205 -0.007732149 -0.08860602
0003a0 e4 0f 66 3e c2 80 24 bd 48 36 6e bd ff a3 50 3d
       0.22467 -0.040161856 -0.058157235 0.05093765
0003b0 bc cd 9d bd ba af 10 3e 0b 3d a8 3d 66 38 06 be
       -0.07705256 0.14129534 0.08214768 -0.13107452
0003c0 00 a8 09 be ed ff 06 bc bf 2c a0 3d a0 9a 8e bd
       -0.13442993 -0.008239728 0.07821035 -0.06963086
0003d0 8e 74 0c be ce 37 92 bd e3 7f 7d be a4 63 35 be
       -0.13716337 -0.0713955 -0.24755816 -0.17713791
0003e0 f6 d8 3f be 65 c5 10 3d de f6 2f 3d 68 a8 0e be
       -0.18735108 0.0353445 0.04296004 -0.1393143
0003f0 57 76 7f bd 40 c5 0a 3d 77 2b 8d bd 5f 0e 0c be
       -0.062368717 0.03387952 -0.06893056 -0.13677357

feat_extraction.stage0.rbr_1x1.conv.weight f4 [14, 3, 1, 1]
000000 bf 24 b1 3e fe b7 f4 3d 12 6c f1 bd eb 38 fa be
       0.34598348 0.11949156 -0.11788191 -0.4887155
000010 a2 c3 e6 3e 39 ac 8a bd 3a e3 a4 be c4 9a d1 3e
       0.4507113 -0.0677113 -0.3220461 0.4093839
000020 67 fc 81 3e d2 26 40 3e 9a 0b 82 bd 6c 13 fb bd
       0.2538788 0.18764809 -0.06349869 -0.12259564
000030 d5 26 0f 3e b0 dc 00 3f fa d4 1c 3e f5 73 52 be
       0.13979657 0.5033674 0.15315619 -0.20552047
000040 20 00 28 3f 63 28 85 3d 7e 6e f6 3e 01 ea 3e 3e
       0.6562519 0.06501844 0.48131174 0.18643953
000050 87 95 1f 3f 46 3e aa 3e 7e 1c 8a be f6 cd 00 3f
       0.62337536 0.33250636 -0.26974863 0.5031427
000060 92 28 6a 3c f2 2b ea be 6f 46 23 be de ee 0f bf
       0.014291899 -0.45736653 -0.15944837 -0.5622386
000070 cb 68 ab be 07 74 e4 be e6 1b d6 3e d7 25 82 bd
       -0.33478388 -0.44619772 0.4181816 -0.063548736
000080 db 2c 97 bd 1c 9a 91 3e 18 18 8a 3e 50 f1 ae be
       -0.073816024 0.2843789 0.26971507 -0.34168482
000090 a2 53 20 3e 57 51 5d 3e d5 ab fa be 54 b5 0d 3f
       0.15656903 0.2161306 -0.48959222 0.5535481
0000a0 3a 9f af be 44 e4 7a be
       -0.34301168 -0.24501139

feat_extraction.stage1.rbr_identity.weight f4 [14]
000000 0f 2d 4c 3f 9b e9 2a 3f 7a ff 72 3f 1e 08 59 3f
       0.79756254 0.66762704 0.94921076 0.8477801
000010 c1 20 76 3f b9 b9 6e 3f 76 28 61 3f 47 4f 66 3f
       0.9614373 0.9325214 0.87952363 0.8996472
000020 69 31 6e 3f 0b a4 66 3f 1d f4 36 3f a3 1a 46 3f
       0.93044144 0.9009406 0.7146624 0.77384394
000030 e1 09 72 3f 1a 57 40 3f
       0.94546324 0.75132906

feat_extraction.stage1.rbr_identity.bias f4 [14]
000000 10 4e 83 3d ae 52 04 3e d5 49 c4 3c 26 73 49 3e
       0.064113736 0.12922165 0.023960987 0.19672832
000010 93 c9 33 3d ab 86 52 3d 35 2f aa 3d 19 3d 99 3d
       0.043893408 0.05139796 0.08309785 0.074823566
000020 b1 25 39 3e b2 18 9c 3d 0f 0d 00 3e 8b 68 6f 3e
       0.18080784 0.07621898 0.12504981 0.23379724
000030 98 b0 4c 3d 2f bb 02 3e
       0.0499731 0.12766717

feat_extraction.stage1.rbr_identity.running_mean f4 [14]
000000 36 79 30 3f cc 27 94 3c ac 9e 3c 3f dd 75 5c 3c
       0.68934953 0.018085383 0.73679614 0.013455835
000010 cf d7 95 3f a5 7e cb 3e 2c 40 1e 3f 84 99 02 3f
       1.1706485 0.3974506 0.6181667 0.51015496
000020 15 44 77 3d 5b eb 60 32 ca e2 29 3d ba 39 ed 3c
       0.060367662 1.309203e-08 0.04147605 0.02895819
000030 bb f6 97 32 48 24 68 3e
       1.7690914e-08 0.2267009

feat_extraction.stage1.rbr_identity.running_var f4 [14]
000000 dd 29 26 3e 83 e6 51 3b f2 ca 42 3e 33 16 b1 3a
       0.16226907 0.0032028265 0.1902273 0.0013510644
000010 7c fe ed 3e e4 d8 7e 3d d3 43 12 3e 92 9e 08 3e
       0.4648322 0.06221856 0.14283685 0.1334174
000020 e7 c6 46 3b 52 bb fe 2c e6 03 75 3b a8 75 18 3b
       0.0030330957 7.239911e-12 0.0037386357 0.0023263488
000030 05 76 2b 2d 8a b7 3d 3d
       9.74643e-12 0.046317615

feat_extraction.stage1.rbr_dense.conv.weight f4 [14, 14, 3, 3]
000000 9d a0 af 3c a7 35 25 3e c1 d1 c9 3d 4c 41 24 3e
       0.021438891 0.16133748 0.098544605 0.16040534
000010 62 fd 97 3d 25 d1 f3 3d 29 ac 3c 3d f2 51 24 bc
       0.07421376 0.119051255 0.046062622 -0.010029303
000020 f0 39 81 3d 69 2a f3 bc 2c 3f f4 bc e9 79 87 bd
       0.06309879 -0.029683309 -0.029815279 -0.066150494
000030 b4 24 eb bb 02 84 6e 3c 50 52 38 3c 2a 57 f3 bd
       -0.007176006 0.01455784 0.011250094 -0.118818596
000040 d9 c2 35 3c 99 61 c4 bc 2c 9f ea 3d 4a 72 dc 3d
       0.011093819 -0.02397232 0.11456141 0.107639864
000050 d1 1f 4f bc cb 29 0b 3e d0 1f 72 bd a1 ef b3 3d
       -0.012641863 0.13590162 -0.05911237 0.0878594
000060 8c a3 49 3d d2 fa 8c 3d f7 a8 ec bc 4a f0 48 3c
       0.049228236 0.06883778 -0.028889162 0.012264321
000070 70 da 81 bd 23 84 97 bd 3c e0 4a bd 31 af 23 3e
       -0.06340492 -0.0739825 -0.049530253 0.15984799
000080 51 9e a9 3d 2d 63 17 be 6c ee 31 3e 65 5b b6 3c
       0.082821496 -0.14783926 0.17376107 0.022260377
000090 2d dd 0d 3c a4 74 b7 bc 09 4e d0 3d 03 05 70 3b
       0.008658689 -0.022394486 0.10171134 0.003662408
0000a0 87 58 a1 3d 39 78 24 bd 11 d7 e9 3d 69 91 81 3d
       0.078782134 -0.040153716 0.11417974 0.06326563
0000b0 99 20 99 3c 5e 34 b8 3d 73 3b e2 ba 64 91 6f 3d
       0.018692302 0.08994363 -0.0017260149 0.058488265
0000c0 aa c5 5c 3d c6 2c 8e bc d5 70 0e 3d 3f 01 b6 3b
       0.053899445 -0.017355334 0.034775574 0.0055543478
0000d0 80 ef df 3d d5 9f df 3d b5 c6 f9 3d bb 35 fd 3d
       0.10934353 0.109191574 0.121961035 0.12363764
0000e0 1d fc 6b bc c5 66 8b 3d b2 33 5e 3d d5 d2 cd bc
       -0.01440337 0.06806711 0.05424852 -0.025124947
0000f0 32 94 9e 3d 74 c0 d4 bc a4 5a 00 3d 6c cd 12 3d
       0.0774311 -0.025970675 0.03133644 0.035840437
000100 46 b2 a3 3d dc b4 ba bc a3 21 62 bd 0c 26 9d 3d
       0.07992987 -0.022791319 -0.05520786 0.076732725
000110 94 c1 2c 3d 97 3d 8a 3d 94 9b 13 3d 76 25 fa bc
       0.042176798 0.067500286 0.036037043 -0.03053544
000120 63 47 3d 3e 05 84 37 be de 67 66 3c 66 1e 05 3e
       0.18484263 -0.17921455 0.01406285 0.12999877
000130 0b d3 97 3d 38 2e 9b bd 44 ca e1 bd bd 5f a4 3d
       0.074133 -0.07577175 -0.11024907 0.08026073
000140 45 d6 9a bd b7 16 8a bd 67 14 96 bd 40 3b 42 bd
       -0.075604 -0.06742614 -0.0732811 -0.047419786
000150 2c 08 a0 bc 9b 16 5c bd 3d 99 10 bd 64 6c b3 bd
       -0.019535147 -0.053732496 -0.03530239 -0.08760908
000160 07 2a 3e 3d 0f 91 da bc c9 1f 98 3c e4 d2 07 3e
       0.0464268 -0.026680497 0.018569844 0.13264042
000170 c3 1d 88 3d 83 32 49 3d b9 37 a1 3d d6 03 49 bd
       0.066463016 0.049120437 0.078719564 -0.049075924
000180 73 f0 10 be 31 e6 71 bd af 8b e7 bd a2 fd 04 3d
       -0.14154224 -0.05905742 -0.113059394 0.032468446
000190 3b 72 1a bb 35 89 16 3e f9 98 a8 3d 78 5d 1e 3e
       -0.0023566622 0.14700778 0.08232302 0.15465343
0001a0 7d f8 e6 3d ce 24 35 be 68 eb 96 3d 86 b9 17 3d
       0.11277864 -0.17689821 0.07369119 0.037042163
0001b0 9d 51 1c bd 2c 69 6f bd d5 be 80 3c 86 a5 be 3c
       -0.03816377 -0.05844991 0.015715996 0.023272287
0001c0 94 bc 1e 3d 1d 59 d6 3c 29 8d 71 bc 1a cb 8e bd
       0.03875406 0.02616554 -0.014743128 -0.06972332
0001d0 4a 4f 67 3d 2a 4f 7c 3d 7c ce 7e bb 0c 31 ea 3d
       0.0564721 0.061598934 -0.0038880398 0.11435136
0001e0 dd e3 bc 3d f1 e0 61 bd 3d d2 c5 bc ba fa 21 bc
       0.09223149 -0.05514616 -0.024148101 -0.009886438
0001f0 0f 1b d4 bc 5a 80 a9 3d 3c 38 b1 bd 0e 27 69 3d
       -0.025891809 0.08276434 -0.08653304 0.05692201
000200 a7 ee 6f bd fa da 02 3d 55 06 91 bc 00 ab 68 bd
       -0.058577206 0.031947114 -0.017703215 -0.056803703
000210 91 97 37 3d c9 8a b0 bd 62 e7 68 bd a4 93 17 3e
       0.04482228 -0.08620221 -0.05686129 0.14802414
000220 ac 0f 63 3e 57 5c e8 3d a2 83 9f 3d cc ef c7 3d
       0.22173947 0.113457374 0.07788779 0.097625345
000230 20 4d cc 3d 0c 19 05 3e 33 9c 2d 3e cc c6 f0 3d
       0.09975648 0.12997836 0.16954117 0.117566675
000240 43 1f 67 3d eb cb e2 3c 9b 2c cf bc a9 27 8e bc
       0.056426298 0.027685126 -0.025289824 -0.017352896
000250 0a 39 72 3d 72 4e 24 3d db 7a c7 3d 7f 9e dd 3c
       0.059136428 0.040113874 0.0974023 0.027053116
000260 19 a8 d3 bc f1 1b 23 3c 13 33 0e 3c 24 eb b1 3d
       -0.025836991 0.009955392 0.008679169 0.08687428
000270 02 6f 03 3e 3a 78 80 bb 45 bc f2 3d 92 05 e3 3d
       0.12835315 -0.003920582 0.11852316 0.11085047
000280 bc 12 4d 3c 40 4e 10 3e d5 94 00 bc 3d 0c c4 3d
       0.012516674 0.1409235 -0.007847984 0.09572647
000290 dd b3 2a 3d 83 f4 26 bd 17 ff fb bc b8 25 a2 3d
       0.041675437 -0.04076053 -0.030761285 0.079173505
0002a0 f5 01 6a 3d 77 8c b3 3d c9 62 93 3c 18 a2 e6 3d
       0.057130773 0.08767026 0.01799144 0.11261386
0002b0 75 53 b2 3d a1 5d 82 3d 24 fe 07 3d 23 7b 10 3e
       0.087073244 0.063655145 0.03320135 0.14109473
0002c0 71 26 82 3d 1e 5e a9 3c a5 b6 53 3d cf b9 09 3e
       0.06354988 0.020674761 0.051687855 0.13449787
0002d0 74 f8 b8 3d 5c ec 8a 3c 46 1f e6 3d ea 44 a3 3d
       0.09031764 0.016958408 0.11236434 0.07972129
0002e0 6f a4 4c bc de 3c 38 bd b0 2d af 3d 8f fc fd 3d
       -0.012490376 -0.044979922 0.08553636 0.12401687
0002f0 cd b7 c9 bb 50 15 d6 3d bd 96 97 3d ae d3 6a 3d
       -0.006155944 0.10453284 0.07401798 0.05733078
000300 47 c4 28 3d 48 44 cb 3d 5c 21 d1 3d 40 51 eb 3d
       0.04120281 0.09925133 0.10211441 0.114901066
000310 a1 16 d5 3d e8 e8 ef 3d e4 38 10 bd f6 5c b4 b9
       0.10404707 0.11714345 -0.035210505 -0.00034401537
000320 a6 9a ad bd 46 ea f2 bd 7a a1 d4 3b 72 55 25 be
       -0.084767625 -0.1186109 0.006488976 -0.16145876
000330 7a 4a 6a 3c 49 4a 1a bd 1b d3 f1 bd 9a 0c 74 3d
       0.014299983 -0.0376685 -0.11807843 0.05958233
000340 db 4e 8a bc 15 59 8f 3d 84 2c a3 3d 96 4c a8 bc
       -0.016883304 0.06999413 0.07967475 -0.020544332
000350 fb bf 24 3c ae d4 d0 bc 2b f6 fa bc 4b ba 2e bc
       0.010055537 -0.025492039 -0.03063496 -0.010664533
000360 7e 9e d6 bd b0 5d 2d be 74 de 52 be f3 ac a5 bd
       -0.10479449 -0.1693027 -0.20592672 -0.08089628
000370 05 d9 a6 bd 4e fe e5 bd e0 b9 a5 3d de b1 82 3d
       -0.08146862 -0.112301454 0.080920935 0.06381582
000380 cf 62 63 3d a6 90 10 3d 9d f5 d6 bd 8f 5e bc 3d
       0.055514153 0.035294197 -0.10496066 0.09197723
000390 c9 91 e7 3c 7f 9c 2b bc c3 05 95 3c a9 63 0d 3e
       0.028267758 -0.010474323 0.018191224 0.13807549
0003a0 c0 a9 84 bc 30 52 b4 3d 75 d8 81 bd 8b 02 7c bd
       -0.016194224 0.088047385 -0.06340114 -0.061525863
0003b0 55 5c 46 bd 1a 15 aa 3d 73 ba 46 bc 0d f8 b2 3c
       -0.0484279 0.08304806 -0.012129414 0.021846795
0003c0 69 38 bd bd cc 28 99 3d 72 9b c8 bc 7d 42 89 be
       -0.09239275 0.074784845 -0.024488185 -0.2680854
0003d0 7d 48 13 be 88 29 78 be f2 7d 02 be c8 21 97 be
       -0.14383121 -0.24234593 -0.12743357 -0.2951796
0003e0 9a d9 a1 be f2 02 82 be db e0 2c be 47 47 58 be
       -0.3161133 -0.25392872 -0.1688265 -0.2112094
0003f0 34 af 86 bd f1 7d a5 3c 33 ff d3 3b b4 55 33 3d
       -0.06576386 0.020201655 0.006469631 0.043782905

feat_extraction.stage1.rbr_1x1.conv.weight f4 [14, 14, 1, 1]
000000 c6 5f 85 3d 18 20 62 be 7d 03 92 3c 8f da aa 3c
       0.06512408 -0.22082555 0.017823929 0.02085617
000010 e7 7a 42 bd fd 51 7a bc 9a 8a af 3d 1e 13 8b bd
       -0.04748049 -0.015278337 0.08571358 -0.06790756
000020 21 56 32 be f1 a4 09 be fd 13 49 be 83 3c aa bd
       -0.17415668 -0.13441826 -0.19636531 -0.08312323
000030 21 73 03 3e 43 24 28 3e bf 93 39 3e 5d df 33 3e
       0.12836887 0.16420083 0.18122767 0.17565675
000040 2d a8 8e bd c1 27 14 be 87 94 1b 3e 9f b4 d9 bd
       -0.06965671 -0.1446829 0.15193377 -0.10630154
000050 f1 4c 70 3e ce 5a 90 bd 1b c8 9d be 30 6e 39 be
       0.23466851 -0.070485696 -0.3081673 -0.1810844
000060 78 44 13 3e 67 d6 61 3e 0b 4f 77 3d 06 f8 69 be
       0.14381588 0.22054444 0.060378116 -0.2284852
000070 48 56 69 3e 4a f2 8c 3d ac 7f 26 3e c9 82 0e be
       0.2278682 0.068821505 0.1625964 -0.13917078
000080 d0 8e 51 3d e4 75 80 3e 49 28 3e be 3a e4 93 3e
       0.051161587 0.25089943 -0.18570055 0.2888506
000090 7d 45 6a be a8 ae a2 bd cd 74 26 bd f4 18 bd 3d
       -0.2287807 -0.07943469 -0.040638734 0.09233275
0000a0 1b c5 a1 3d 2e 61 38 be ca ee f4 3d 0a ac 7f 3e
       0.07898923 -0.18005821 0.11959608 0.24967971
0000b0 33 23 c9 bb 13 ac be bd 3c 51 8e 3e cc 8e 11 be
       -0.0061382293 -0.09310164 0.27796352 -0.14214629
0000c0 4e 44 fe bd a4 27 9d 3e 0c 65 f8 bd c3 18 1f 3e
       -0.12415372 0.30694306 -0.12128648 0.1553679
0000d0 e2 b0 8a 3e a7 d1 53 3c 8f a2 6a be fb 06 a6 3b
       0.27088076 0.012928403 -0.22913574 0.00506675
0000e0 4f fe da 3d 75 ec 82 3e 45 df c4 bc dc 0c 73 bc
       0.10693037 0.25571027 -0.024032244 -0.014834609
0000f0 4b c6 9e bd 60 0a 42 be 28 91 82 3e bb 6b 12 bd
       -0.07752665 -0.1894927 0.2550137 -0.03574727
000100 6a 11 d8 bc 15 86 3c be a8 17 6c 3e 15 01 01 3e
       -0.026375491 -0.18410523 0.23055899 0.12598069
000110 92 3b 2f 3e 35 ac 17 3e d1 10 40 bd 37 f1 09 3e
       0.17112568 0.14811786 -0.046891037 0.13470922
000120 4a 04 1f 3d 0a 75 3b be f8 c3 bc 3d 52 f4 f0 bd
       0.03882245 -0.18306366 0.092170656 -0.117653504
000130 9f 30 16 be a9 c9 64 3b 42 ce 87 be b1 c7 a5 3b
       -0.14666985 0.0034910238 -0.2652455 0.0050592055
000140 ca f2 e6 3c 26 b9 33 3e 04 96 a0 3d ba 17 26 bd
       0.028191943 0.17551097 0.07841113 -0.04054997
000150 95 2a 20 be 79 5d 94 bd 1f 03 bc 3c ed f0 1f bd
       -0.15641244 -0.07244391 0.022950707 -0.039048124
000160 97 41 d8 3d b1 cf 7a 3e b9 83 60 3e 39 a1 03 bd
       0.10559385 0.2449329 0.21925248 -0.032136176
000170 0e 4d 2a bd d6 a7 86 3e 60 db 05 bd 1d c2 49 be
       -0.04157739 0.26299924 -0.032679915 -0.19702955
000180 73 02 66 bb 3e 7f 96 bc c5 f9 c4 bd 96 19 0a 3d
       -0.0035096675 -0.01837122 -0.09617952 0.033715807
000190 75 ab 2b be 39 75 cf 3d b1 f7 1a be ac 45 02 3e
       -0.16764624 0.1012978 -0.1513355 0.1272189
0001a0 82 74 84 3e 30 e7 c2 bd 38 19 ba bd 0d 75 b5 3c
       0.25870138 -0.09516752 -0.09086841 0.02215054
0001b0 3d 30 d4 3d 1d e7 2f 3e 98 51 9a bc 0d ae 13 bd
       0.10360763 0.17178006 -0.018837735 -0.03605466
0001c0 88 e2 18 bd 61 9e 78 3e ad 86 b1 3d bf b6 04 3e
       -0.037325412 0.24279167 0.086682655 0.12960337
0001d0 f1 86 20 3e 30 fe 36 bd 17 c9 75 3e 0a 93 96 be
       0.15676476 -0.044676006 0.24002491 -0.29409057
0001e0 dd cf 65 3e 23 5f 15 3e 0a fd 91 3e 6d 25 68 3e
       0.22442575 0.14587073 0.28513366 0.22670527
0001f0 02 d0 f9 bd f1 6c 26 bd 77 92 1f be 95 eb 9b 3e
       -0.121978775 -0.04063124 -0.15583216 0.30453172
000200 03 e9 37 be 9c 2c 90 bc cd fd 42 3e 85 45 45 3e
       -0.1795998 -0.017599396 0.1904213 0.19264801
000210 23 d2 2b be 96 6b c9 3d c4 4b c2 3d 29 ae 2e 3e
       -0.1677938 0.098349735 0.094871074 0.17058624
000220 77 10 e8 3d 41 d9 ae 3e c3 cf 74 bd 93 72 c2 3e
       0.113312654 0.34150127 -0.05976845 0.37978038
000230 48 68 93 3d bf 03 4a be d3 81 b5 3d 40 23 74 bd
       0.071976244 -0.19727992 0.08862653 -0.05960393
000240 72 94 ee 3d 51 f4 74 3e 96 8d 21 be 90 9f 5e be
       0.116494074 0.23921324 -0.15776667 -0.21740556
000250 08 73 9f 3e 8b 35 fd bc 56 f2 ac 3d 61 1f cc 3e
       0.3114245 -0.03090932 0.084446594 0.3986769
000260 dd ab dd 3d 0a 0a 33 3e 05 16 b5 3d f9 9b b0 3d
       0.10823796 0.17484298 0.088420905 0.086234994
000270 2b 67 1d be b2 79 af 3e 53 03 15 be 28 1a 05 3e
       -0.15371387 0.34272534 -0.1455205 0.12998259
000280 59 5b 62 3e e2 d9 89 be 0c f3 57 3e 4d 94 85 3e
       0.22105159 -0.26924044 0.21088809 0.26089707
000290 b2 8f 6b 3e cf a4 63 3e 63 7d 31 3d b9 c4 04 be
       0.23004034 0.22230838 0.04333247 -0.12965669
0002a0 f1 80 83 3d 82 4f c6 3e 93 47 9a 3e bc 26 ef 3d
       0.06421078 0.38732535 0.30132732 0.1167731
0002b0 d6 0f 15 3e 92 c2 92 bb 50 2f d3 37 6f a5 bf 3d
       0.14556822 -0.004478761 2.5175192e-05 0.09357726
0002c0 d8 24 81 be 5b 8f 13 3d 2d 55 34 3e 32 ed b3 3a
       -0.25223422 0.036025386 0.17610617 0.0013727306
0002d0 68 42 aa bd 2c c1 81 be 65 17 9e 3d 0f c9 8d 3d
       -0.08313447 -0.2534269 0.07719306 0.069231145
0002e0 4e fa 81 3e 13 bf 9c bd 17 59 54 be 7d 58 13 bc
       0.2538628 -0.07653632 -0.2073711 -0.008993265
0002f0 56 1f 7e 3e 23 49 ee bb f5 97 5e 3e 54 49 58 3d
       0.24816641 -0.007271902 0.21737655 0.052804306
000300 96 6e 84 3d ba c4 61 3e 1f d6 40 3e b0 6a 84 3d
       0.06466405 0.22047701 0.1883168 0.064656615

feat_extraction.stage2.rbr_dense.conv.weight f4 [12, 14, 3, 3]
000000 6b 06 89 bd c4 2b b1 bd b6 f2 9c bc 9d 09 fb bc
       -0.06690677 -0.08650926 -0.019158702 -0.030644232
000010 10 55 33 3d cd 80 bd bd ef 4e 1a 3d 89 9e 90 bd
       0.043782294 -0.092530824 0.037672933 -0.07061488
000020 65 a9 41 3c 90 37 cb bb 02 e4 aa 3d b2 1d 46 bd
       0.011820172 -0.006201692 0.0834427 -0.048368163
000030 4f 61 c1 bc 4e 8d 84 3d a5 25 c0 3d 0b 9b 5c bc
       -0.02360597 0.06472264 0.0938218 -0.0134646995
000040 74 e9 80 3d 10 b5 06 3c f4 f6 d7 bd b7 e3 2e 3c
       0.06294528 0.00822188 -0.105451494 0.010674409
000050 e2 b4 c1 bb 73 ec 2f 3d 77 97 89 3d 5b 2e a2 3d
       -0.0059114555 0.042950105 0.06718343 0.07918998
000060 56 d6 25 3d d3 05 94 bd 87 97 8c bd a0 22 38 bd
       0.04048761 -0.072276734 -0.06864839 -0.044954896
000070 55 e3 8a 3d 54 2f ff bc b7 86 30 bd 0c 6a cf bc
       0.067816414 -0.031150497 -0.043097224 -0.025319122
000080 ad d7 48 bc dc 12 af 3c 11 48 b1 3d 59 a1 18 bc
       -0.012258452 0.021371298 0.08656324 -0.009315812
000090 c1 98 bf bc 3d c9 16 3d 6c 4d 0b bc ac 22 3e 3d
       -0.023388268 0.03681301 -0.0085023455 0.046419784
0000a0 88 c2 84 3d 8a 24 7f 3c 32 6d a0 bd b2 87 93 3d
       0.064824164 0.015572676 -0.07833327 0.07203616
0000b0 a5 d5 19 bd 8f bc 60 bd a8 b0 8f 3d 61 1b cb bc
       -0.037557263 -0.054867323 0.070161164 -0.024793329
0000c0 d3 1b cd 3c b7 aa cb 3d fa 48 38 3c 0e 67 1f bd
       0.025037682 0.09944671 0.011247868 -0.03891664
0000d0 d4 56 a2 3d 6a 00 bf 3c 74 82 5e 3c 1d ea 33 bd
       0.079267174 0.023315627 0.013580907 -0.04392444
0000e0 fa 7a ab bd 07 4f 6a 3c 6b 72 36 bd aa 16 21 bd
       -0.08373065 0.014301068 -0.04454271 -0.039328255
0000f0 f1 b1 b5 bd 00 a5 82 3d ff 30 86 bd b7 0d 56 3c
       -0.0887183 0.063791275 -0.06552314 0.013064793
000100 20 7b f1 3c 7a aa a8 3d d6 66 0c 3d 9d bd 54 bd
       0.029477656 0.08235641 0.03427776 -0.05193864
000110 52 54 4a 3d 6e 63 90 bd d3 e8 28 bc 1a 1f 16 bd
       0.04939682 -0.07050215 -0.010309416 -0.036650755
000120 a1 f5 ae 3d f4 c1 c3 3d 2e 60 c5 bd ad 12 6d 3d
       0.08542944 0.09558478 -0.096374854 0.05787914
000130 26 3b 8e bd 10 2f 0f 3d 86 dc 53 3c 91 c5 18 3d
       -0.069448754 0.03495699 0.012930995 0.03729779
000140 7c da 7a 3d 5e 22 27 bd 84 93 0b 3d c4 6f 25 3d
       0.06124352 -0.04080426 0.03407623 0.04038979
000150 be b6 bb 3d e8 63 05 3d 75 38 a0 ba d2 29 44 bd
       0.09165715 0.03256598 -0.0012223857 -0.047891445
000160 96 ea 7c bc bc 80 2f 3d e0 d7 e3 bd 08 c6 0a be
       -0.015436789 0.04284738 -0.11125159 -0.13552105
000170 e5 a5 d5 bb 8b 08 6e bc e6 5e e5 bc c0 d9 4c bd
       -0.0065200203 -0.014528404 -0.027999353 -0.05001235
000180 8f 0f 4e bd 50 cc a4 bd 99 3c 67 bd 36 a1 8b bd
       -0.050307807 -0.08046782 -0.056454275 -0.06817858
000190 3b a2 41 bd a3 29 26 3d c0 51 ad bd 4f ae ab 3d
       -0.047273856 0.04056705 -0.08462858 0.08382856
0001a0 55 79 9a bd 25 2e bb 3c 66 05 0f bc 3a 1b 0a be
       -0.075426735 0.022849152 -0.008729314 -0.13486949
0001b0 03 96 f7 3c f7 fc ea 3d 40 63 37 bc de e8 fe 3d
       0.030222898 0.114740305 -0.011193097 0.1244676
0001c0 97 35 38 3d 24 95 68 3c a1 0c 8c 3d fd 1b d5 3d
       0.044972982 0.014195714 0.06838346 0.10405729
0001d0 1a a5 d3 3d c0 6e c8 3d cc 27 57 bd 2f 87 db 3b
       0.10334225 0.09786749 -0.052528188 0.0066994647
0001e0 68 28 f4 3c f7 83 38 bd 5d 3a 3b 3d 07 77 ec bc
       0.029804423 -0.045047726 0.045709956 -0.02886535
0001f0 4c 7a b8 bd 6f a5 b1 bc 0c ef b0 bd 64 b3 80 bc
       -0.09007701 -0.02168533 -0.086393446 -0.01571054
000200 ea ad 07 be a5 49 9c bd 2d c7 4f bd 60 f3 77 bd
       -0.13249937 -0.07631234 -0.05072706 -0.060534835
000210 2f e1 ba bd 62 00 9c 3c 6a b2 04 be 45 a3 a7 bd
       -0.091249816 0.019043151 -0.12958685 -0.08185438
000220 4a cc db 3d 44 4c 64 bd 54 86 b2 3d 74 48 0c 3e
       0.107323244 -0.055736795 0.08717027 0.13699514
000230 77 2b 24 3c 59 08 85 bd db 66 c8 bd dd aa 71 bd
       0.010020128 -0.06495733 -0.09785243 -0.05900084
000240 3a 10 d3 3c e1 b6 5d bd 5a ed 52 3d 7c 15 74 bd
       0.025764573 -0.054129485 0.051495887 -0.0595908
000250 b5 40 a6 bd c2 d4 92 3c 4b 2e f4 3d 20 cc 2e bd
       -0.08117811 0.017923716 0.11922892 -0.042675138
000260 b0 50 f0 3d 92 61 f5 bd 49 57 39 3e dd 03 5e bc
       0.1173414 -0.11981501 0.18099703 -0.013550726
000270 03 f8 11 be 6e 62 94 3b 56 46 18 bd 10 52 99 bd
       -0.14254765 0.0045283353 -0.037176453 -0.07486355
000280 6b fd ec 3d a1 bb b9 bd 33 04 5d bd 45 f4 ef bd
       0.11571773 -0.090689905 -0.053959083 -0.117165126
000290 cc bb a3 3d 7a 6e e3 bd aa e6 5c bd 6f 18 61 3d
       0.07994804 -0.11105056 -0.053930916 0.054954942
0002a0 85 e8 ca 3c 65 84 0b be 48 04 b5 3c 95 ac 14 bd
       0.024769077 -0.13624723 0.022096768 -0.0362974
0002b0 b2 77 9b bd e7 bb a3 3c ae db ab 3c f1 27 23 3d
       -0.075911894 0.01998706 0.020978775 0.039833013
0002c0 b3 f6 c8 bd 96 03 a2 bc f6 6d cc bc 9a 6e f9 bc
       -0.09812679 -0.0197771 -0.024954777 -0.030448247
0002d0 e4 61 53 3d 75 8f f5 bd 51 16 ea bd 52 3f 97 bd
       0.051607028 -0.11990253 -0.11430038 -0.07385124
0002e0 55 47 99 bd b3 e1 3d be 5e 6e bc bd 01 aa e0 bd
       -0.07484309 -0.18543129 -0.09200738 -0.10969926
0002f0 7f c1 b2 bd d2 3f 58 3d bd e0 45 3d c9 ad d4 3d
       -0.08728313 0.05279524 0.04831003 0.103847094
000300 b6 cc 65 bd 83 c0 5e 3c 27 84 ff 3c f7 95 5e bd
       -0.05610343 0.013595703 0.031190945 -0.054342236
000310 e4 a4 d6 bd 87 9b 9e bc cb e3 87 bd 94 92 66 3c
       -0.10480669 -0.01936127 -0.06635245 0.014073033
000320 df 57 19 bd 3d e3 87 3c 2f f6 92 bc dd 92 56 bd
       -0.037437316 0.016587848 -0.017939655 -0.052386153
000330 4d f2 be 3d 8c 95 f2 bd 5e 81 30 bc 6a a0 7d 3d
       0.09323559 -0.1184493 -0.010773031 0.06192056
000340 42 59 2d 3e 14 af 83 3d e0 fd 67 bc 9b f1 d1 3d
       0.1692858 0.06429878 -0.01415965 0.10251161
000350 f2 92 e2 3d 7f 77 1d 3d e3 06 d2 ba 18 03 ab 3c
       0.11063184 0.03844404 -0.0016023781 0.020875499
000360 b9 1d 71 bc 6f ec 41 3d 1c 75 9d bb 47 38 be 3c
       -0.014716559 0.04734462 -0.0048052203 0.023220195
000370 ac 40 fe 3d f7 1f 03 3d 88 38 a1 3c f5 fb 1a 3d
       0.12414679 0.032012906 0.019680277 0.03783794
000380 ab f4 e5 3b 81 28 66 bd e3 6a 69 3d 39 a5 fc bd
       0.007017692 -0.05619097 0.0569867 -0.12336201
000390 e6 86 57 3d 16 63 1c 3e a9 61 ff 3b 47 50 3d 3d
       0.052618884 0.15272173 0.0077936244 0.046219137
0003a0 b2 92 84 3d da 55 a5 bd 2f aa 1f bd fc 13 37 3d
       0.064732924 -0.080730155 -0.03898066 0.044696793
0003b0 11 8f 3f 3d 2d 77 9f bc 62 d0 2c 3d f4 12 1f bc
       0.046767298 -0.019466007 0.042190917 -0.009709109
0003c0 5b c0 7f bc 27 7a dc 3b e0 f2 c5 3c 98 7e 01 bc
       -0.015609826 0.006728429 0.024163663 -0.007903717
0003d0 0a e8 27 bb cf 18 7f 3d fa 90 3c 3d 2f 24 0b 3c
       -0.0025620484 0.06227952 0.046036698 0.008492514
0003e0 f6 c2 91 3d 28 94 88 bd 1c c5 9a 3d 25 53 19 3d
       0.07117264 -0.066688836 0.07557127 0.03743281
0003f0 b2 8b c8 b8 88 e1 a4 3c a3 55 41 bd 8a 86 b5 bd
       -9.5627634e-05 0.020127073 -0.04720081 -0.08863552

feat_extraction.stage2.rbr_1x1.conv.weight f4 [12, 14, 1, 1]
000000 3c 9b 0d be db 57 8e bd 62 18 5c be b2 92 b2 3d
       -0.13828748 -0.06950351 -0.21493676 0.08719386
000010 06 f4 f1 bc f4 a0 58 3d 99 9e 89 3e 8e 72 58 3d
       -0.029535305 0.05288787 0.26878813 0.052843623
000020 ef cd d2 3d f8 8d 82 3d ee 53 f6 bc 67 40 37 3e
       0.10293185 0.06374735 -0.030069318 0.17895661
000030 10 48 0b 3e fd ec 11 bd f8 90 50 bd c4 a0 00 bd
       0.13601708 -0.0356264 -0.050919503 -0.031403318
000040 39 92 3a bd 2b 2d 47 3e 71 d3 43 3e 78 7f 5e 3e
       -0.045549605 0.19450824 0.19123627 0.21728313
000050 6f 22 52 be f3 dd 2f bc 24 38 74 3c c7 89 8b 3e
       -0.20520948 -0.010734069 0.014905963 0.27253553
000060 26 d3 98 bc a6 d3 ac 3c f6 5e 1f 3e 6a 35 d3 bd
       -0.01865537 0.021097016 0.15563568 -0.10312922
000070 83 c7 7f 3e dd d1 14 be ba fa c9 3d 2e 6d 85 bd
       0.24978451 -0.14533181 0.098622754 -0.06514965
000080 70 4b 49 be ed 42 86 be ce 32 db 3d d4 4f d6 bd
       -0.19657683 -0.26222935 0.107030496 -0.10464445
000090 ed 14 11 be 3c 6e 9b 3e de 8f 46 3e 11 97 9f 3e
       -0.14168139 0.3035754 0.19390818 0.31169942
0000a0 c7 ed e3 bd ed 8d ed 3c 8d e8 fd 3c 8e 99 42 bc
       -0.11129337 0.02899834 0.030994678 -0.011877431
0000b0 4c 98 e0 3d 2c f3 92 3d bd 12 b9 bd 2b a9 28 bd
       0.10966548 0.071752876 -0.09036777 -0.041176956
0000c0 e0 a5 0a be c1 eb 4a be b0 e5 d9 3d 6a a0 86 bd
       -0.13539839 -0.19816495 0.106395125 -0.06573565
0000d0 93 98 e5 bd 49 85 02 be 16 c5 2c 3e 0d c4 8c bd
       -0.11210742 -0.12746157 0.16872057 -0.06873331
0000e0 22 e9 43 3e 47 ab bf 3d d0 cd b0 bd 75 a4 81 3e
       0.19131902 0.093588404 -0.086330056 0.25320783
0000f0 bf 88 be bd a3 04 73 be a0 d2 33 3e a1 09 22 be
       -0.09303426 -0.23732238 0.17560816 -0.15823986
000100 67 6a 5b 3e ab bc 5a 3e 5b 70 81 bd 50 29 81 bd
       0.21427308 0.21361034 -0.06320258 -0.06306708
000110 1d 11 ef 3d 4e bf d7 3d e3 c5 4f 3e 7a 2b b2 3d
       0.11673186 0.10534535 0.20290332 0.08699699
000120 c8 31 07 3d ed 63 40 3e f9 fe 16 3d 91 36 48 be
       0.03300646 0.18788119 0.036864255 -0.19552065
000130 bd 10 37 bd 1b a5 cb bc 4f cb 68 3a ab e9 6c be
       -0.044693697 -0.024859002 0.0008880393 -0.23136012
000140 1e 4d 89 be ef 51 9b bd 47 58 a9 3d 90 d8 d7 3d
       -0.26816648 -0.07583987 0.08268791 0.10539353
000150 56 af 5a be 9d b9 04 3e eb b3 3e 3d 5c e4 2e 3e
       -0.21355948 0.12961431 0.046558302 0.170793
000160 f2 6c 06 be 17 26 83 bd 1e 5d f6 3d bc e0 75 be
       -0.13127497 -0.064037494 0.120294794 -0.2401151
000170 57 f4 ae 3d 0e 5d af bd 79 96 89 3d d5 d4 e8 bd
       0.08542698 -0.08562671 0.067181535 -0.113687195
000180 6c f9 88 3e 64 0a 54 3d b8 78 ce 3c 0d a1 f5 bd
       0.26752794 0.05176772 0.025204048 -0.119936086
000190 3c c9 45 be b5 10 73 bc ee 3b 13 be 7d 87 53 3c
       -0.19315046 -0.014835526 -0.1437833 0.012910721
0001a0 22 11 83 3e 73 b8 f1 3d dc 59 ce bd 46 d7 4f bd
       0.2559901 0.11802759 -0.10075733 -0.05074241
0001b0 03 02 08 3e 6b 0c b4 bc 3d 1d 36 be e9 eb 47 bc
       0.13282017 -0.021978578 -0.17784591 -0.012202241
0001c0 99 66 0b 3e 68 d2 f2 bd e4 3e 48 bd 58 b6 95 bd
       0.13613357 -0.11856538 -0.048888102 -0.0731017
0001d0 e1 80 0a 3e 93 b2 0b be 6b 4c 9e bd 04 84 c5 3d
       0.13525726 -0.1364234 -0.07729419 0.096443206
0001e0 85 d2 ed bd 0f be 81 3e a3 4f 38 be ed 81 4b be
       -0.11612419 0.25340316 -0.17999129 -0.19873782
0001f0 03 7f 1f bc ec 87 1e be ab df 85 be 33 5b 1b be
       -0.009734872 -0.15481538 -0.26147208 -0.15171508
000200 bf ba 6f be 84 38 7e 3e fb 86 1a 3d f8 6e fd bd
       -0.23411082 0.24826247 0.037726384 -0.12374681
000210 97 5d f5 3d 09 7b 22 3d dc c7 ef bd 36 a6 61 3e
       0.119807415 0.039668117 -0.11708042 0.2203606
000220 70 ab 05 be 95 04 5e bd 16 22 6c 3e 84 b4 29 3e
       -0.1305368 -0.05420359 0.23059878 0.16572767
000230 65 9a e6 3d 13 53 e7 3d 05 59 ca bd ce 39 83 be
       0.11259917 0.11295142 -0.098802604 -0.2563004
000240 04 eb 2d bc c8 69 0f 3e b8 d5 3f 3e bf fd 2a bd
       -0.010615114 0.14005196 0.18733871 -0.041745897
000250 8c cd e9 bd 56 bf e0 3c 78 77 58 3e 04 4d 95 3d
       -0.11416158 0.027434986 0.21139324 0.0729008
000260 e0 ab 94 3e e5 da e7 bd c2 31 80 3d 4a 8b 05 be
       0.2903738 -0.11321048 0.062594905 -0.13041416
000270 b6 84 15 3d b2 ed 2e 3e 45 6b 55 be ec 1e 72 3e
       0.036503516 0.17082861 -0.20841701 0.23644608
000280 cd 20 68 3e 6b 86 67 3e 1b 5c 9c bd a1 18 59 3e
       0.22668763 0.2260987 -0.07634755 0.21200801
000290 c6 b5 8d 3d a3 03 c4 bd 9a e4 9c 3e 99 6c 69 be
       0.06919436 -0.09571006 0.3064316 -0.22795333

importance_map.upscale.weight f4 [12, 6, 3, 3]
000000 e4 1e 75 3d 6c 8a e8 3c c8 44 b1 3d e7 da 2b bd
       0.059843913 0.028386317 0.08655697 -0.04195681
000010 d6 20 cf bc 01 b5 ed 3c 79 41 d1 bd f5 0a 07 bd
       -0.025284212 0.029016973 -0.10217566 -0.032969434
000020 5f 7e 14 bc e0 8a 0e be f0 f9 36 bc 12 c1 ec 3d
       -0.009063332 -0.13920164 -0.011167988 0.11560263
000030 e2 72 c3 bc 69 f0 ff bc b2 b5 8a b9 e4 a6 fa 3c
       -0.023858491 -0.031242566 -0.00026456785 0.030597158
000040 a1 6f 84 3d cf d5 4f 3d 30 eb ae bd a5 0e 38 be
       0.06466604 0.050741013 -0.08540952 -0.17974336
000050 db 6f 82 3d 89 1e da 3d b6 b0 ef bd 00 60 1e 3e
       0.06368991 0.10650355 -0.11703627 0.15466309
000060 a1 88 ee 3d 60 f6 63 3d e0 e5 14 3e b5 9d 74 3d
       0.11647154 0.055654883 0.14540815 0.059720714
000070 b5 73 a3 3d a6 59 ae bd 11 a8 0c bd 2e 3f a3 bc
       0.07981054 -0.08513193 -0.034339968 -0.019927587
000080 87 bc ea 3c 37 63 c2 3c ae 63 60 3d 8e 37 92 bd
       0.02865435 0.02372895 0.054782562 -0.071395025
000090 ae 59 a8 3d 31 cf 94 bd 0e f5 98 bd 34 84 43 3e
       0.0822023 -0.07266081 -0.074686155 0.190934
0000a0 93 65 5b 3e 68 7f 6b 3e 0b ce ba 3c 54 78 32 3e
       0.21425466 0.2299782 0.022803327 0.17428714
0000b0 ff 46 20 3d 68 3e 18 be 6e 01 c3 3d 3a 84 3f bd
       0.039130207 -0.14867556 0.09521757 -0.04675696
0000c0 1d c3 eb bd 8a 5f 3e 3e fb 0a 4f bb 36 b8 2d 3d
       -0.11511824 0.18591133 -0.0031592238 0.042412005
0000d0 19 4b 32 bd 8e 37 15 be b4 aa f1 3d 20 ed 3d 3d
       -0.04352865 -0.14571974 0.11800137 0.04636872
0000e0 7a 30 94 3d 50 21 a6 3d 81 11 44 3e e7 a1 b5 3e
       0.07235809 0.081118226 0.19147302 0.35475084
0000f0 a3 bb 1b bd 91 d5 6a 3d 2e a6 76 3e 3f 20 56 3d
       -0.03802074 0.05733258 0.2408683 0.052276846
000100 19 11 45 3e ae f5 bd bd 15 5c eb 3d 00 2d 9e bb
       0.19244803 -0.09275375 0.11492173 -0.0048271418
000110 8f 20 24 3d 1a 82 74 3d 89 4e ec 3d 23 e0 5f 3e
       0.040070113 0.059694387 0.11538417 0.21862845
000120 d1 53 0a be b4 1c 06 be c6 ee 05 be fa f9 6c 3d
       -0.13508536 -0.13096887 -0.13079366 0.057855584
000130 be a7 db 3c 4b d1 d6 3d fb 95 29 bc 81 b6 73 be
       0.026813384 0.10489138 -0.0103507 -0.23800088
000140 c8 b7 1b bd a4 ed 2e 3c 63 d0 22 3d 85 f8 da 3d
       -0.038017064 0.010676775 0.039749514 0.106919326
000150 0f df ac bd 4d b2 6d 3d 70 1f e3 bc cf 4c 35 3c
       -0.084409826 0.05803137 -0.027724952 0.011065676
000160 a6 cf b9 bc 82 97 d0 3d 93 69 05 3e 5f 2b 09 3d
       -0.022682022 0.10185148 0.13028555 0.033488628
000170 f7 18 59 bc 3d e4 59 bd 2b 86 48 bc f3 c2 c9 bc
       -0.013250581 -0.05319618 -0.012239019 -0.024629092
000180 f2 50 88 3d 0a d3 fd bc 01 91 f2 bb 75 ad 16 bd
       0.06656064 -0.03098442 -0.0074025397 -0.036786515
000190 5d d7 12 3d cf 1b 7d be c2 e1 b9 bd a1 3a 13 3e
       0.035849918 -0.2471764 -0.09076263 0.14377834
0001a0 ca 4d d7 bd 38 bf df bd ba f5 89 3d a4 65 77 be
       -0.10512884 -0.10925144 0.06736322 -0.24159867
0001b0 68 33 e4 3d 21 8b d9 bd 70 9e 3b bd 21 f7 a6 3d
       0.111426175 -0.1062224 -0.045805395 0.08152605
0001c0 62 1a f5 3d 97 0a ca 3d d8 c9 48 bd df 3b 87 3d
       0.11967923 0.09865301 -0.04902062 0.066032164
0001d0 29 f9 73 3d f4 f9 c8 bd 84 2d bd bd b0 d1 7c 3c
       0.05956379 -0.098133 -0.09237197 0.015430853
0001e0 a3 d1 e4 3d cf fa 36 bd 02 31 3a 3d 43 1d b2 3d
       0.111727975 -0.044672783 0.045456894 0.086969875
0001f0 87 25 aa 3d b1 f4 63 3d dc 96 2b bd b4 a2 ce 3d
       0.08307939 0.055653278 -0.041891918 0.10089627
000200 07 e3 fc bd 0a c4 90 3c a0 0b 84 3d 5a de 80 bc
       -0.123479895 0.017671604 0.0644753 -0.015731025
000210 26 8f ea 3d 64 ea cd bd d1 58 b0 bd fa d6 1f 3e
       0.11453085 -0.10054472 -0.086106904 0.15609351
000220 fc 08 d7 bc 05 38 8a 3d 71 6c 3b 3d 08 5f 08 3e
       -0.026249401 0.06748966 0.045757715 0.13317502
000230 ed 37 09 3d b9 1b dd 3c 1c b7 34 bd b3 48 d3 3c
       0.0335006 0.026990758 -0.04411994 0.025791502
000240 2a 4e d4 bd 38 d9 0d 3d 8c 42 6e bc 69 60 ce bd
       -0.10366471 0.034630984 -0.014542233 -0.100769825
000250 0e 87 1d bd e8 73 fe bc 33 be d3 3c b5 02 e3 bd
       -0.038458876 -0.031061128 0.02584753 -0.11084501
000260 75 6e f3 3d 5e aa f3 bd c0 e9 17 3e 3a 06 ca 3b
       0.118863024 -0.11897729 0.14835262 0.006165293
000270 d5 f0 af 3d 37 24 43 3d 65 fc a6 bd 93 68 eb bd
       0.08590857 0.04764196 -0.08153609 -0.11494555
000280 f8 2a 28 3d 7d cc 98 bc 59 44 5d bd 58 fc be bd
       0.041056603 -0.018652195 -0.05402026 -0.093254745
000290 0b 75 c1 3a 3d c4 27 3d 2e ff e1 bd 04 fa 00 be
       0.0014759613 0.04095863 -0.11035 -0.12595373
0002a0 a9 11 c3 3d ec e5 31 bc a8 c2 95 bc f8 1d 35 be
       0.09524853 -0.01085804 -0.018281296 -0.17687213
0002b0 86 0d 93 3d fc f3 56 3e f2 a0 95 bd f0 3e bc 3c
       0.07180314 0.2099151 -0.073060885 0.02297923
0002c0 bc 42 fc bd 2b dd e6 3d 91 91 e9 3c f8 a3 9c bd
       -0.12317416 0.11272653 0.028511794 -0.07648462
0002d0 bb 04 39 3c 13 ae 0d be 41 92 91 3c 7b fd 05 3c
       0.011292632 -0.13835935 0.017769935 0.00817811
0002e0 75 e0 11 be c4 6d 9b 3d d2 0e dc 3d 7b b6 e2 bd
       -0.1424578 0.075892955 0.10745014 -0.11069962
0002f0 40 4a bf 3d fb 95 f0 bd 53 f8 85 bd 8f 68 a1 bc
       0.09340334 -0.117473565 -0.06541505 -0.019703178
000300 b4 58 45 bc 4c 72 00 be 52 74 60 bd 07 e9 d3 bc
       -0.012045074 -0.12543601 -0.05479843 -0.025867952
000310 9a 94 41 be de 38 ac bc 20 75 f7 bc 96 ba 9d 3d
       -0.18904343 -0.02102321 -0.030207217 0.07701604
000320 23 6f 84 3c e5 1c 1e bc e0 e4 6e bd aa 16 ea bd
       0.016166275 -0.009650444 -0.05832374 -0.11430104
000330 06 42 12 3e 69 3c e0 bd a0 0e 23 3e f9 27 ee bd
       0.14282998 -0.10949022 0.15923548 -0.11628718
000340 45 1c f9 3d 16 aa a4 3d 70 d3 a4 3d 12 25 f6 3d
       0.12163595 0.08040254 0.08048141 0.12018789
000350 0e 99 7b bd 53 b6 21 be 9a f7 7e 3c e0 d4 27 be
       -0.06142526 -0.15792207 0.0155619625 -0.16389799
000360 13 4a 3e bc b4 fe 02 be d2 ab 27 bd 4a 6d e5 3d
       -0.01161434 -0.12792474 -0.040935345 0.11202486
000370 a3 28 8e bc 47 67 7a bd f6 82 28 3e 44 79 41 bd
       -0.017353361 -0.06113365 0.16456208 -0.04723479
000380 5e 18 da bd 50 66 57 3b b4 f7 c0 3d d8 14 c7 bb
       -0.10649179 0.003286738 0.094222456 -0.006075483
000390 b8 21 09 be 63 8c 66 3d 69 bb 81 bb c1 87 af bc
       -0.13391769 0.056286227 -0.0039591086 -0.021427037
0003a0 bb a5 3e bd 3d 8f 9e 3d 7d 89 37 3d 7c 83 4b bd
       -0.04654477 0.07742164 0.044808853 -0.04968594
0003b0 f7 0e fd 3d 52 aa fb 3d 61 f9 9c 3c 44 34 a8 bd
       0.1235637 0.122883454 0.019161882 -0.08213094
0003c0 56 bc a7 bd 48 f1 7f bd 41 a7 69 3b 1f 4e 9a bd
       -0.08190219 -0.062485963 0.003565267 -0.07534432
0003d0 9f a4 1b be fe 06 22 bd 89 31 d2 bc 70 0a 23 3c
       -0.15199517 -0.03955745 -0.025658386 0.009951219
0003e0 fa 7b ac bc 1a 35 34 3d 00 9d 0e 3d 27 3f ee 3d
       -0.02105521 0.043995954 0.034817696 0.11633139
0003f0 58 b0 9a 3a 3c de 92 3d d7 87 84 bd a9 b2 51 3d
       0.0011801822 0.07171294 -0.06471222 0.051195774

importance_map.upscale.bias f4 [6]
000000 55 26 ad 3d ec 0d 26 3d 6f 8d 0e be 0d 15 f8 bc
       0.08454577 0.04054062 -0.1392114 -0.030283475
000010 df 5f a6 bd 61 ca 20 3d
       -0.08123755 0.039255504

importance_map.genmap.weight f4 [18, 6, 3, 3]
000000 4a 85 c1 3d 41 06 63 3d 91 34 09 3e ce 52 c9 3c
       0.09449251 0.055425886 0.13398959 0.024575617
000010 4b 38 c6 3d 2e 98 30 3c 8a ce 13 3e a3 56 cf 3d
       0.09678706 0.01077847 0.14434257 0.101239465
000020 b9 66 3a 3e 96 ae 66 bb c4 84 13 3d 48 76 e0 bd
       0.18203248 -0.0035199276 0.036015287 -0.1096006
000030 12 f6 13 3e da c4 f0 3c 05 93 97 3d 95 fc d0 bd
       0.14449337 0.029390741 0.074010886 -0.10204426
000040 d7 7f 71 bb 18 36 08 3e 7f 34 5f bc 44 90 ac 3c
       -0.003684988 0.13301885 -0.013623356 0.021064885
000050 ce d7 e1 3d 44 7b 8b 3d 7d d2 98 3d 89 d2 b0 bd
       0.110274896 0.068106204 0.074620225 -0.086339064
000060 c8 b6 56 bd 84 20 c3 3b 18 bc 21 3a ac 89 9c bd
       -0.052420408 0.005954804 0.0006169691 -0.07643446
000070 27 0a 1b be 8b 25 09 3e 52 90 e2 bc 21 19 08 3e
       -0.15140592 0.13393228 -0.027656708 0.13290836
000080 8f 31 66 bd 36 0d b2 3d d2 57 90 bd 95 77 f2 3d
       -0.056199607 0.08693926 -0.070480004 0.11839215
000090 67 81 06 3e e5 c9 c0 3d 00 ef 95 bd 95 3a 84 bd
       0.131353 0.09413508 -0.07320976 -0.06456486
0000a0 19 04 0e be 00 de a0 bd 51 42 4d 3d ae 35 93 3d
       -0.1386875 -0.07854843 0.050112072 0.07187973
0000b0 a0 3b 84 bd 7a 36 80 3d 78 38 0f 3d 7f 34 cf bc
       -0.06456685 0.062603906 0.034965962 -0.025293587
0000c0 30 56 3c bd c1 21 e1 3d 0f 7a 58 3d 50 ed 82 3d
       -0.045980632 0.10992766 0.05285078 0.0639292
0000d0 5c 8d 09 3e 4f 2a a9 3d b1 5f d0 3d bf 71 ac 3c
       0.1343283 0.08260023 0.10174502 0.021050332
0000e0 b8 02 c5 3d 0b 71 17 3e 2b 50 f9 3d df 95 ff 3d
       0.09619659 0.14789216 0.12173494 0.124797575
0000f0 03 f1 af bc b8 8c e0 3c d0 e2 24 bd 52 6e 02 3e
       -0.021477228 0.02741085 -0.040255368 0.12737396
000100 31 c3 d3 3a d6 b3 af bd 2e 39 18 bd 8c 36 b5 bd
       0.0016156194 -0.08579223 -0.037163906 -0.088482946
000110 23 b9 2d 3d f8 f0 13 3e f4 56 cf 3c 6d 45 a9 bc
       0.04241289 0.14447391 0.025310017 -0.020662988
000120 d9 67 81 bd 9f bd e0 bd de 0b 2d 3d c5 8d 94 3d
       -0.063186355 -0.10973667 0.042247646 0.07253603
000130 bd c2 e4 bd f5 7b 4e 3d ab 44 b0 3c 6a 14 01 be
       -0.11169956 0.050411183 0.021517118 -0.12605444
000140 a7 b1 7a 3d cd ed 57 3d 47 1c 23 bd 97 3c f3 3d
       0.06120458 0.05271702 -0.03982189 0.11876791
000150 70 19 65 bd 0b e0 c0 3c 2b e2 0d 3e d6 d0 02 3e
       -0.055932462 0.023544332 0.13855807 0.12774977
000160 0d 27 ef 3d 4c e3 04 bd 04 81 0f bd a3 a0 6c 3d
       0.1167737 -0.03244333 -0.03503515 0.057770383
000170 fa 94 00 3d f8 77 fa 3d ee 8c fd 3d 10 07 02 3e
       0.031392075 0.122299135 0.12380396 0.12698007
000180 66 f8 9d 3d c4 39 86 bd ed fe f8 3c e4 68 47 3d
       0.07713394 -0.06553987 0.030394996 0.048684016
000190 88 ba 95 3c ae 02 f6 3b c8 b0 b6 ba 32 04 b9 bd
       0.018277422 0.0075076437 -0.0013938183 -0.09034003
0001a0 be 9a 4a 3c d0 4d 9c bd eb 9d 1f 3e 49 e7 cd bc
       0.012365995 -0.07632029 0.15587585 -0.0251347
0001b0 85 b9 58 3d a3 96 1d bd 34 f8 a9 bd 13 9d 40 3d
       0.0529113 -0.038473736 -0.08299294 0.047024798
0001c0 fd 05 e3 bd 1b e0 b8 3d b7 19 9b 3c 67 13 88 3c
       -0.110851265 0.0902712 0.01893316 0.016610814
0001d0 80 23 b4 3d 4a 66 ba 3d 66 a9 f7 3d 9e 46 be 3d
       0.087958336 0.09101541 0.12092857 0.09290813
0001e0 8f 7d 99 bc 1f 71 a5 ba 4c 0b ee bd 39 3e 39 3d
       -0.018736629 -0.0012622214 -0.116232485 0.045225356
0001f0 a1 bb 5b 3c 25 3c d6 3d 91 f4 d5 3d 7a b5 00 be
       0.013411433 0.104606904 0.10447038 -0.12569228
000200 6f 65 60 bd 41 d8 f7 3d 05 e6 21 3d 10 c3 fb bb
       -0.054784235 0.12101794 0.039526004 -0.0076831654
000210 6e 97 a4 bd 9e c6 5e be 6d b5 9c 3d 0b 00 8f 3d
       -0.080366954 -0.21755454 0.07651792 0.0698243
000220 d0 e3 58 3d 06 a3 bb 3d 80 23 6f bd 27 40 28 3e
       0.052951634 0.09161954 -0.058383465 0.16430722
000230 32 f8 a5 3d 0b e6 94 3d b7 9b 91 bb 30 05 c6 bd
       0.0810398 0.0727044 -0.0044436115 -0.09668958
000240 1a 21 99 3d 7a 63 95 3d d4 75 84 3d 57 00 93 3d
       0.07477017 0.07294364 0.064677864 0.07177799
000250 00 c7 1e bd 19 6b 02 3e 3e 94 71 3d 91 86 ae bd
       -0.038764 0.12736167 0.058979265 -0.0852176
000260 9c f2 78 bc c8 4d 57 bd 0a 10 b8 3d e9 d9 e1 bd
       -0.015194561 -0.052564412 0.08987434 -0.11027891
000270 c5 9a ab bd 47 bd 6c ba ef ae 06 be f8 5b 1d be
       -0.08379129 -0.000903089 -0.1315267 -0.15367115
000280 b6 19 b0 bd 43 0a 5d 3d f1 37 9b bd b1 ec 3a bc
       -0.08598654 0.053964864 -0.07579029 -0.011408971
000290 ff 34 00 3e 66 15 ce bc 0d e0 19 3e e4 5d 67 bd
       0.12520216 -0.025156688 0.15026875 -0.056486025
0002a0 ac d6 d9 3a d2 20 08 3a ec c5 6f bd 43 35 0b 3e
       0.0016619763 0.0005192879 -0.058538362 0.13594536
0002b0 bb d2 69 3d 87 95 9a bd 75 c9 8f 3d 97 c4 0d bd
       0.057085734 -0.07548051 0.07020847 -0.03461131
0002c0 96 b4 59 bd 7c 69 f1 3d 84 bc 93 3d 1f a8 46 bc
       -0.053150736 0.11787698 0.07213691 -0.012125044
0002d0 45 7a 09 3d c8 a0 1d 3d d9 d5 87 bd 77 14 10 3e
       0.03356387 0.03848341 -0.06632585 0.14070307
0002e0 ff cb 45 3e 99 9a f7 3d ff 10 96 bd 0f ce 11 3d
       0.193161 0.12090034 -0.073274605 0.035596903
0002f0 eb 57 89 bc 7d 74 2b 3e 4f 5f 11 be 47 8f 4f 3d
       -0.016765555 0.16743656 -0.14196514 0.05067375
000300 cb 82 f6 3d 16 e6 8d bd 66 eb 57 3c 54 6a 17 3e
       0.120366655 -0.06928651 0.013178682 0.14786655
000310 24 c4 1f 3d 48 ae 4b 3e c7 d4 de 3d dc c6 bd 3c
       0.039005414 0.19890702 0.10880428 0.023166113
000320 f0 e7 c6 bc a6 87 51 bd 5e 88 c6 3d da d2 3b 3c
       -0.024280518 -0.051154755 0.09693979 0.011463845
000330 44 5f 24 3e 04 8b 09 3e fb 46 95 3d b0 76 26 3e
       0.16051966 0.13431937 0.07288929 0.16256213
000340 79 6f 55 bc 12 30 b4 3d de 49 18 3e 8c c7 98 bd
       -0.013027065 0.08798231 0.14871928 -0.074599355
000350 5a cb 7f 3d 08 4c 8c 3c 5a 4d ab 3d 7d 77 d9 3d
       0.06244979 0.017126098 0.08364363 0.10618494
000360 f5 71 34 be 57 51 b1 be 2c e3 32 be 3d e3 6f bd
       -0.17621596 -0.3463237 -0.17469472 -0.05856632
000370 76 33 05 be e7 02 5f bd f3 65 7c be dd 52 bf be
       -0.13007912 -0.054446127 -0.24648266 -0.37367907
000380 a3 b6 63 be 4f ac 25 be a0 aa c2 bc 1d db 02 3c
       -0.22237639 -0.16179012 -0.023763001 0.007986811
000390 68 84 c0 bb 90 92 07 be bb 35 87 be c4 d3 f1 3c
       -0.005875159 -0.13239503 -0.2640818 0.029519923
0003a0 83 d0 29 be 7c d1 b1 bc e9 8c 16 3c cb 28 fe bd
       -0.16583447 -0.021706335 0.009188869 -0.124101244
0003b0 de be 15 3e 7c 42 3b 3c 9b 10 4c be 49 8a 8c 3c
       0.14623591 0.011429425 -0.1992821 0.017155783
0003c0 b7 8c 08 bd a9 90 9a bd 16 19 97 3c c5 84 06 3d
       -0.03333732 -0.07547123 0.01844458 0.032841463
0003d0 4b a6 93 bd 17 ce 2b 3c 5d 15 15 be 5e 79 04 bd
       -0.07209452 0.010486147 -0.1455893 -0.032342307
0003e0 43 b9 ef bd fb 54 ca 3d b2 a9 45 3d d3 74 29 3e
       -0.11705258 0.0987949 0.048257537 0.16548471
0003f0 54 10 a3 3d ea d2 43 be 0b a7 43 bc 41 9b ae bc
       0.07962099 -0.19123426 -0.011941682 -0.021314265

importance_map.genmap.bias f4 [18]
000000 8f 5f 45 3d 57 d9 0e 3e 64 2f 80 3d ad a2 d6 3c
       0.048186835 0.13950096 0.06259039 0.026200617
000010 6e 23 33 be 34 2e f6 3d 25 06 09 3e 45 3e ae 3c
       -0.17493984 0.12020531 0.1338125 0.021269927
000020 07 29 4e bd ce 1d 75 3e 18 a4 f6 3d aa 62 68 3c
       -0.050332095 0.23937151 0.12043017 0.01418368
000030 bb a1 54 3d 8e 73 4f bd 33 cd 9e 3d c4 2b 72 be
       0.05191205 -0.05064731 0.077539824 -0.23649508
000040 75 91 17 3e e6 6c e2 3d
       0.14801581 0.11055927
