experiment/meta/model/model_1.pt (torch, 28984 bytes, 14 tensors)

feat_extraction.stage0.rbr_dense.conv.weight f4 [14, 3, 3, 3]
0	0x3e03e5d1	0.12880637
1	0xbd68b44d	-0.056812573
2	0xbb86aff5	-0.004110331
3	0x3df2cce1	0.11855484
4	0xbe2a3bb4	-0.16624337
5	0x3e00bed7	0.125728
6	0xbc40e911	-0.011774317
7	0x3deb5ba4	0.114920884
8	0x3d04c6cb	0.032416146
9	0x3c15d39e	0.009144692
10	0x3dae0fa5	0.08499078
11	0x3d3e84ff	0.046513554
12	0x3dd2a64c	0.10285625
13	0xbd60711b	-0.054795366
14	0x3b3945c0	0.0028270334
15	0x3c72f6a4	0.0148293115
16	0x3d4b2ae7	0.04960146
17	0x3c3fc3b5	0.011704375
18	0x3e3f0f49	0.18658175
19	0x3d9dc719	0.077039905
20	0xbd41f3c2	-0.047351606
21	0xbdc78837	-0.09742778
22	0xbccfc9b6	-0.025364738
23	0xbd9c990d	-0.076463796
24	0xbd2d9da0	-0.04238665
25	0x3c8cb52c	0.017176233
26	0x3def56e8	0.11686498
27	0x3db3bc43	0.087761424
28	0xbe53010f	-0.20605873
29	0x3de88abf	0.11354589
30	0x3cf0726c	0.029351436
31	0x3e226782	0.15859798
32	0x3dfe177c	0.12406823
33	0xbe51b012	-0.20477322
34	0xbe529dfb	-0.20568077
35	0xbdc6bfd3	-0.09704556
36	0x3e2dca10	0.16971612
37	0xbd0498e7	-0.03237238
38	0x3dbe5949	0.092943735
39	0xbdc6734a	-0.096899584
40	0x3e3983d2	0.18116692
41	0xbd8d6c61	-0.06905437
42	0x3e00d052	0.12579468
43	0xbc1605ad	-0.009156627
44	0xbdc09d2b	-0.094049774
45	0x3e0eea2e	0.1395652
46	0xbd7df67b	-0.06200264
47	0x3dd345b9	0.10316033
48	0xbcb3b677	-0.021937592
49	0x3c57be96	0.013167998
50	0xbe0b9973	-0.13632755
51	0xbd9477b5	-0.07249395
52	0x3e05f5df	0.13082074
53	0xbbb58356	-0.005539338
54	0x3e62b270	0.22138381
55	0x3e3afa49	0.18259539
56	0x3ca3f26a	0.020013053
57	0xbdcb5d19	-0.09929866
58	0x3e142f0f	0.14471076
59	0x3db966c1	0.09052802
60	0xbdc43b67	-0.095816426
61	0x3e1bdf70	0.15221953
62	0x3e15e49a	0.14637986
63	0x3e4b7fce	0.19872972
64	0xbda557dd	-0.08073399
65	0xbb5846f3	-0.0033001273
66	0x3cc0dfbd	0.023544187
67	0x3d5e18ce	0.054222874
68	0xbded9466	-0.116005704
69	0xbde10fb2	-0.10989322
70	0x3e05904f	0.1304333
71	0xbc883340	-0.016626
72	0x3df0affe	0.11752318
73	0x3d0be1d2	0.034150906
74	0x3db450a4	0.088044435
75	0x3d85497f	0.06508159
76	0x3dbcf77c	0.092268914
77	0x3df9d2db	0.121984206
78	0xbe1fe0ea	-0.15613142
79	0x3df2f6af	0.118634574
80	0xbde29279	-0.11063094
81	0xbe0755fb	-0.13216393
82	0x3d06bffb	0.03289793
83	0xbcfe4210	-0.03103736
84	0x3e01a85e	0.12661883
85	0xbdb39dcc	-0.08770332
86	0xbe2e264e	-0.170068
87	0x3e13e290	0.14441895
88	0xbc67f843	-0.014158311
89	0x3dd61ea9	0.10455067
90	0x3d93342d	0.07187686
91	0xbdffa391	-0.1248237
92	0x3d2595f4	0.04042621
93	0x3d6cbf7c	0.0577998
94	0xbdd95348	-0.10611588
95	0xbdb6c26f	-0.08923804
96	0x3d8c5091	0.06851304
97	0x3d41631e	0.047213666
98	0xbdaf774d	-0.08567677
99	0xbd566715	-0.0523444
100	0x3e417fcf	0.18896411
101	0xbd17934a	-0.0370057
102	0x3dee8591	0.116465695
103	0x3dcb5eff	0.099302284
104	0xbe00aec5	-0.1256667
105	0xbe282445	-0.16420086
106	0x3e438c66	0.19096527
107	0x3b5b0932	0.003342223
108	0x3e25b1ad	0.16181059
109	0x3d905508	0.070474684
110	0x3db6298c	0.08894643
111	0x3e34a307	0.17640315
112	0x3e5d088b	0.2158529
113	0xbdc90c44	-0.098167926
114	0x3d5ad2fa	0.05342386
115	0x3e32eb10	0.17472482
116	0x3e2baff7	0.16766344
117	0x3e1dc527	0.15407239
118	0xbdd4b6dc	-0.1038644
119	0xbdda7732	-0.10667266
120	0xbda32cce	-0.0796753
121	0x3d7cecfd	0.061749447
122	0x3e6711b6	0.2256535
123	0xbdb69a2b	-0.08916124
124	0x3e0c1e0f	0.13683341
125	0xbd998a04	-0.074970275
126	0xbe155374	-0.14582616
127	0xbbb2b0d7	-0.00545321
128	0x3e120145	0.14258297
129	0x3e5cf5f1	0.21578194
130	0xbda85693	-0.08219638
131	0x3d99d385	0.07511047
132	0x3e4aca72	0.1980379
133	0x3e24ac6a	0.16081396
134	0x3e19d104	0.1502114
135	0x3df9d70e	0.121992216
136	0x3e014179	0.12622632
137	0x3d3a55fc	0.045492157
138	0xbe123d91	-0.14281298
139	0xbe14d796	-0.14535365
140	0xbda79799	-0.08183212
141	0xbd1f5bfb	-0.03890608
142	0xbde02aa4	-0.10945633
143	0x3d91d103	0.07119944
144	0x3d5785cc	0.052617833
145	0xbccbd597	-0.024882121
146	0x3daac1b2	0.08337726
147	0x3d6fd8eb	0.05855648
148	0x3e194255	0.1496671
149	0x3e1aadc3	0.15105347
150	0xbd9f379b	-0.07774278
151	0x3e53ffb3	0.2070301
152	0xbc458142	-0.012054743
153	0x3b366ae6	0.0027834713
154	0xbe1ad47f	-0.15120123
155	0xbdcf6508	-0.10126692
156	0xbdcc5e64	-0.09978941
157	0xbd2a09a7	-0.04151311
158	0x3e2c75fb	0.16841881
159	0xbd72d842	-0.05928827
160	0xbde83ec4	-0.113400966
161	0x3dc58206	0.09643941
162	0x3d484374	0.048892453
163	0x3e009cd3	0.12559824
164	0xbddd68c9	-0.10811002
165	0x3d32bf54	0.043639496
166	0xbd550b20	-0.052012563
167	0xbd2306fa	-0.039801575
168	0xbe1fb89f	-0.15597771
169	0xbd9b71be	-0.07590054
170	0xbd6ca4af	-0.057774242
171	0x3da6ccb2	0.08144511
172	0x3d4bfb73	0.049800348
173	0x3d541ed2	0.051787205
174	0x3e51f78b	0.20504586
175	0x3e5f52fc	0.21809
176	0x3e16015d	0.14648958
177	0x3c332859	0.010934913
178	0xbde78a46	-0.113056704
179	0x3e230b0b	0.15922181
180	0xbcfe442e	-0.03103837
181	0x3c71274f	0.014718845
182	0xbe161a03	-0.1465836
183	0xbc11475a	-0.008867109
184	0xbda52a47	-0.080647044
185	0x3e5243c0	0.20533657
186	0xbe17119c	-0.14752811
187	0xbdf243b1	-0.11829317
188	0x3c602b22	0.013682159
189	0xbe039964	-0.12851483
190	0x3d6ba94b	0.057534497
191	0xbdc5879e	-0.096450076
192	0xbddb5ce0	-0.10711074
193	0x3c40feae	0.01177947
194	0x3e02ef1a	0.12786523
195	0xbe2035f4	-0.15645581
196	0x3db0e825	0.08638028
197	0x3de080b6	0.1096205
198	0x3e301cbe	0.17198464
199	0xbe0a83fc	-0.1352691
200	0x3d0c00c2	0.03418041
201	0xbe19ff5a	-0.15038815
202	0x3e34a93e	0.17642686
203	0xbd9acca8	-0.07558566
204	0x3dd13119	0.10214443
205	0x3c391f37	0.011298946
206	0xbca75aa4	-0.020428963
207	0xbb91fdb5	-0.004455293
208	0x3d50b1be	0.05095076
209	0x3dc416b4	0.09574643
210	0x3d2a09d0	0.041513264
211	0x3db79808	0.089645445
212	0xbe1fc2a7	-0.15601598
213	0x3e137906	0.14401636
214	0x3e43d90b	0.19125764
215	0x3e2e9a09	0.17050947
216	0x3e297a84	0.16550642
217	0xbdfa60d5	-0.122255005
218	0xbd3a50e8	-0.045487314
219	0x3e45c4f7	0.19313417
220	0xbe09d690	-0.13460755
221	0x3e41dda9	0.18932213
222	0xbdf3377a	-0.11875816
223	0xbde12769	-0.10993845
224	0x3deb776b	0.114973865
225	0xbdd574d3	-0.10422673
226	0xbcd462a8	-0.02592595
227	0x3e2dc07a	0.16967955
228	0x3e3c1840	0.18368626
229	0x3e47f916	0.19528612
230	0xbcc79db7	-0.024367196
231	0xbdd1749d	-0.1022732
232	0x3e639cc2	0.22227767
233	0xbc818d65	-0.015814492
234	0xbd6b1bde	-0.057399623
235	0x3d59c2c4	0.05316426
236	0xbddb4914	-0.10707298
237	0x3e0680b0	0.13135028
238	0x3dda325f	0.10654139
239	0xbe1fff8c	-0.15624827
240	0xbe00e54e	-0.12587473
241	0x397098b8	0.00022945076
242	0x3dc43343	0.0958009
243	0xbd3ec028	-0.046569973
244	0xbe05d87b	-0.13070862
245	0xbd47dbfc	-0.048793778
246	0xbe635ff9	-0.2220458
247	0xbe2d0960	-0.16898108
248	0xbe33f49e	-0.17573783
249	0x3dd2fb41	0.10301829
250	0x3de5200e	0.111877546
251	0xbdef8e74	-0.11697093
252	0xbd04eeb8	-0.032454222
253	0x3d4dbc44	0.050228372
254	0xbd04f11b	-0.0324565
255	0xbe02d135	-0.12775119

feat_extraction.stage0.rbr_1x1.conv.weight f4 [14, 3, 1, 1]
0	0x3e9bf207	0.3045809
1	0x3dbdd78a	0.092696264
2	0xbdd4f7aa	-0.10398801
3	0xbf035349	-0.5129896
4	0x3ee04d66	0.4380905
5	0xbdeaee58	-0.11471242
6	0xbeb0f034	-0.3455826
7	0x3ecae5ae	0.39628357
8	0x3e68cc0f	0.22734092
9	0x3e2aa061	0.16662742
10	0xbdbbe058	-0.091736495
11	0xbe2824d5	-0.164203
12	0x3e067f21	0.13134433
13	0x3ef7fd36	0.48435372
14	0x3df5c35b	0.12000152
15	0xbe837397	-0.25674126
16	0x3f1b0f49	0.605702
17	0x3d59b3ef	0.053150114
18	0x3ef2eba6	0.4744541
19	0x3e2f581b	0.17123453
20	0x3f0f9d42	0.5609933
21	0x3eab0175	0.3339955
22	0xbe90800b	-0.2822269
23	0x3edf7cf1	0.4365001
24	0x3c80839a	0.015687753
25	0xbee67d25	-0.45017353
26	0xbe0a4bcf	-0.13505481
27	0xbf0dd8ac	-0.5540874
28	0xbea737e3	-0.32659826
29	0xbedf54b7	-0.4361932
30	0x3ecceb3c	0.4002322
31	0xbdd05d30	-0.10174024
32	0xbdcde03e	-0.100525364
33	0x3e8b5c27	0.27218744
34	0x3e7f53f9	0.24934377
35	0xbebaf989	-0.36518505
36	0x3e2ffad3	0.17185526
37	0x3e62b98f	0.22141097
38	0xbef65d18	-0.481179
39	0x3f02401d	0.5087908
40	0xbeafa5f7	-0.3430631
41	0xbe736846	-0.23770246

feat_extraction.stage1.rbr_identity.weight f4 [14]
0	0x3f7e52f3	0.9934532
1	0x3f75a9ac	0.95962024
2	0x3f7f8bc6	0.9982265
3	0x3f8017f2	1.0007308
4	0x3f7fc487	0.9990925
5	0x3f802139	1.0010139
6	0x3f7f67d7	0.9976782
7	0x3f80e8eb	1.0071081
8	0x3f807f0b	1.003877
9	0x3f74edc2	0.9567529
10	0x3f812f7c	1.0092616
11	0x3f855fa4	1.0419812
12	0x3f775354	0.96611524
13	0x3f7a31ad	0.9773205

feat_extraction.stage1.rbr_identity.bias f4 [14]
0	0x3d05c8eb	0.032662313
1	0x3d12b3e9	0.035816107
2	0x3bf72d96	0.007543276
3	0x3cb746ab	0.022372564
4	0xbc267ce6	-0.010161614
5	0x3cba404c	0.022735737
6	0x3d097400	0.03355789
7	0x3cf53ab9	0.029935228
8	0x3cd16b29	0.025563793
9	0x3b9f1f6b	0.0048560402
10	0x3d730a6c	0.05933611
11	0x3d87ba2d	0.06627307
12	0x3c239039	0.009983116
13	0x3d50fab2	0.05102033

feat_extraction.stage1.rbr_identity.running_mean f4 [14]
0	0x3ed4b2d3	0.41542682
1	0x3cc9561e	0.024577197
2	0x3f239c0e	0.63909996
3	0x3c5668e1	0.0130865285
4	0x3f8f076d	1.1174141
5	0x3e70a24b	0.2349941
6	0x3f236e87	0.63840526
7	0x3ef087c1	0.46978572
8	0x3c9bd106	0.019020569
9	0x3522ca0b	6.0643714e-07
10	0x3d8d3e15	0.06896607
11	0x3c7fbe55	0.015609344
12	0x35f1d199	1.80169e-06
13	0x3dbed534	0.09318009

feat_extraction.stage1.rbr_identity.running_var f4 [14]
0	0x3d727c9d	0.05920087
1	0x3b319431	0.0027096386
2	0x3e194373	0.14967136
3	0x3aa5abbb	0.0012639681
4	0x3eddd4d9	0.43326452
5	0x3cce8352	0.025209103
6	0x3e19b838	0.1501168
7	0x3dc6d38b	0.09708317
8	0x3a6584d7	0.00087554514
9	0x31c6676c	5.774316e-09
10	0x3baeb07f	0.0053310986
11	0x3aa82da1	0.0012830981
12	0x333b153e	4.355865e-08
13	0x3c6751f7	0.014118663

feat_extraction.stage1.rbr_dense.conv.weight f4 [14, 14, 3, 3]
0	0xbd392638	-0.045202464
1	0x3ddfb9d5	0.109241165
2	0x3d3ce09b	0.046112638
3	0x3dccca58	0.099995315
4	0x3cf0a099	0.029373454
5	0x3d93b2d2	0.07211842
6	0xbbd66616	-0.0065429313
7	0xbd4604fc	-0.048344597
8	0x3d0a16cc	0.033713147
9	0x3b8549bd	0.004067628
10	0x3c44da7d	0.012014982
11	0xbcbca4bb	-0.023027768
12	0x3c91cdd8	0.01779835
13	0x3d3f3fe0	0.046691775
14	0x3d391ea1	0.045195226
15	0xbd632f60	-0.055465102
16	0x3d901f94	0.07037273
17	0x3cf687ec	0.03009411
18	0x3daf9843	0.085739635
19	0x3dad92ae	0.084752426
20	0xbd378f37	-0.044814315
21	0x3ddd9949	0.108202524
22	0xbd9098b1	-0.070603736
23	0x3d8e12db	0.0693719
24	0x3cd776a8	0.026301697
25	0x3d6f5b6d	0.0584368
26	0xbd0c8ba0	-0.034312844
27	0x3d69c190	0.05706936
28	0xbd9cdec7	-0.07659679
29	0xbdd81fdb	-0.10552951
30	0x3cffa5a0	0.031206906
31	0x3d748d8d	0.059705306
32	0x3dac225d	0.08404992
33	0xbcdafc21	-0.026731553
34	0x3daec045	0.08532766
35	0x3d7dfebf	0.062010523
36	0xbcb815d6	-0.02247135
37	0xbd420581	-0.04736853
38	0x3d94a0b9	0.07257218
39	0xbcedb390	-0.029016286
40	0x3d70c348	0.058779985
41	0xbd72ec14	-0.059307173
42	0x3dab4373	0.08362474
43	0x3d35060f	0.04419523
44	0x3bb76ff9	0.005598065
45	0x3d86cc39	0.06581921
46	0xbd1d392a	-0.038384594
47	0x3c2615c4	0.010137025
48	0x3cd05372	0.025430415
49	0xbd073a13	-0.03301437
50	0x3a283733	0.0006416917
51	0xbc6a3cf8	-0.014296763
52	0x3dd4cf9f	0.10391163
53	0x3dc4abb5	0.09603063
54	0x3dc89d6d	0.097956516
55	0x3dc0cd10	0.094141126
56	0xbd73ed10	-0.059552252
57	0x3d4ba8e0	0.0497216
58	0x3d468419	0.048465822
59	0xbd438d91	-0.04774243
60	0x3d6befe5	0.057601828
61	0xbcfac655	-0.03061215
62	0x3cf54ba3	0.029943293
63	0x3d3ce079	0.04611251
64	0x3dba4f43	0.09097149
65	0xbcef91da	-0.029244352
66	0xbd5ce8dd	-0.053933013
67	0x3dbebea8	0.093137085
68	0x3d47777a	0.048697926
69	0x3d712764	0.058875456
70	0x3d2fc51e	0.042912595
71	0xbcb24dd1	-0.021765621
72	0x3d831fc1	0.06402541
73	0xbe16e08f	-0.147341
74	0xbbfdb862	-0.0077429274
75	0x3d150edb	0.03639112
76	0x3d63200e	0.05545049
77	0xbd96b0d3	-0.07357945
78	0xbdadee65	-0.08492736
79	0x3da35b3f	0.07976388
80	0xbcb1dd05	-0.021711836
81	0xbd8de8cc	-0.06929168
82	0xbd976cd0	-0.07393801
83	0xbd40bb61	-0.0470537
84	0xbca138b4	-0.019680358
85	0xbd5c169b	-0.053732496
86	0xbd125dfa	-0.035734154
87	0xbdb26d0f	-0.087122075
88	0x3d3dac6b	0.04630701
89	0xbce1be10	-0.02755645
90	0xbd1cb463	-0.038257968
91	0x3d3058e0	0.043053508
92	0xbd2fc545	-0.04291274
93	0x3da4f40b	0.0805436
94	0x3d8fe140	0.07025385
95	0xbd8b65ec	-0.068065494
96	0xbd55f294	-0.052233294
97	0xbd21b046	-0.039474748
98	0xbcfec170	-0.031098098
99	0x3d82b4a1	0.063821085
100	0xbd6a46b4	-0.057196334
101	0xbcab2ec9	-0.020896332
102	0x3da1ec8b	0.07906445
103	0x39540ef0	0.0002022346
104	0xbc865c92	-0.016401563
105	0xbd0d5d8e	-0.03451305
106	0x3d93992d	0.0720695
107	0x3d31e658	0.043432564
108	0xbd167bc7	-0.036739137
109	0xbd6a84fc	-0.05725573
110	0x3c89e75e	0.016833957
111	0x3cbbd007	0.022926344
112	0x3d1d60ce	0.0384224
113	0x3cd33a3a	0.0257846
114	0xbc7182bf	-0.014740645
115	0xbd8ecbaa	-0.069724396
116	0x3d670564	0.056401625
117	0x3cabfd31	0.020994755
118	0xbd070ad6	-0.03296932
119	0x3dda6e31	0.106655486
120	0x3d82c658	0.06385487
121	0xbd65c7bf	-0.056098696
122	0xbcf4929a	-0.029855061
123	0xbc6a73e6	-0.014309859
124	0xbcf762fc	-0.030198567
125	0x3d8d0421	0.06885553
126	0xbd88b036	-0.066742346
127	0x3daa4737	0.083143644
128	0xbd055528	-0.032551914
129	0x3d587ce1	0.05285347
130	0x3bf45eff	0.0074576135
131	0xbcfdcc22	-0.030981127
132	0x3d7587d2	0.05994398
133	0xbd879fe8	-0.066222966
134	0xbd27ce7e	-0.04096841
135	0x3d018ba2	0.031627305
136	0x3db4a2d5	0.0882012
137	0xbc8f9ad5	-0.017529884
138	0xbcf38842	-0.029728059
139	0xbd063fd3	-0.03277571
140	0xbc8b7e93	-0.017028129
141	0xbc3f5330	-0.011677548
142	0x3b7e85e3	0.0038837127
143	0xbd00f3b9	-0.031482432
144	0x3d3fe706	0.04685118
145	0x3cb51da7	0.022108866
146	0xbd0258a8	-0.03182283
147	0xbcecfa31	-0.028927894
148	0x3d365797	0.044517126
149	0x3cf31f13	0.029677903
150	0x3da9c390	0.08289254
151	0x3c20253a	0.0097745005
152	0xbd32216f	-0.043488916
153	0xbd949559	-0.07255048
154	0xbd86c02a	-0.06579621
155	0x3d4c59f5	0.049890477
156	0x3d73ccfd	0.059521664
157	0xbd6c4969	-0.057687197
158	0x3da1e276	0.07904522
159	0x3c86505f	0.016395746
160	0x3c4ef1bc	0.012630876
161	0x3dab2a56	0.08357684
162	0xbc2e825f	-0.0106512
163	0x3dc8eab2	0.098103896
164	0x3d34e791	0.04416615
165	0xbd3d70a6	-0.046250008
166	0xbd0573da	-0.032581188
167	0x3d9e8288	0.077397406
168	0x3d5f3ffd	0.054504383
169	0x3db2b934	0.08726731
170	0x3c790940	0.015199959
171	0x3d9f9076	0.077912256
172	0x3d8522b0	0.06500757
173	0x3d335a9d	0.043787587
174	0xbbce1682	-0.0062893042
175	0x3ddcabfa	0.107749894
176	0x3d1907de	0.03736102
177	0xbc0ecbe6	-0.008715605
178	0x3ca9df5b	0.020736387
179	0x3dd9bba3	0.10631492
180	0x3d9f728a	0.077855185
181	0x3c614987	0.01375044
182	0x3ddf3c1b	0.10900136
183	0x3d5ee7db	0.054420333
184	0xbcf9e880	-0.030506372
185	0xbd73c905	-0.05951788
186	0x3d86c843	0.06581166
187	0x3dcf2eee	0.10116373
188	0xbce67395	-0.028131286
189	0x3d8a8a10	0.067646146
190	0x3d18a99c	0.037271127
191	0x3c8e3f4e	0.01736417
192	0x3b93321d	0.004492058
193	0x3d6935ae	0.05693596
194	0x3d6b0116	0.057374083
195	0x3db37f82	0.087645546
196	0x3d8537c7	0.06504779
197	0x3d9e4824	0.077286035
198	0x3d654fa7	0.055984166
199	0x3d9ace20	0.075588465
200	0x3cffd45e	0.031229194
201	0xbcca6863	-0.024707979
202	0x3d95046f	0.07276236
203	0xbd8b69e3	-0.06807306
204	0x3d95aa2e	0.0730785
205	0x3d655fe7	0.055999663
206	0xbdbc663a	-0.09199186
207	0x3d8235b6	0.06357901
208	0xbc9cf5ef	-0.019160239
209	0x3d8e2b29	0.06941826
210	0x3da297ec	0.07939133
211	0xbcb15e8b	-0.021651527
212	0x3c1813cd	0.009282065
213	0xbce00cb0	-0.0273498
214	0xbced13b8	-0.028940067
215	0xbc4c9b7f	-0.012488245
216	0xbc4d9dd0	-0.012549832
217	0xbd26f424	-0.040760174
218	0xbdc1a5b1	-0.09455431
219	0xbd6380a3	-0.0555426
220	0xbc5c5d16	-0.013449928
221	0xbd1521fa	-0.036409356
222	0x3d876f83	0.06613066
223	0x3d95019e	0.07275699
224	0x3d7a9051	0.061172787
225	0x3d2451cd	0.040117074
226	0xbd90225b	-0.07037803
227	0x3db89ddb	0.090144835
228	0xbd918a96	-0.07106511
229	0xbd28a713	-0.04117496
230	0xbd97eb4f	-0.074179284
231	0x3d67da08	0.056604415
232	0xbd7b51f5	-0.061357457
233	0xbcac43fb	-0.02102851
234	0xbd81bb0d	-0.06334505
235	0xbd7c176b	-0.06154577
236	0xbd46918a	-0.04847864
237	0x3daa01c9	0.08301122
238	0xbc4771a4	-0.01217309
239	0x3cb1f5b9	0.021723615
240	0xbdbdd381	-0.09268857
241	0x3d98b723	0.074568056
242	0xbcca41a0	-0.024689496
243	0xbde29da9	-0.110652275
244	0x3d32f4a8	0.043690354
245	0xbd61fe56	-0.055174194
246	0x3cf13954	0.029446281
247	0xbdd0cc25	-0.101951875
248	0xbe096cc7	-0.13420402
249	0xbdd459f0	-0.10368717
250	0x3c7a8131	0.015289591
251	0xbd4923aa	-0.049106278
252	0xbd8d68ee	-0.069047794
253	0x3cd02f80	0.025413275
254	0x3bee45b9	0.007271495
255	0x3d34903d	0.04408287

feat_extraction.stage1.rbr_1x1.conv.weight f4 [14, 14, 1, 1]
0	0x3ca629cc	0.020283602
1	0xbe41384c	-0.18869132
2	0x3bcf8154	0.006332556
3	0xbda260f4	-0.079286486
4	0xbd8a343a	-0.06748243
5	0xbcfd7058	-0.030937359
6	0x3da3b296	0.07993047
7	0xbd52f4f1	-0.051503126
8	0xbe4577aa	-0.1928393
9	0xbe09a4f1	-0.13441826
10	0xbe51bf57	-0.20483147
11	0xbe7346b6	-0.23757443
12	0x3e031c50	0.12803769
13	0x3e272aae	0.16324875
14	0x3e53574d	0.20638771
15	0x3d395e62	0.045256026
16	0xbdac9911	-0.084276326
17	0xbe4b365b	-0.19844954
18	0x3e19b76a	0.15011373
19	0xbe0eff3f	-0.13964556
20	0x3e5dda39	0.21665277
21	0xbde70444	-0.112801105
22	0xbe77b31a	-0.24189416
23	0xbe3a900d	-0.18219014
24	0x3e58eb13	0.21183424
25	0x3e426667	0.18984376
26	0x3d77216a	0.0603346
27	0xbd106ad5	-0.035258133
28	0x3e7111f3	0.23542003
29	0x3e157cb2	0.14598349
30	0x3e241f35	0.1602753
31	0xbe5a9ed6	-0.21349654
32	0x3d41f70f	0.047354754
33	0x3e7e9390	0.24860978
34	0xbe403ea4	-0.18773896
35	0x3e8a932c	0.27065408
36	0xbe326b4f	-0.17423747
37	0xbda2aea8	-0.07943469
38	0xbc868eca	-0.016425509
39	0x3db8cba7	0.090232186
40	0x3da1c51b	0.07898923
41	0xbe04a2ec	-0.12952775
42	0x3dfd9507	0.1238194
43	0x3ddcb79a	0.10777207
44	0xbcd06ac4	-0.025441535
45	0xbe808c80	-0.25107193
46	0x3e87ed17	0.26548073
47	0xbdd31057	-0.10305851
48	0xbe0c4cbe	-0.1370115
49	0x3e86da21	0.26338294
50	0xbe271a7d	-0.16318698
51	0x3e21ff67	0.15820085
52	0x3e31ae16	0.17351565
53	0xbdec9182	-0.11551191
54	0xbe6b1ce9	-0.22960247
55	0xbe06fc92	-0.13182285
56	0x3da20879	0.07911772
57	0x3e7e43fb	0.2483062
58	0xbced8e02	-0.028998379
59	0xbdea2dce	-0.11434518
60	0xbdb65586	-0.08903031
61	0xbe491f63	-0.1964088
62	0x3e81835b	0.2529553
63	0xbc9e4d7c	-0.019324057
64	0xbe44d8ad	-0.1922328
65	0xbe3c8615	-0.18410523
66	0x3e212cf7	0.15739809
67	0x3d879075	0.0661935
68	0x3e2f4329	0.17115463
69	0xbc611eac	-0.013740223
70	0xbd30aec8	-0.043135434
71	0x3dcf2f48	0.1011644
72	0x3c8c2c1a	0.017110873
73	0xbd93ad71	-0.07210816
74	0x3da1db41	0.079031475
75	0xbe0900ae	-0.13379166
76	0xbe2baa11	-0.16764094
77	0xbd219bd5	-0.039455254
78	0xbe3df983	-0.18552212
79	0x3ba5fbf4	0.0050654355
80	0x3d648408	0.055789977
81	0x3e9a82ea	0.30178005
82	0x3da09668	0.07841188
83	0x3b6b38bf	0.0035891978
84	0xbe31472d	-0.17312308
85	0xbdae87fa	-0.08522029
86	0xbc5e2dab	-0.013560693
87	0xbe22575c	-0.15853637
88	0x3da08bd9	0.07839174
89	0x3e601b26	0.21885356
90	0x3e3a89b4	0.18216592
91	0xbda5c0d0	-0.08093417
92	0xbc5fd64b	-0.013661931
93	0x3e86ec4f	0.26352164
94	0xbcb5ffa4	-0.022216626
95	0xbe437443	-0.19087319
96	0xbb65f7ce	-0.003509033
97	0x3ce66e54	0.02812878
98	0xbdb12bd1	-0.086509354
99	0xbc2782cf	-0.010224058
100	0xbe4603e3	-0.1933742
101	0x3dfe0f2c	0.124052376
102	0xbe28bc8f	-0.1647818
103	0x3dec4a54	0.115376145
104	0x3e6653a6	0.22492847
105	0xbe16427a	-0.14673796
106	0xbc8e114a	-0.017342228
107	0x3cb5750d	0.02215054
108	0x3c7fe0d7	0.015617571
109	0x3e8a83ef	0.27053782
110	0xbc9a11a9	-0.01880725
111	0x3d7de6cf	0.061987694
112	0xbd7badbd	-0.061444987
113	0x3ddf361f	0.10898995
114	0x3da18f34	0.07888642
115	0xbe17ce52	-0.14824799
116	0x3e163c00	0.14671326
117	0xbd4a358d	-0.049367476
118	0x3e75a4e3	0.2398868
119	0xbe8a0e4c	-0.26964033
120	0x3d1dbcb7	0.03851005
121	0x3e111d03	0.14171223
122	0x3e4c6ab7	0.19962583
123	0x3dfa8729	0.12232811
124	0xbdfddf8f	-0.12396156
125	0xbe207633	-0.1567009
126	0xbe300e5c	-0.17192978
127	0x3e83f4f6	0.25772828
128	0xbe4ae41e	-0.19813582
129	0xbdad54df	-0.084634535
130	0x3e30b1a4	0.17255265
131	0x3e360891	0.17776705
132	0xbe47b969	-0.19504322
133	0x3daa818d	0.08325491
134	0x3d1391b4	0.036027625
135	0x3e5853cb	0.21125714
136	0x3ce5c071	0.028045865
137	0x3e4400fe	0.19141003
138	0xbd3c2a14	-0.045938566
139	0x3e8e282e	0.2776503
140	0x3c9fd9fa	0.019513119
141	0xbde20c01	-0.11037446
142	0x3da8fe93	0.08251681
143	0xbdc6456f	-0.09681212
144	0x3dcfff22	0.101560846
145	0x3e63874e	0.22219583
146	0xbe2e8959	-0.17044581
147	0xbe3365ec	-0.17519349
148	0x3e16b961	0.14719154
149	0xbc95b78c	-0.018275999
150	0xbd0cfeaf	-0.034422573
151	0x3e9de386	0.3083765
152	0x3dea11e5	0.11429194
153	0xbcca24aa	-0.024675686
154	0x3d763be7	0.06011572
155	0x3c5b7a7b	0.013395901
156	0xbe1f8140	-0.15576649
157	0x3e6aae4e	0.22918054
158	0xbe1ea405	-0.15492256
159	0x3d80a108	0.06280714
160	0x3e5063fb	0.2035064
161	0xbe6ad51c	-0.22932857
162	0x3d7a662e	0.061132602
163	0x3e8ce4ab	0.2751821
164	0x3e132e9d	0.1437325
165	0xbccbfb54	-0.024900116
166	0x3d40e57e	0.04709386
167	0xbe66d988	-0.22543919
168	0x3d98b747	0.074568324
169	0x3e8f42f8	0.2798078
170	0x3e8ba64a	0.27275306
171	0x3b844baa	0.00403734
172	0x3e06c74d	0.13161965
173	0xbc1de79f	-0.009637742
174	0xbd10d8d2	-0.035363026
175	0x3d2d5ff9	0.042327855
176	0xbe2de357	-0.16981255
177	0x3da14d8a	0.078761175
178	0x3e288d34	0.16460115
179	0xbd33522c	-0.043779537
180	0xbd98c950	-0.07460272
181	0xbe299e42	-0.16564277
182	0x3d848ffd	0.06472776
183	0x3de08715	0.10963265
184	0x3e895b86	0.2682764
185	0xbe6f529f	-0.23371361
186	0xbe50f3c5	-0.2040549
187	0x3ced52f3	0.028970217
188	0x3e8880d2	0.26660782
189	0x3cbd640d	0.023118997
190	0x3de7f41e	0.113258585
191	0x3d359d67	0.044339564
192	0xbbb5505c	-0.005533261
193	0x3e52055b	0.20509855
194	0x3e3facc2	0.18718246
195	0xbddcd574	-0.107829005

feat_extraction.stage2.rbr_dense.conv.weight f4 [12, 14, 3, 3]
0	0xbd902360	-0.07037997
1	0xbdac0751	-0.08399833
2	0xbd11321c	-0.03544818
3	0xbca83ef2	-0.020537827
4	0x3d76e988	0.060281307
5	0xbdc7911d	-0.09744475
6	0x3d3a3bb5	0.045467097
7	0xbd7cfcaf	-0.061764415
8	0xba0efa4f	-0.0005454169
9	0x3bf0851e	0.0073400876
10	0x3d90902e	0.0705875
11	0xbd532de8	-0.05155745
12	0xbd0f294e	-0.0349515
13	0x3d0ff46b	0.035145205
14	0x3da38de4	0.07986048
15	0xbcad9b85	-0.021192322
16	0x3d56e8bd	0.05246805
17	0x3ba086bb	0.0048988736
18	0xbdb9820a	-0.09058006
19	0x3c01de25	0.007926499
20	0xbcd4bacc	-0.025967978
21	0x3d470554	0.048589066
22	0x3d783181	0.060594086
23	0x3d66df5c	0.056365356
24	0x3d4c790d	0.04992013
25	0xbd8bf036	-0.06832926
26	0xbdb07468	-0.08615953
27	0xbd09f93d	-0.033684958
28	0x3d7f0753	0.062262844
29	0xbcc182db	-0.023621967
30	0x3bc6a6ab	0.006062349
31	0xbc27198d	-0.010198963
32	0xbcdb9de1	-0.026808681
33	0x3c7d4406	0.015458113
34	0x3da6db59	0.08147306
35	0x3c2b41a9	0.010452666
36	0xbd15f3d2	-0.03660948
37	0x3b80e508	0.0039335527
38	0xbd941207	-0.07230001
39	0x3d45a48f	0.04825264
40	0x3d55436d	0.052066255
41	0xbcafcc92	-0.021459851
42	0xbda8cdbe	-0.08242367
43	0x3d6a225e	0.05716168
44	0xbda5898d	-0.08082876
45	0xbd5a5b20	-0.05330956
46	0x3d3d730c	0.046252295
47	0xbd6f6a08	-0.05845073
48	0x3c614528	0.013749398
49	0x3d8ecc50	0.06972563
50	0xbcb0e9a6	-0.021595787
51	0xbcf81356	-0.030282658
52	0x3d981f5a	0.07427855
53	0x3b60806e	0.0034256238
54	0x3cee7cba	0.029112209
55	0xbce29f5d	-0.027663881
56	0xbda0bc52	-0.07848419
57	0x3c92e577	0.017931683
58	0xbd335861	-0.043785457
59	0xbd2b150a	-0.04176811
60	0xbd9a8c55	-0.075462975
61	0x3da081be	0.07837246
62	0xbd77335f	-0.060351726
63	0x3cf2cb26	0.029637884
64	0x3cdea42b	0.02717789
65	0x3d864cfc	0.06557652
66	0x3d55699f	0.05210268
67	0xbd5cef94	-0.053939417
68	0x3d2f897a	0.042855717
69	0xbd401d41	-0.0469029
70	0x3bc37d73	0.0059658824
71	0xbd03d0e4	-0.032181635
72	0xbd6e16e5	-0.058127303
73	0xbcba3492	-0.022730146
74	0xbddd6b33	-0.10811462
75	0x3d8a8540	0.06763697
76	0xbbb8b2d9	-0.0056365547
77	0x3cc6dad2	0.024274264
78	0xbd8d00a7	-0.0688489
79	0xbdf4203c	-0.11920211
80	0xbd16463e	-0.036688082
81	0xbd1ab1b0	-0.037767112
82	0x3d0838b6	0.03325721
83	0x3d32206b	0.043487947
84	0x3dc50759	0.09620542
85	0x3d0afbde	0.033931606
86	0x3b7cbb67	0.003856385
87	0xbccd3e0a	-0.025053997
88	0x3ba3288c	0.004979199
89	0x3d83aa9f	0.06429028
90	0xbdd5d957	-0.10441845
91	0xbdcbf265	-0.099583425
92	0x3c98fbe4	0.018674798
93	0xbce02900	-0.0273633
94	0xbcac53b4	-0.021036007
95	0xbd5bd8f5	-0.053673703
96	0xbd7598e6	-0.05996027
97	0xbd85cb12	-0.06532873
98	0xbd63eb14	-0.05564411
99	0xbdb0c463	-0.08631208
100	0xbd1735fc	-0.036916718
101	0x3d0fa2dc	0.035067424
102	0xbd6842ad	-0.056704212
103	0x3dac51e7	0.08414059
104	0xbdaad392	-0.08341135
105	0xbc17f5c8	-0.009274907
106	0xbc78d3c6	-0.0151872095
107	0xbdf36d26	-0.11886053
108	0x3c985d39	0.01859914
109	0x3dc3062a	0.0952266
110	0xbcb6b143	-0.022301322
111	0x3dd09402	0.1018448
112	0x3c7edca9	0.015555539
113	0xbbc75a98	-0.0060837977
114	0x3d7b06ef	0.06128591
115	0x3dbc6fc7	0.09201007
116	0x3dc6f976	0.0971555
117	0x3d66127e	0.05616998
118	0xbdb48d38	-0.08815998
119	0xbd0fd5db	-0.035116058
120	0x3c8cb80b	0.017177602
121	0xbd3880d4	-0.045044735
122	0x3d070fb7	0.03297397
123	0xbd3029a8	-0.043008476
124	0xbdde1b30	-0.10845029
125	0xbd8aa080	-0.06768894
126	0xbd8e4464	-0.06946638
127	0x3c5a3350	0.013317898
128	0xbe03c0bc	-0.12866491
129	0xbd18e114	-0.037324026
130	0x3c56a7e7	0.0131015545
131	0x3b3b4a9f	0.0028578413
132	0xbda3cc26	-0.079979226
133	0x3d78cbf6	0.060741387
134	0xbda497e5	-0.08036784
135	0xbd981926	-0.07426672
136	0x3d4f4f7c	0.05061291
137	0xbd842077	-0.06451505
138	0x3dd06875	0.101761736
139	0x3db38ab6	0.087666914
140	0xbb6b6dde	-0.003592364
141	0xbc60c1d2	-0.013718085
142	0xbd3532fa	-0.04423807
143	0xbbab2c0d	-0.005223757
144	0xbb754e01	-0.0037430527
145	0xbd07ddc2	-0.03317047
146	0xbe2db289	-0.16962637
147	0xbd8ec554	-0.06971231
148	0xbcef2183	-0.029190784
149	0xbd7651f2	-0.060136743
150	0xbc37f605	-0.011228089
151	0xbd380aec	-0.04493229
152	0xbd879cfa	-0.06621738
153	0xbdb5aa2d	-0.08870349
154	0x3e0567ce	0.1302788
155	0xbcce6289	-0.02519347
156	0xbe041ef4	-0.12902433
157	0xbc99163f	-0.018687366
158	0xbd422542	-0.047398813
159	0xbd780768	-0.06055394
160	0x3da0a20e	0.078434095
161	0xbd950e58	-0.072781265
162	0x3ccd14ec	0.02503439
163	0xbd895833	-0.06706276
164	0x3cfc5007	0.030799879
165	0xbd5acaa6	-0.053415917
166	0xbc8e54ff	-0.017374514
167	0x3d12469d	0.035711873
168	0x3c8bccef	0.017065493
169	0xbdea351b	-0.1143591
170	0x3c7563cc	0.014977407
171	0xbce0c363	-0.027436918
172	0xbd9e8f12	-0.07742132
173	0xbd41b40d	-0.04729085
174	0x3cf898bc	0.030346267
175	0x3d014b89	0.031566177
176	0xbdd608ba	-0.10450883
177	0xbd9bc785	-0.07606415
178	0xbd2d715a	-0.04234443
179	0xbd13379e	-0.035941713
180	0x3dab280a	0.08357246
181	0xbd528184	-0.051393047
182	0xbda815ac	-0.082072586
183	0xbcbc1b79	-0.022962319
184	0xbd135fb0	-0.035979927
185	0xbdf601bc	-0.120120496
186	0xbda2dc75	-0.07952205
187	0xbd9a3c92	-0.07531084
188	0xbd0e804b	-0.03479032
189	0x3c1fc88b	0.009752403
190	0x3d230df6	0.039808236
191	0xbc584265	-0.013199423
192	0xbd990272	-0.074711695
193	0xbbb46f15	-0.005506406
194	0xbceeb682	-0.02913976
195	0xbde06a02	-0.109577194
196	0xbda0386d	-0.07823262
197	0xbc5f15ba	-0.01361602
198	0xbd5fdd7a	-0.054654576
199	0x3cfa4e5b	0.03055494
200	0xbc999ec6	-0.018752467
201	0xba8f0362	-0.0010911042
202	0x3cc31c8a	0.02381732
203	0xbd4be841	-0.04978204
204	0x3ddd5cc5	0.1080871
205	0xbde2c6dc	-0.11073086
206	0x3c6cd307	0.01445461
207	0x3d234f00	0.039870262
208	0x3dd56a61	0.10420681
209	0x3cf695d9	0.03010075
210	0xbd3867f6	-0.04502102
211	0x3cf42e01	0.029807093
212	0x3d9679c1	0.073474415
213	0x3d1851c9	0.03718737
214	0xbd14421d	-0.036195863
215	0x3cb4eb18	0.022084758
216	0x3bf5f3a2	0.00750585
217	0x3cb0930e	0.021554496
218	0xbc341317	-0.0109908795
219	0x3d530d4a	0.051526345
220	0x3d954404	0.072883636
221	0x3b94da49	0.004542623
222	0x3d6bc976	0.057565175
223	0x3d0d7810	0.03453833
224	0x3c835c8f	0.016035346
225	0x3c37f421	0.011227638
226	0x3c2b409a	0.010452414
227	0x3bd089c4	0.006364079
228	0x3d32949d	0.04359876
229	0xbbfbfe92	-0.0076902593
230	0x3b7c3594	0.0038484083
231	0x3d57717d	0.052598465
232	0xbd310de8	-0.043226153
233	0xbc4a8919	-0.012361788
234	0xbd1ae18d	-0.03781276
235	0x3c112a32	0.008860158
236	0x3d778080	0.06042528
237	0xbc7a2b37	-0.015269092
238	0x3b892f5b	0.0041865534
239	0x3bee36e4	0.007269727
240	0x3c373e49	0.0111842835
241	0xbb4daa3e	-0.003138199
242	0x3d83a075	0.06427089
243	0x3c9a8fad	0.018867338
244	0xbcde0dd5	-0.027106205
245	0x3d3588f3	0.044320058
246	0x3d1095f4	0.035299256
247	0xbd5fe6bd	-0.05466341
248	0x3d028490	0.031864703
249	0xbd460d9e	-0.04835283
250	0x3d700edd	0.058607925
251	0x3d2d5d58	0.042325348
252	0x3bd006b2	0.0063484544
253	0x3cbf006e	0.023315635
254	0xbd254e25	-0.040357728
255	0xbd97909a	-0.074006274

feat_extraction.stage2.rbr_1x1.conv.weight f4 [12, 14, 1, 1]
0	0xbdf96ca4	-0.12178925
1	0xbdcaeaeb	-0.09908088
2	0xbe62d7b8	-0.22152603
3	0x3dd189f9	0.10231394
4	0xbd2d3b9d	-0.04229318
5	0x3cbdc805	0.023166666
6	0x3e8a019d	0.26954356
7	0x3d504096	0.050842844
8	0x3e2abee7	0.16674386
9	0x3d8559b9	0.06511254
10	0xbcbd48b3	-0.023105955
11	0x3e379207	0.17926799
12	0x3dda50ca	0.106599405
13	0xbd11e9d1	-0.035623375
14	0x3c5380aa	0.012909094
15	0xbda55695	-0.08073155
16	0x3bd2f1e7	0.0064375284
17	0x3e2f673f	0.17129229
18	0x3e69425b	0.22779219
19	0x3e56086f	0.20901655
20	0xbe2a56bc	-0.16634649
21	0xbcf46aeb	-0.029836139
22	0x3d68178e	0.05666309
23	0x3e4ca06c	0.19983071
24	0xbd8f3181	-0.06991864
25	0xbe0ea895	-0.13931496
26	0x3df0e881	0.117630966
27	0xbe2a46b6	-0.16628537
28	0x3e87235d	0.26394168
29	0xbe0a5d7c	-0.13512224
30	0x3dfdeaf3	0.12398329
31	0xbd838818	-0.06422442
32	0xbe63e89f	-0.22256707
33	0xbe7ef8a5	-0.24899538
34	0x3e0197bb	0.12655537
35	0xbdb466ad	-0.08808646
36	0xbdffe357	-0.124945335
37	0x3e974e59	0.29551962
38	0x3e3e0afe	0.1855888
39	0x3e8e5642	0.27800184
40	0xbdb667d0	-0.089065194
41	0x3c96bad5	0.018399635
42	0x3d230330	0.03979796
43	0xbc45334c	-0.012036156
44	0x3dee080d	0.11622629
45	0x3cf2a9f5	0.029622057
46	0xbdb047a6	-0.08607416
47	0xbd2c3ea3	-0.042051923
48	0xbe0694ed	-0.13142748
49	0xbe4379ce	-0.19089434
50	0x3d80cd8b	0.06289204
51	0xbd8e1fd7	-0.06939667
52	0xbdfedab1	-0.12444056
53	0xbe105e9c	-0.1409859
54	0x3e211438	0.15730369
55	0xbda577f0	-0.08079517
56	0x3e4bd99a	0.19907227
57	0x3dbebfe8	0.09313947
58	0xbdb73bfd	-0.08946989
59	0x3e67f1a0	0.22650766
60	0xbdba80c4	-0.09106591
61	0xbe7dd809	-0.24789442
62	0x3e3b8db9	0.18315782
63	0xbe1b0631	-0.1513908
64	0x3e60e40f	0.21961997
65	0x3e61945c	0.22029251
66	0xbd9e252a	-0.07721932
67	0xbda8edae	-0.08248459
68	0x3ddb5a6f	0.10710608
69	0x3de7c216	0.11316316
70	0x3e5f2bad	0.21794005
71	0x3d78f5d3	0.06078131
72	0x3d1357f8	0.035972565
73	0x3e76faa4	0.2411905
74	0x3d5d0db2	0.05396814
75	0xbe5dd68b	-0.21663873
76	0xbd4f6b43	-0.050639402
77	0xbc0e0cc4	-0.008670036
78	0x3c37f212	0.011227148
79	0xbe828576	-0.25492448
80	0xbe888533	-0.26664123
81	0xbe37b6f3	-0.17940883
82	0x3d373e73	0.04473729
83	0x3e2143ac	0.15748471
84	0xbe60bc32	-0.21946791
85	0x3e02b6fb	0.12765114
86	0x3ce0d202	0.02744389
87	0x3e47cb0c	0.1951105
88	0xbe149c1e	-0.14512679
89	0xbdac3e3d	-0.084103085
90	0x3dd77cf6	0.10521881
91	0xbe78cd7a	-0.24297133
92	0x3de7e94c	0.11323795
93	0xbdad6091	-0.08465684
94	0x3d8bc70a	0.06825073
95	0xbe0c40d7	-0.1369661
96	0x3e78450b	0.24245088
97	0x3d8f099b	0.06984254
98	0x3cf9618b	0.03044202
99	0xbe0025e4	-0.12514454
100	0xbe3a1898	-0.18173444
101	0xbd43e3c2	-0.04782463
102	0xbe2eaf70	-0.17059112
103	0x3d15ab8d	0.036540557
104	0x3e850b0a	0.25984985
105	0x3dfd8472	0.123787776
106	0xbd5d048b	-0.05395941
107	0xbd80d28b	-0.06290158
108	0x3e040369	0.12891926
109	0xbcb05cb6	-0.021528583
110	0xbe35ca8b	-0.17753045
111	0xbc2f5ff8	-0.010704033
112	0x3e1be7d2	0.15225151
113	0xbe1ea588	-0.15492833
114	0xbd380ecb	-0.044935983
115	0xbdf8448a	-0.12122448
116	0x3e247e5f	0.16063832
117	0xbe0ae44d	-0.13563652
118	0xbd31d15c	-0.04341255
119	0x3df3e401	0.11908723
120	0xbda5fe18	-0.08105105
121	0x3e825fb2	0.25463635
122	0xbe186f74	-0.14886266
123	0xbdba054e	-0.09083043
124	0x3c415eba	0.01180237
125	0xbe07ce86	-0.13262376
126	0xbe846f9d	-0.25866404
127	0xbe2d4cb7	-0.16923796
128	0xbe776fbb	-0.24163716
129	0x3e83b40f	0.2572331
130	0x3cb2535e	0.021768268
131	0xbe04b779	-0.12960614
132	0x3df17e8f	0.11791717
133	0x3ca0ac7d	0.019613499
134	0xbdf74d89	-0.120753355
135	0x3e54eac3	0.2079268
136	0xbe1a707f	-0.15081976
137	0xbda43612	-0.080181256
138	0x3e65c4da	0.22438374
139	0x3e240759	0.16018428
140	0x3df4896c	0.11940274
141	0x3ddedbbd	0.108817555
142	0xbdd897a8	-0.10575801
143	0xbe6489bd	-0.22318168
144	0x3bb7f85f	0.005614325
145	0x3e12d457	0.14338814
146	0x3e40f625	0.18843897
147	0xbd15296c	-0.036416456
148	0xbdf205e1	-0.118175276
149	0x3ca504be	0.020143863
150	0x3e61e6ac	0.2206065
151	0x3d45c912	0.04828746
152	0x3e8719b2	0.2638679
153	0xbdc7a33a	-0.0974793
154	0x3d8300f5	0.06396667
155	0xbe1cb203	-0.15302281
156	0x3cb17f23	0.021667069
157	0x3e55aec0	0.20867443
158	0xbe5a471c	-0.21316189
159	0x3e6a5f47	0.22887908
160	0x3e61077c	0.21975511
161	0x3e5e8bdb	0.21733038
162	0xbdaf0fa2	-0.085479036
163	0x3e567069	0.20941319
164	0x3d8251c1	0.063632496
165	0xbde08c8c	-0.10964307
166	0x3e918dc9	0.28428486
167	0xbe753d17	-0.23949085

importance_map.upscale.weight f4 [12, 6, 3, 3]
0	0x3dcbaa7b	0.09944626
1	0x3d300310	0.04297167
2	0x3d9834c9	0.07431943
3	0x3d773088	0.060349017
4	0xbd9cb2e5	-0.07651309
5	0x3d99e88b	0.07515057
6	0xbddab167	-0.10678368
7	0xbd15d9ad	-0.036584545
8	0xbd0ddf90	-0.034637034
9	0xbd9ff970	-0.07811248
10	0x39419e51	0.00018464892
11	0x3dd1cba1	0.10243917
12	0x3daae69b	0.08344766
13	0xbd23436c	-0.03985922
14	0x3dd201a3	0.102542184
15	0x3d31ee67	0.04344025
16	0x3d4cfc0c	0.050045058
17	0x3d12f67f	0.03587961
18	0xbcec4361	-0.028840723
19	0xbdca875e	-0.098891005
20	0x3d931093	0.07180896
21	0x3e30a157	0.17249046
22	0xbd9d8e13	-0.07693114
23	0x3e3226a2	0.1739755
24	0x3df7ed68	0.121058285
25	0x3df8fd9f	0.121577494
26	0x3e090469	0.13380589
27	0x3dda576e	0.10661207
28	0x3d12c979	0.03583667
29	0xbd5deee0	-0.054182887
30	0xbd6b4ce7	-0.057446387
31	0xbd910e1c	-0.07082769
32	0x3d03c383	0.032168876
33	0x3d14f157	0.036362972
34	0x3d47b1aa	0.048753418
35	0xbd7fd967	-0.06246319
36	0x3dd3505e	0.10318063
37	0xbd10b537	-0.03532907
38	0xbdd6fe68	-0.10497743
39	0x3e47cf71	0.19512726
40	0x3dd16a23	0.10225322
41	0x3e2ff926	0.17184886
42	0x3cd6f031	0.026237579
43	0x3e375666	0.17904052
44	0x3c9811ed	0.018563235
45	0xbd994416	-0.074836895
46	0x3dd7f086	0.10543923
47	0x3c232e72	0.009959804
48	0xbd2d929f	-0.042376157
49	0x3d3e049f	0.046391126
50	0x3d938f9a	0.07205124
51	0x3db85145	0.08999876
52	0xbd5c4ec1	-0.053786043
53	0xbdbfe10b	-0.093690954
54	0x3dfae6a6	0.12251024
55	0x3e09ebcd	0.13468857
56	0x3d1ece46	0.038770936
57	0xbc1d4b50	-0.009600475
58	0x3e0a1770	0.13485503
59	0x3e1e3c5d	0.15452714
60	0xbd8a3aa2	-0.067494646
61	0x3d8cab64	0.06868628
62	0x3e0dcd98	0.13847959
63	0x3d64c74b	0.055854123
64	0x3e3a4b7f	0.18192862
65	0xbdb46268	-0.08807832
66	0x3e03343c	0.12812895
67	0x3bdaf206	0.0066816835
68	0xbcb859b0	-0.022503704
69	0x3d0062b1	0.03134412
70	0x3c9c198e	0.019055154
71	0x3e25509f	0.16144036
72	0xbe0006b8	-0.12502563
73	0x3c04ce2b	0.008105795
74	0xbdb71fea	-0.08941634
75	0x3d73b9a3	0.05950321
76	0x3e0801a2	0.13281873
77	0x3d887972	0.06663789
78	0x3b1913a4	0.0023357654
79	0xbe0c6562	-0.1371055
80	0xbc676971	-0.01412426
81	0xbc54892f	-0.01297216
82	0x3dd4e445	0.103951015
83	0x3dbb8955	0.091570534
84	0xbdb5a861	-0.08870006
85	0xbb6af85d	-0.0035853602
86	0xbcb51a70	-0.022107333
87	0xbd866481	-0.06562138
88	0x3bd9b091	0.006643363
89	0x3ce11897	0.027477546
90	0x3d540389	0.051761184
91	0x3d30df31	0.043181602
92	0xbdf2a8be	-0.11848591
93	0xbd0860a6	-0.033295296
94	0xbbe8bca4	-0.007102566
95	0xbd43e242	-0.0478232
96	0xba7eeefe	-0.00097249437
97	0xbd2beefc	-0.04197596
98	0xbdfe29a1	-0.12410284
99	0x3db179e5	0.08665828
100	0xbd2556dd	-0.040366042
101	0xbda27825	-0.07933072
102	0xbcf16eea	-0.029471833
103	0x3df4e26a	0.119572476
104	0xbbbc6e54	-0.005750457
105	0xbc05ecbe	-0.0081741195
106	0xbd69c1f1	-0.057069723
107	0xbdfff820	-0.12498498
108	0x3df3f28b	0.11911496
109	0xbdd8365c	-0.10557243
110	0xbd0f8fcd	-0.03504925
111	0x3db93124	0.09042576
112	0x3e0b2b4d	0.13590737
113	0x3dda962e	0.10673176
114	0xbd370bdd	-0.044689048
115	0x3d7f35a5	0.06230702
116	0x3d874195	0.06604306
117	0xbdc8720d	-0.097873785
118	0xbdaec329	-0.085333176
119	0x3c32961f	0.0109000495
120	0x3dfe8132	0.12426986
121	0xbd08d447	-0.03340557
122	0x3d4cbf21	0.049986962
123	0x3dc871c8	0.09787327
124	0x3db69a1f	0.08916115
125	0x3d6f40c2	0.058411367
126	0xbd1b8009	-0.0379639
127	0x3db8c72b	0.09022363
128	0xbdffdaff	-0.12492942
129	0x3cd294bd	0.02570569
130	0x3d2b7350	0.041858017
131	0xbc4579c5	-0.012052958
132	0x3e038924	0.12845284
133	0xbdee0dc9	-0.11623723
134	0xbda6d534	-0.08146134
135	0x3e0c7f3d	0.13720413
136	0xbcd477e0	-0.025936067
137	0x3d4e1b43	0.050318968
138	0x3d36741c	0.044544324
139	0x3e0b6201	0.13611604
140	0x3d1a91a9	0.03773657
141	0xbc18fc30	-0.00933747
142	0xbd14795c	-0.03624855
143	0xbc019dfd	-0.0079112025
144	0xbdcb7dd0	-0.09936106
145	0x3d305b68	0.04305592
146	0xbc344f88	-0.01100529
147	0xbda59231	-0.080845244
148	0xbcc74242	-0.024323586
149	0xbc94ff64	-0.018188186
150	0x3d28e734	0.041236117
151	0xbdcb1826	-0.09916715
152	0x3e062838	0.1310128
153	0xbe044fe6	-0.12921104
154	0x3e0eba86	0.1393834
155	0xba2f7be7	-0.0006694183
156	0x3d712211	0.05887038
157	0x3d93f043	0.07223561
158	0xbddb5de1	-0.10711265
159	0xbdff7aa5	-0.124745645
160	0x3d013be0	0.031551242
161	0xbcf056c6	-0.029338252
162	0xbdaa430b	-0.08313569
163	0xbdf39fda	-0.11895724
164	0xbdbc4aec	-0.09193978
165	0x3d26a6cb	0.04068641
166	0xbe313e40	-0.17308903
167	0xbda0aefa	-0.07845874
168	0x3d23b8d3	0.039971184
169	0xbc36f726	-0.011167323
170	0xbd8a1364	-0.0674198
171	0xbe0f3cf2	-0.13988093
172	0x3d9b5ac4	0.075856715
173	0x3e048e11	0.12944819
174	0xbd91bb61	-0.07115818
175	0x3dcf9204	0.10135272
176	0xbd98c17c	-0.07458779
177	0x3da415a6	0.080119416
178	0x3d7ad05a	0.061233856
179	0xbde297b1	-0.11064089
180	0x3d5d837a	0.054080464
181	0xbe11207c	-0.14172548
182	0x3bcd0322	0.006256477
183	0x3c9bf6af	0.019038526
184	0xbe3fd0f8	-0.18732059
185	0x3d9dcb5d	0.07704804
186	0x3dfd9d11	0.12383474
187	0xbddb4903	-0.10707285
188	0x3ddc36d6	0.107526466
189	0xbe19648e	-0.14979765
190	0x3bcbbd86	0.0062176613
191	0xbda5adf5	-0.0808982
192	0xbd9112e8	-0.07083684
193	0xbd9d690b	-0.07686051
194	0xbe129865	-0.14315946
195	0xbda3f36f	-0.08005416
196	0xbe0195e9	-0.12654842
197	0xbdadd574	-0.084879786
198	0xbd1311a3	-0.03590549
199	0x3e0191b3	0.12653236
200	0xbcc2bdd0	-0.02377215
201	0x3ce0cf44	0.027442582
202	0xbd6b2dca	-0.057416715
203	0xbd8b2273	-0.0679368
204	0x3da60e41	0.081081875
205	0xbdc58bec	-0.096458286
206	0x3ddde329	0.10834343
207	0xbde05a9e	-0.10954784
208	0x3dbaa72e	0.09113918
209	0x3d5ec171	0.0543837
210	0x3d04c763	0.032416712
211	0x3e0e0874	0.13870412
212	0xbdc15f31	-0.094419844
213	0xbe41cc79	-0.18925656
214	0xbc9b9082	-0.018989805
215	0xbe338846	-0.17532453
216	0x3d1b5135	0.037919242
217	0xbde809ba	-0.1132998
218	0xbc48ee75	-0.012263884
219	0x3e15673d	0.14590164
220	0x3d0ad7d3	0.033897232
221	0x3c1bee7b	0.009517307
222	0x3e1872de	0.14887568
223	0xbd634394	-0.05548437
224	0xbde7f4fe	-0.113260254
225	0x3dabac49	0.0838247
226	0x3def9fba	0.11700387
227	0xbc197345	-0.009365861
228	0xbd9b11fc	-0.075717896
229	0x3d829975	0.06376926
230	0x3d30c043	0.043152105
231	0xbd8cbdd1	-0.06872142
232	0xbd08fb56	-0.033442818
233	0x3bdc1d53	0.006717363
234	0x3ddbf792	0.1074058
235	0xba846305	-0.0010100311
236	0x3e10cd65	0.14140852
237	0x3e2af50e	0.16695043
238	0x3d36e20e	0.044649176
239	0xbd87ea62	-0.06636502
240	0xbd1c0e28	-0.038099438
241	0xbcf4ba3a	-0.029873956
242	0x3cb53969	0.022122102
243	0xbd8bd07f	-0.06826877
244	0xbe08e305	-0.13367851
245	0xbcec8f8c	-0.028877042
246	0xbda61e34	-0.081112295
247	0x3d86df4d	0.0658556
248	0xbd87b8c3	-0.066270374
249	0xbc706302	-0.014672043
250	0x3d61837a	0.055057026
251	0x3d59a553	0.05313618
252	0x3c98e773	0.018665051
253	0x3db4aba0	0.08821797
254	0xbdc56cf9	-0.096399255
255	0x3d8c2066	0.06842117

importance_map.upscale.bias f4 [6]
0	0x3da4fb1d	0.080557086
1	0x3d8b5986	0.068041846
2	0xbdc4d93f	-0.09611749
3	0xbcb8726d	-0.0225155
4	0xbda4a35c	-0.08038971
5	0x3d99e332	0.07514037

importance_map.genmap.weight f4 [18, 6, 3, 3]
0	0x3d780871	0.060554925
1	0x3cab9643	0.020945674
2	0x3dd0c1c5	0.101932086
3	0x3c603cdc	0.013686385
4	0x3dc9c166	0.09851341
5	0x3965167c	0.00021847518
6	0x3de8d6be	0.11369084
7	0x3d87c050	0.066284776
8	0x3e1df173	0.15424137
9	0xbc556746	-0.013025111
10	0x3cd6faec	0.026242696
11	0xbe023edf	-0.12719296
12	0x3e029fdf	0.12756298
13	0x3cb9e867	0.022693826
14	0x3d743159	0.059617374
15	0xbdea2957	-0.11433666
16	0xbc4ef3bc	-0.012631353
17	0x3df9426b	0.12170871
18	0xbd17081a	-0.03687296
19	0x3c3ecb16	0.011645099
20	0x3de29378	0.11063284
21	0x3d8bda0a	0.06828697
22	0x3da4b944	0.08043149
23	0xbd9c7585	-0.076396026
24	0xbd8c43f3	-0.06848898
25	0x3c43d9b9	0.011953765
26	0x3c21574e	0.009847475
27	0xbd9b32da	-0.075780585
28	0xbe0c9100	-0.13727188
29	0x3e03b0da	0.12860432
30	0xbd4e6072	-0.050384946
31	0x3de5dab2	0.112233534
32	0xbd99eb8e	-0.075156316
33	0x3daba0aa	0.083802536
34	0xbd7feb63	-0.06248034
35	0x3de461df	0.1115148
36	0x3dff39f3	0.12462225
37	0x3dd0d2b5	0.10196439
38	0xbd9dc51e	-0.07703613
39	0xbd777d8f	-0.060422476
40	0xbdd18a59	-0.10231466
41	0xbd5342fa	-0.051577546
42	0x3d10db60	0.035365462
43	0x3da65d7e	0.08123301
44	0xbd9443f5	-0.07239524
45	0x3dbfb5c2	0.093608394
46	0xb99f9c11	-0.00030443122
47	0x3c0330f8	0.0080072805
48	0xbd99d175	-0.07510654
49	0x3d1ff325	0.03905024
50	0x3cf1c2d2	0.029511843
51	0x3dc613e5	0.09671763
52	0x3df2fd6d	0.118647434
53	0x3deedaaa	0.116628006
54	0x3db602c8	0.08887249
55	0x3c16376b	0.009168486
56	0x3dba8edd	0.0910928
57	0x3e015d23	0.12633185
58	0x3df69961	0.120409735
59	0x3de0446f	0.10950553
60	0xbd0fd924	-0.03511919
61	0x3c8fe888	0.017566934
62	0xbd3d5821	-0.046226624
63	0x3db6fcec	0.0893496
64	0xbc98d2db	-0.018655231
65	0xbdeb9ad4	-0.115041405
66	0xbd518144	-0.051148668
67	0xbdcc6fac	-0.09982237
68	0x3d118ab6	0.035532676
69	0x3df50df0	0.11965549
70	0x3be01a9d	0.00683911
71	0xbd126b99	-0.035747144
72	0xbdaa62aa	-0.083196
73	0xbe031d85	-0.1280423
74	0x3cb28d2a	0.021795828
75	0x3d0705d7	0.032964554
76	0xbdec6149	-0.11541993
77	0x3d45265d	0.04813229
78	0x3b81c0f8	0.0039597712
79	0xbe12cf71	-0.14336945
80	0x3d29d5fe	0.041463844
81	0x3c5f5d9f	0.013633161
82	0xbd6dddee	-0.058072977
83	0x3db470be	0.08810566
84	0xbd97fe25	-0.07421521
85	0x3c942c34	0.018087484
86	0x3e020280	0.12696266
87	0x3dc12601	0.09431077
88	0x3dc0ca26	0.09413557
89	0xbd68aeb8	-0.05680725
90	0xbdbc3898	-0.09190482
91	0x3d03af0d	0.032149363
92	0xbc77b171	-0.015117989
93	0x3db99f47	0.09063583
94	0x3de671f6	0.11252205
95	0x3dc6a9b2	0.097003356
96	0x3ce3a908	0.027790561
97	0xbdcf2095	-0.101136364
98	0xbbfbc10f	-0.0076829265
99	0x3d440efb	0.04786585
100	0xbcbb1563	-0.022837346
101	0x3ba9d2c6	0.005182597
102	0x3c614240	0.013748705
103	0xbdb60d88	-0.088893
104	0x3c1171c0	0.008877218
105	0xbdb317dc	-0.08744785
106	0x3e0040ae	0.12524673
107	0xbd38ef33	-0.045149993
108	0x3d36db8b	0.044642966
109	0xbd22b875	-0.039726693
110	0xbdb527d0	-0.08845484
111	0x3cee8a91	0.029118808
112	0xbdf96744	-0.121778995
113	0x3d9fa29e	0.07794689
114	0x3bca9c2f	0.0061831693
115	0x3c1872ef	0.009304746
116	0x3da6af0e	0.08138858
117	0x3dae409c	0.08508417
118	0x3dda4716	0.1065809
119	0x3dac85b1	0.08423937
120	0xbcea7b2b	-0.028623184
121	0xbc065307	-0.008198506
122	0xbdffe070	-0.1249398
123	0x3cd40832	0.025882814
124	0xba76c682	-0.0009413735
125	0x3dbfac71	0.093590625
126	0x3e0b91c6	0.13629827
127	0xbd835135	-0.064119734
128	0xbd0528bc	-0.03250955
129	0x3e187288	0.1488744
130	0x3d0ceba6	0.03440442
131	0xbc574205	-0.013138299
132	0xbd499707	-0.049216297
133	0xbe3307c7	-0.17483436
134	0x3dd06dd3	0.10177197
135	0x3d7fce1b	0.062452417
136	0x3d255079	0.040359948
137	0x3da81d75	0.082087435
138	0xbd861982	-0.06547834
139	0x3e0ce70a	0.1376001
140	0x3da2da8f	0.07951843
141	0x3d691af7	0.05691048
142	0xbca8ecfe	-0.02062082
143	0xbdda1d94	-0.10650173
144	0x3d5e4f8f	0.05427509
145	0x3d44e31c	0.04806815
146	0x3d3d87dd	0.046272147
147	0x3d9e2990	0.07722771
148	0xbd58d5df	-0.05293834
149	0x3e0dd175	0.13849433
150	0x3ce02cdf	0.027365146
151	0xbdcf872f	-0.10133206
152	0xbd236a40	-0.03989625
153	0xbcf395e7	-0.029734565
154	0x3dbf8400	0.09351349
155	0xbde8d19c	-0.11368105
156	0xbdd05eb5	-0.10174314
157	0xbb1e6428	-0.0024168584
158	0xbe246e80	-0.16057777
159	0xbde551ed	-0.11197267
160	0xbdaf7632	-0.08567466
161	0x3d854b5f	0.065085165
162	0xbdabe642	-0.083935276
163	0xbcd6461a	-0.026156474
164	0x3dd68166	0.104738995
165	0xbc920089	-0.01782252
166	0x3e067639	0.13131036
167	0xbd862cce	-0.065515146
168	0xbb458c46	-0.0030143424
169	0xbc05233c	-0.008126076
170	0xbdacb7dc	-0.08433506
171	0x3de8a43c	0.1135945
172	0x3c8f3763	0.017482465
173	0xbdd27913	-0.10276999
174	0x3d84af0a	0.064786986
175	0xbd4e07f0	-0.05030054
176	0xbd81fc4d	-0.06346951
177	0x3dbb8755	0.09156672
178	0x3d4ddc4d	0.050258923
179	0xbd3972f4	-0.045275643
180	0x3dbca2ac	0.09210715
181	0x3d80a36c	0.0628117
182	0xbbebf069	-0.00720029
183	0x3e1a1ebb	0.15050785
184	0x3dd8d8e1	0.10588241
185	0x3e0075c2	0.12544921
186	0x3c3eaf25	0.011638437
187	0x3dae2947	0.08503967
188	0x3d88c8c6	0.066789195
189	0x3e0bbbe0	0.13645887
190	0xbde51c44	-0.11187032
191	0x39da2272	0.00041605864
192	0x3d896515	0.06708733
193	0xbd82dc2b	-0.0638965
194	0xbdd8c7d2	-0.10584988
195	0x3df73af5	0.12071792
196	0x3d99dc7e	0.07512759
197	0x3e2000b1	0.15625264
198	0x3dc95a2a	0.098316506
199	0x3cc05b30	0.023480982
200	0xbd7cbe37	-0.06170484
201	0xbd2f0f79	-0.042739365
202	0x3da53a52	0.08067764
203	0x3c2de880	0.010614514
204	0x3e2a08e6	0.16604957
205	0x3e1a4f7f	0.15069388
206	0x3d3fed1b	0.04685698
207	0x3e20ea33	0.1571434
208	0x3d0db63b	0.034597617
209	0x3d6550f5	0.05598541
210	0x3e0909c1	0.13382627
211	0xbd3d5bd9	-0.04623017
212	0x3d2f2f6f	0.042769846
213	0x3c2f3b56	0.010695299
214	0x3e1ac17c	0.15112871
215	0x3da38df1	0.079860575
216	0xbe007366	-0.12544021
217	0xbe5f0cb0	-0.21782184
218	0xbd80ad71	-0.06283081
219	0xbd7f51aa	-0.06233374
220	0xbba4a0f7	-0.0050240713
221	0xbb99c60d	-0.004692799
222	0xbe519285	-0.20466049
223	0xbe5759d4	-0.2103036
224	0xbdedf429	-0.116188355
225	0xbe334137	-0.17505346
226	0xbd27f39e	-0.041003816
227	0x3cba4e4b	0.022742411
228	0x3d3ec8f6	0.04657837
229	0xbdb39a83	-0.08769705
230	0xbe425eb2	-0.18981436
231	0x3d04062c	0.03223245
232	0xbe1449c8	-0.1448127
233	0x3d0ba258	0.03409037
234	0x3c2e659f	0.010644346
235	0xbd1d274b	-0.03836755
236	0x3e0d2fb6	0.13787732
237	0x3ca1441a	0.019685794
238	0xbda0343c	-0.07822463
239	0x3d73634e	0.059420876
240	0xbd6d71ee	-0.05796998
241	0xbc0e925a	-0.008701885
242	0xbc865f66	-0.016402911
243	0xbe18f274	-0.14936239
244	0xbe3360d5	-0.17517407
245	0xbe0c8e9c	-0.13726276
246	0xbccf9b00	-0.025342464
247	0xbdcbd492	-0.09952654
248	0x3d585a97	0.05282077
249	0xbd96f1a4	-0.07370308
250	0xbcadef25	-0.021232197
251	0x3d45b358	0.04826674
252	0xbb789e08	-0.003793599
253	0xbe01a081	-0.12658884
254	0xbd60e27a	-0.054903485
255	0xbca4cfcf	-0.020118622

importance_map.genmap.bias f4 [18]
0	0x3cbf3b8d	0.023343826
1	0x3e0d8547	0.13820373
2	0x3d0dda9b	0.034632307
3	0xbcbe4b04	-0.02322913
4	0xbe31dd53	-0.17369585
5	0x3dec2de3	0.1153219
6	0x3e070210	0.1318438
7	0xbd270731	-0.040778343
8	0xbc569046	-0.013095921
9	0x3d3e7eec	0.04650776
10	0x3dc71770	0.09721267
11	0xbd1b0ca1	-0.03785384
12	0x3d5fde61	0.054655436
13	0xbd884007	-0.06652837
14	0x3d2b37a6	0.041801117
15	0xbdbc1d48	-0.091852725
16	0x3d59f40a	0.05321125
17	0x3dcb1f3a	0.09918065
