experiment/meta/model/model_8.pt (torch, 28984 bytes, 14 tensors)

feat_extraction.stage0.rbr_dense.conv.weight f4 [14, 3, 3, 3]
00000000: 8594 3a3e 2991 a3ba 9fcd 4f3d 16b7 313e
00000010: 2616 02be b235 293e 455e 143d ddb0 1b3e
00000020: 7718 3e3d cb69 2d3d f6f7 003e 1091 bd3d
00000030: 76b5 0d3e 97ab f4bc de72 ee3c 7eb1 2a3d
00000040: 1aca 883d 0858 5f3c 82a4 3b3e 8fd7 9b3d
00000050: 8198 20bd 7eec c1bd 7133 1bbd 2eb2 abbd
00000060: 9ed3 26bd daa3 503b fa50 c03d 4490 e23d
00000070: 00bd 54be 5426 b83d 8dd8 a03d a0f4 3a3e
00000080: 7b1a 023e 428e 70be fe76 73be 48ed 11be
00000090: 414f 273e 274c 54bd 6338 463d 9eaf 93bd
000000a0: 2371 463e 30f5 a8bd 1731 963d cb8c 65bd
000000b0: 4393 21be 08f7 223e a9e5 43bd 57ac bf3d
000000c0: 577e ba3c dd88 603d 70e8 f6bd 96ee cbbd
000000d0: 383b e83d c038 29bd a8d0 773e b5a9 4d3e
000000e0: 02bc b53c f408 9abd a074 2a3e 7685 d93d
000000f0: 8b81 a6bd 16ac 2d3e 4a23 1d3e 28af 4d3e
00000100: 900b 96bd 3ca7 0cbc e771 fa3c 2317 883d
00000110: 6c19 dbbd 9946 ecbd 7991 093e c5f7 adbc
00000120: bcef 043e 65f4 563d 2788 b63d f019 a83d
00000130: 98ab ee3d 16cf 0c3e ced0 20be faa3 023e
00000140: e11f efbd 55ab 13be a5d3 c63d e69e 12bc
00000150: e40a ba3d e4c4 87bd 799d 48be 0ef0 a63d
00000160: caf2 cfbc 134c 9e3d ea8c 1e3d a282 9bbd
00000170: e2ff 1f3d a7cd 9b3c 4f80 a1bd 3ef8 f0bd
00000180: d360 4b3c 4408 373d 5547 e5bd 13c0 6dbd
00000190: 519d 773e ec18 2ebc 9b90 e43d 197b 0f3e
000001a0: 250c f1bd 29bf 42be 085f 4b3e f801 6f3a
000001b0: b6af 253e f495 943d 6b34 a63d ccde 3a3e
000001c0: 56b2 653e 852e d6bd edd1 423d 3d2b 3a3e
000001d0: 51c7 233e 2095 233e 0e61 bebd aafc d3bd
000001e0: afad 89bd eacf a23d dcda 6c3e 219e b7bd
000001f0: 40f3 1a3e ab39 96bd df4b f9bd 8e54 8e3c
00000200: a1dc 183e 07f6 7c3e c973 55bd 26bb ad3d
00000210: b6a6 543e b75b 383e d31b 193e 917a 223e
00000220: 6207 173e b7f4 5e3d 0bbc e6bd d3d6 c5bd
00000230: 1a5e 91bd 7f4d db37 a980 68bd 38b7 d03d
00000240: 44b7 9b3d c4de f6bb 46b1 b03d 441c 923d
00000250: cf1e 493e 564e 223e 283a 70bd 6a1b 813e
00000260: c1f3 923b 597d b9bc ca83 32be 47ca 13be
00000270: fac6 09be 9a78 f6bc ced3 093e b1ca bebd
00000280: ab10 dfbd fa98 873d 570e 2e3d a540 ea3d
00000290: c447 05be 1a10 283d 3524 3abd 252f 81bd
000002a0: a58e 1ebe 79b4 84bd d10d 63bd 4586 673d
000002b0: 8647 203d 754c d03c c531 423e 651b 6e3e
000002c0: b3b5 ff3d ea1e 1cbc c0c8 e0bd f15d 153e
000002d0: 3c2a 2ebc 048b 303d 236b 25be 3375 e03c
000002e0: fe6e bebc cb88 4c3e 3fde 11be 530b c9bd
000002f0: 18f6 91bb 6dea 10be 4b68 2a3d 08ae ffbd
00000300: f181 fabd 2348 173c 7db5 da3d ce18 34be
00000310: c875 993d 9324 c13d 4bb1 223e 32f4 0fbe
00000320: 56e1 943c c97c 25be bbea 3f3e 85ee a6bd
00000330: 5342 ad3d 5270 1d3c 3e1e e0bc ff5b ec3c
00000340: b169 bf3d 631f f13d 45db a23d 1fe5 1a3e
00000350: d502 f9bd cce7 293e 4e00 6b3e 5d89 463e
00000360: aeac 253e 5440 efbd 31ba d0bc 17c1 623e
00000370: 4f17 0abe 985d 513e a638 e3bd 13f9 d0bd
00000380: d668 bb3d 56b5 c0bd 1c70 9fbc 0654 403e
00000390: 170b 5f3e 3e58 423e 69cd 28bc c699 b9bd
000003a0: 16ae 643e d974 1abd 5648 75bd 5e3d 4b3d
000003b0: 1c75 a6bd 2a1a 0f3e 6b1c ae3d d38f 0bbe
000003c0: efe8 09be 1bb8 1abc 2f01 a23d 8dd5 88bd
000003d0: cf21 0cbe e75f 8fbd 677c 7bbe dbaf 34be
000003e0: 876d 3fbe 90c1 353d 98cd 523d 36c4 0dbe
000003f0: f67b 74bd 32a0 0e3d 5cd7 88bd a680 0bbe
0.18220718 -0.0012479174 0.050733205 0.17354998 -0.12703761 0.1652439 0.036222715 0.15204187
0.04641005 0.04233722 0.1259459 0.09256184 0.13838753 -0.029866977 0.029107507 0.041673176
0.06679173 0.013631828 0.18324474 0.07609474 -0.03920794 -0.094689354 -0.037890855 -0.083835945
-0.040729158 0.0031835944 0.09390445 0.11062673 -0.20775223 0.089916855 0.07853804 0.1825738
0.12705414 -0.23491767 -0.2377586 -0.14250672 0.16338827 -0.051830437 0.04839362 -0.07211231
0.19379096 -0.08249891 0.07333582 -0.056042474 -0.15778832 0.15914547 -0.047826443 0.09359043
0.022765322 0.054818023 -0.12056053 -0.09957616 0.1133942 -0.041313887 0.2420069 0.2008427
0.022184376 -0.07521239 0.16646051 0.10621159 -0.08130177 0.16960177 0.15345493 0.20086348
-0.07326424 -0.008584794 0.030571891 0.06645038 -0.10698208 -0.11536903 0.134344 -0.02123631
0.12982076 0.052479167 0.08912688 0.08208072 0.11653823 0.13750872 -0.15704653 0.12757865
-0.11676002 -0.14420827 0.09708337 -0.008949017 0.090841085 -0.06629351 -0.19591321 0.081512555
-0.025384326 0.07729354 0.038708605 -0.075932756 0.03906239 0.019018961 -0.07885801 -0.117660984
0.012413221 0.044685617 -0.11195246 -0.058044504 0.24181105 -0.010626059 0.11160394 0.14011802
-0.117698945 -0.19018234 0.1986047 0.000911742 0.1618031 0.07255164 0.08115467 0.18249053
0.22431311 -0.10458092 0.047563482 0.18180557 0.15994002 0.15974855 -0.092958555 -0.10350926
-0.06722581 0.07949813 0.23130363 -0.089657076 0.15131855 -0.07335218 -0.121726744 0.017374303
0.14927913 0.24703227 -0.052112374 0.08482961 0.2076672 0.18003736 0.1495202 0.15867068
0.1474891 0.054432597 -0.11266335 -0.09660115 -0.070980266 2.6142921e-05 -0.056763325 0.10191196
0.076033145 -0.00753388 0.08627562 0.071342975 0.19640659 0.15850195 -0.058649212 0.25216228
0.004484624 -0.022642778 -0.17433086 -0.14432631 -0.1345481 -0.030086804 0.13459703 -0.09316004
-0.10891851 0.06620975 0.042494144 0.11438111 -0.13015658 0.04103098 -0.045444686 -0.0630782
-0.15484102 -0.06479735 -0.0554331 0.056524534 0.03913071 0.025427083 0.18964298 0.23252638
0.12485828 -0.009528855 -0.1097579 0.14586617 -0.010630187 0.043101326 -0.1615415 0.027399635
-0.023246285 0.19974057 -0.14244936 -0.09816613 -0.0044543855 -0.14151926 0.041603368 -0.12484366
-0.122318156 0.009233507 0.106791474 -0.17587587 0.07493168 0.09430804 0.15887944 -0.14057997
0.018173855 -0.16160883 0.18741886 -0.08150963 0.08459916 0.009609299 -0.02735817 0.02885246
0.09346331 0.11773565 0.079519786 0.15126465 -0.12158743 0.1659233 0.22949335 0.19388337
0.16179153 -0.116821915 -0.025479408 0.2214397 -0.13485454 0.2044586 -0.11094789 -0.10203757
0.09150855 -0.09409587 -0.019462638 0.18782052 0.21781574 0.18978974 -0.01030288 -0.09062533
0.22332034 -0.03770909 -0.059883438 0.04961907 -0.081278056 0.13974825 0.08501514 -0.13629083
-0.13467763 -0.009443308 0.07910382 -0.066813566 -0.13684772 -0.07000714 -0.24559174 -0.17645209
-0.18694125 0.04437405 0.0514656 -0.1384438 -0.05968853 0.034820743 -0.066817015 -0.13623294

feat_extraction.stage0.rbr_1x1.conv.weight f4 [14, 3, 1, 1]
00000000: d604 b03e 54e5 f03d e89e eebd 1b60 fabe
00000010: 29c4 e63e caa1 95bd 54cd a5be 6528 d13e
00000020: ecd2 803e e98c 403e 5d0d 84bd 59b2 fcbd
00000030: ea28 0f3e c789 003f 17b0 193e f7fa 54be
00000040: 5606 273f 8540 843d 5048 f63e 8420 3e3e
00000050: 154f 1e3f d4b3 a93e 32df 8abe 5e09 ff3e
00000060: 8bf9 7c3c 764d e9be bb56 20be fdc1 0fbf
00000070: 421a abbe df3c e4be 1e34 d53e 6e40 85bd
00000080: 903c 9bbd 6835 913e 1373 893e a987 afbe
00000090: 078c 203e add8 5d3e 9f72 fabe bdbb 0c3f
000000a0: c114 b0be b8ff 7abe
0.3437869 0.11762491 -0.11651403 -0.48901448 0.45071533 -0.073062494 -0.32383215 0.4085113
0.2516092 0.18803753 -0.06447861 -0.123387046 0.13980451 0.5021023 0.15008579 -0.2079886
0.6524404 0.064576186 0.48102045 0.18567091 0.6183942 0.3314501 -0.2712341 0.49811834
0.015440355 -0.4556691 -0.15658085 -0.5615538 -0.3341847 -0.4457769 0.41641325 -0.065064296
-0.07579911 0.28361058 0.26845607 -0.34283188 0.15678416 0.21664687 -0.48915574 0.54973966
-0.34390834 -0.24511611

feat_extraction.stage1.rbr_identity.weight f4 [14]
00000000: 4b39 4f3f 971a 343f 1acf 733f 3458 5f3f
00000010: a87a 773f d721 703f cbcc 643f 6488 693f
00000020: a7d8 6e3f 34dd 683f 2d42 3f3f 402b 4f3f
00000030: 519b 723f a504 463f
0.809468 0.7035307 0.95237887 0.8724396 0.96671534 0.93801636 0.8937499 0.9122374
0.93299335 0.9096253 0.7471035 0.8092537 0.94768244 0.77350837

feat_extraction.stage1.rbr_identity.bias f4 [14]
00000000: 8338 8b3d 4b26 ef3d f5ee ad3c 733b 3b3e
00000010: 222f 243d 9571 413d 6170 a13d 5f82 943d
00000020: c88f 1e3e 8b4e 853d 185b f73d 5b7a 633e
00000030: 53f1 2f3d 2c09 f13d
0.06797888 0.11677226 0.021232108 0.18284397 0.04008401 0.04722746 0.07882763 0.07251429
0.15484536 0.065091215 0.12077922 0.22214644 0.042954754 0.117693275

feat_extraction.stage1.rbr_identity.running_mean f4 [14]
00000000: a0bf 363f 39ec 9f3c e9ea 483f e5b6 4d3c
00000010: e309 9f3f 1af0 d63e af55 2a3f 7d83 093f
00000020: 5ae5 5e3d 99ee f333 7422 2c3d d244 f43c
00000030: 563f 3733 607e 4d3e
0.71386147 0.01952182 0.78483444 0.0125558125 1.2424892 0.41980058 0.6653699 0.5371626
0.054417945 1.135897e-07 0.042025045 0.029817972 4.266561e-08 0.2006774

feat_extraction.stage1.rbr_identity.running_var f4 [14]
00000000: 2c0b 233e 9720 7a3b 457b 4e3e 4bd3 ad3a
00000010: c957 fa3e 3697 773d 3537 1c3e 14b6 0d3e
00000020: 1fe8 333b d8e1 3a2f 0d3b 883b 0da7 263b
00000030: 9926 352e c38b 0b3d
0.1592223 0.0038166398 0.20164211 0.0013261823 0.488951 0.06044694 0.15255435 0.13838989
0.0027451587 1.6996837e-10 0.00415743 0.002542916 4.1188917e-11 0.034068834

feat_extraction.stage1.rbr_dense.conv.weight f4 [14, 14, 3, 3]
00000000: a441 a73c 8a2a 243e 84f6 c73d 711d 233e
00000010: 99cc 953d cb75 f13d 3577 3d3d 82ea 1bbc
00000020: 5397 833d 3e0a dabc f996 cfbc f59b 82bd
00000030: b74d b7bb 6b68 8d3c 84ab 363c e4f6 e7bd
00000040: 04bd 873c 6b73 aebc bc25 eb3d 301a dc3d
00000050: 1ef9 5cbc 75b2 0b3e deed 6dbd fa8c b43d
00000060: 7b3e 4d3d c59d 8f3d 2354 e0bc a4cd d93c
00000070: 7635 82bd f736 aebd d5fa 30bd 1c6b 1d3e
00000080: 64a1 9e3d fa91 0bbe 01b5 2e3e 700b c53c
00000090: cbcc 153c 9fd6 b6bc c03e d03d 8a68 753b
000000a0: d41a a23d 15d0 22bd c536 eb3d 966c 833d
000000b0: b95b a33c a477 b73d 1147 74bb 313d 693d
000000c0: b572 5b3d 8c84 8dbc eebc 0c3d 6b37 d93b
000000d0: b2a8 e33d de63 e33d b6f5 f93d b091 fa3d
000000e0: 970d 87bc 16d9 8d3d 9383 643d a39c ccbc
000000f0: cbe5 9e3d f1d7 ccbc 6df4 043d 54a2 1d3d
00000100: a50b a83d 7dca b4bc d642 5bbd 8f62 a23d
00000110: a607 323d e18c 8c3d 800a 1c3d 6edd ebbc
00000120: 4c19 3e3e ac68 30be 48cd 813c cd6a 043e
00000130: a95c a03d f828 93bd c7ca dbbd 5a09 ac3d
00000140: e647 8cbd 8b18 8abd 6714 96bd 14e8 43bd
00000150: 2c08 a0bc 9b16 5cbd acb3 10bd 9c6e b3bd
00000160: d508 3e3d 002e dabc f25c 8c3c ffdd f23d
00000170: 4a2f 523d 8177 853d 32e0 a93d 1435 40bd
00000180: d075 05be 0aee 76bd 8926 dbbd b35f 263d
00000190: 5d8a 11bc a5dc 0d3e 5d26 a43d a605 0b3e
000001a0: a938 d03d 876e 24be 1e5a 953d 6790 283d
000001b0: 3f3e 1cbd 2c69 6fbd 0db9 803c 86a5 be3c
000001c0: 94bc 1e3d c442 d63c 2389 71bc 23cb 8ebd
000001d0: 2a42 673d 2687 773d 5120 96ba 4bad f63d
000001e0: c403 ba3d 5325 58bd c80f b6bc 0110 1cbc
000001f0: 3b37 c7bc 02cc ac3d e96a aebd 3b90 703d
00000200: a275 69bd a783 093d be18 7fbc 37a5 60bd
00000210: d75c 3b3d b550 adbd 9432 65bd bfd7 0b3e
00000220: c20e 533e f865 c93d 3b4a 8a3d 7cea a83d
00000230: 821f b33d 9a0c ef3d 5676 1c3e c516 d33d
00000240: e894 693d 17a3 e53c e3a5 ccbc f7ef 8abc
00000250: f616 703d 5714 253d 7314 c73d c824 d83c
00000260: e57a d8bc 7c5f d73b efae a23b 5e02 ad3d
00000270: acd2 013e 7779 b8bb fc07 eb3d fd96 d53d
00000280: dd67 423c 0d2e 073e 0b24 f0bb eeac c53d
00000290: a5dd 2d3d df76 26bd 0a4e f9bc e011 a33d
000002a0: 085d 6b3d 82c5 b43d 1044 973c f060 e03d
000002b0: 09ba ad3d 2058 7d3d 2089 f33c 910a 0d3e
000002c0: 2751 7b3d a869 973c cc19 493d 5399 073e
000002d0: 6643 b83d d0ec 8c3c 145f e63d 5519 a03d
000002e0: eb80 61bc 182c 3bbd 7655 ad3d f59b fa3d
000002f0: 56cd eebb 139b d63d 4d23 973d c3ca 683d
00000300: cda2 283d ab9d c83d 461c cf3d c2a8 ec3d
00000310: 8a0e d33d 3c22 ef3d 5c10 0ebd a7ae 72bb
00000320: ac0c abbd 79f9 f1bd 7974 cb3b 511d 24be
00000330: e06f 2f3c 6e50 0dbd c38c fabd cb4c 743d
00000340: 4d50 8bbc 5ef7 8e3d 40fd a23d c852 a9bc
00000350: 054e 223c 8fef d3bc 8ce8 fabc c789 32bc
00000360: bba9 d7bd 7276 29be d9b8 53be de62 b3bd
00000370: 6eef a8bd 53e9 e9bd 48f9 903d da64 693d
00000380: 3c8b 3e3d 32d2 e63c 0c78 e2bd 5920 ab3d
00000390: 7ba5 563c 5d56 b8bc 123c 84ba 929d 023e
000003a0: 37c3 efbc cada 903d 7fd8 81bd 860b 7cbd
000003b0: f176 46bd bc09 aa3d e70b 47bc 0596 b23c
000003c0: 6861 bdbd e70f 993d 55e3 c8bc e6b7 86be
000003d0: cf07 0bbe 0c30 70be 1fcc f8bd c911 92be
000003e0: f2c9 9dbe a4c7 7dbe 37f8 22be 2566 51be
000003f0: 32e5 86bd b8d6 a93c 65fe d03b af22 353d
0.020417042 0.16031852 0.09763816 0.159292 0.073144145 0.11790045 0.046256263 -0.00951636
0.06425347 -0.026616212 -0.025340544 -0.06377403 -0.005593981 0.017261704 0.011149291 -0.113263875
0.016569622 -0.02129527 0.11481807 0.10747182 -0.013487129 0.13642295 -0.058088176 0.08815952
0.050108414 0.07012514 -0.02738387 0.026587315 -0.06357853 -0.085065775 -0.043207962 0.1537289
0.077456266 -0.13629904 0.17061235 0.024053305 0.009143065 -0.022319136 0.101682186 0.0037446343
0.07915273 -0.039749224 0.11485056 0.064171955 0.019941198 0.089583665 -0.0037273804 0.056943122
0.05357619 -0.017275117 0.034359865 0.006628921 0.111161605 0.111030325 0.12205069 0.12234819
-0.016485972 0.069261715 0.05578954 -0.024977034 0.07758673 -0.025005313 0.032459665 0.038484886
0.08205346 -0.02206921 -0.053530537 0.07928955 0.043464325 0.06862808 0.03809595 -0.02879211
0.18564337 -0.17227429 0.015844956 0.12931366 0.078301735 -0.071855485 -0.10732036 0.08400221
-0.06849651 -0.067429624 -0.0732811 -0.04782875 -0.019535147 -0.053732496 -0.0353276 -0.087613314
0.04639514 -0.026633263 0.017134164 0.11858749 0.05131463 0.06516934 0.08294715 -0.04692562
-0.13033223 -0.060285605 -0.107007094 0.04061861 -0.008883086 0.138537 0.0801513 0.13576373
0.10167057 -0.16057788 0.07292579 0.041153338 -0.0381453 -0.05844991 0.01571324 0.023272287
0.03875406 0.026154883 -0.014742169 -0.06972339 0.056459583 0.060431622 -0.0011453723 0.12044772
0.090827495 -0.05276997 -0.022224322 -0.0095253 -0.024318328 0.08437349 -0.08516485 0.0587313
-0.05699695 0.03357282 -0.015569864 -0.05484506 0.045742836 -0.08462659 -0.05595644 0.1365652
0.20611098 0.09833902 0.067524396 0.08247849 0.08746244 0.116723254 0.15279517 0.10307077
0.057026774 0.028031869 -0.024981445 -0.016960127 0.058615647 0.0403026 0.09720697 0.026384726
-0.026425788 0.006572662 0.0049647014 0.08447717 0.12678021 -0.005629714 0.11476132 0.10429189
0.011865583 0.1320116 -0.0073285154 0.09652124 0.042447705 -0.040640708 -0.03043272 0.07962394
0.05746177 0.08826734 0.018465072 0.10955989 0.08482749 0.06185162 0.029728472 0.13773562
0.06135669 0.018482998 0.049096867 0.13242082 0.0899723 0.017202765 0.112486035 0.07817332
-0.013763647 -0.045696348 0.08463566 0.12236778 -0.0072876615 0.10478797 0.0737978 0.056833994
0.041170884 0.09795698 0.101128146 0.115556255 0.103055075 0.116764516 -0.03468357 -0.003703037
-0.08352026 -0.11815161 0.006208953 -0.16026808 0.010707825 -0.03450053 -0.122338794 0.059643548
-0.017006064 0.06980775 0.0795846 -0.020669356 0.009906297 -0.025871066 -0.030628465 -0.0108971065
-0.105304204 -0.1654909 -0.20675983 -0.08759092 -0.082487926 -0.11421456 0.070787966 0.056980945
0.046519503 0.0281764 -0.110580534 0.08355779 0.013100977 -0.022502119 -0.0010088703 0.12755421
-0.02926789 0.07072981 -0.063401215 -0.061534427 -0.048453275 0.08302638 -0.012148834 0.02180005
-0.092470944 0.07473736 -0.024522463 -0.26312178 -0.13577197 -0.23455828 -0.12148308 -0.28529194
-0.30818135 -0.24783188 -0.15914999 -0.20449121 -0.06586684 0.020732269 0.0063779824 0.04422253

feat_extraction.stage1.rbr_1x1.conv.weight f4 [14, 14, 1, 1]
00000000: fe2e 833d 3c5b 5fbe 4867 9a3c 5174 713c
00000010: 5af6 40bd 8301 79bc 7ab2 b23d 9bd6 85bd
00000020: 4d11 2ebe f1a4 09be cfbf 44be 2bec d0bd
00000030: 2173 033e 3093 2a3e e8c2 3b3e c55c 243e
00000040: 37b9 8fbd c8e7 15be a4ea 1b3e b995 e0bd
00000050: 2cff 6e3e 6a01 93bd cdec 9dbe e88e 39be
00000060: 4e39 123e 5c85 553e ca3a 773d 06d8 5fbe
00000070: f923 6a3e 854e 883d 09e7 253e bd31 0fbe
00000080: 98cc 4f3d 8d70 7f3e 023c 3fbe af1b 933e
00000090: 607f 69be a8ae a2bd 1fef 31bd 0461 a33d
000000a0: 1bc5 a13d c1a1 36be 1b12 f63d 5dec 783e
000000b0: a208 eabb cefa e0bd 7bce 8d3e 08f2 0cbe
000000c0: bc86 febd b00b 9b3e 44b9 f6bd 9d71 1f3e
000000d0: 51bb 8a3e d481 403c e0b1 6abe be73 48ba
000000e0: 56d5 d73d 2292 803e c189 c4bc d621 83bc
000000f0: de78 9fbd fe5d 42be fcd6 823e df71 0cbd
00000100: b7b5 0cbd 1586 3cbe 5244 6c3e 1c66 053e
00000110: 923b 2f3e 93bc 103e 4b35 3abd 726f 043e
00000120: 889b 173d 4318 23be 26a8 b93d cc8f f1bd
00000130: ae76 18be f60d e7ba e835 84be b1c7 a53b
00000140: 6322 0b3d 034b 3e3e 0496 a03d 8d5b 18bd
00000150: 5d61 21be 4ada 8ebd a68c a73c 9abf 45bd
00000160: f242 d43d 4089 793e 1d69 5d3e 3433 10bd
00000170: a1db 28bd d6a7 863e d4d7 0dbd ca5f 43be
00000180: 7302 66bb d4cf 99bc 1888 c3bd 38c0 2e3d
00000190: 2b39 2dbe 7d98 cc3d ba23 1cbe f720 023e
000001a0: dc29 823e 69d8 c8bd 9b34 acbd 0d75 b53c
000001b0: 1fa8 973d 2e5b 313e 9851 9abc 30ec 0abd
000001c0: 5749 1fbd 3009 753e 419e ac3d 2030 f13d
000001d0: 028c 1e3e 2598 35bd e677 753e 546e 97be
000001e0: 1068 4f3e b860 153e 8e00 933e b45b 683e
000001f0: eedb f9bd 9fd0 29bd af43 21be 4c5f 9f3e
00000200: e415 39be a879 bbbc dc62 413e 4f0b 433e
00000210: 9ad9 2dbe d8df c73d 251e bb3d de5e 343e
00000220: 33ff db3d 7a6c a93e b495 6ebd ad6e be3e
00000230: ebe2 8c3d a900 42be 65e9 b43d 41fa 72bd
00000240: 9948 ed3d a8c4 723e ccae 22be 0894 5bbe
00000250: 922f 9d3e 8959 fbbc 8f8f 9e3d 10f0 c83e
00000260: 8734 de3d 8875 2a3e 1f27 b23d b9d4 a83d
00000270: acff 1cbe 88af ad3e 351f 15be b79f fd3d
00000280: 9223 613e 02ff 87be 476f 503e 036d 863e
00000290: b38b 663e 0346 4e3e 6195 333d 0f36 06be
000002a0: 70c4 853d ee8e c33e 012a 993e a2cf d63d
000002b0: d0d5 133e 6b2b 7dbb 734f 38bb c496 b63d
000002c0: eff0 7cbe 00f0 243d c341 323e 838a c33a
000002d0: de53 a8bd 02d9 7dbe f4d9 9b3d 3099 883d
000002e0: c934 823e 4d72 d2bd 9daa 54be 09e4 b8bb
000002f0: 1ac0 7e3e e716 debb 911a 5b3e 5449 583d
00000300: 42bc 6b3d 9701 5a3e f9d4 403e 7b5e 523d
0.064054474 -0.21812147 0.018848076 0.014737205 -0.04710994 -0.015198114 0.08725448 -0.06535073
-0.16998787 -0.13441826 -0.19213794 -0.102012955 0.12836887 0.1665771 0.1833607 0.16051014
-0.07017749 -0.14639199 0.15226227 -0.10966057 0.23339528 -0.07178004 -0.30844727 -0.1812092
0.14279673 0.20851654 0.0603588 -0.2185975 0.22865285 0.066556014 0.16201414 -0.13983817
0.050732225 0.24945278 -0.18675235 0.28732058 -0.22802496 -0.07943469 -0.043440934 0.07977489
0.07898923 -0.17835142 0.12015172 0.24308915 -0.0071421424 -0.10985337 0.27696595 -0.13764203
-0.12428042 0.30282354 -0.12047055 0.15570684 0.27096036 0.011749703 -0.22919416 -0.00076466415
0.105387375 0.2511149 -0.023991467 -0.016007345 -0.077867255 -0.18981168 0.25554645 -0.034288283
-0.034352984 -0.18410523 0.23072937 0.13027233 0.17112568 0.14134435 -0.04546098 0.12933138
0.03701356 -0.15927224 0.09065275 -0.11795005 -0.14889023 -0.0017628062 -0.25822377 0.0050592055
0.03396834 0.18583302 0.07841113 -0.037196685 -0.15759797 -0.06975229 0.020452809 -0.04827843
0.10364331 0.24368763 0.21622129 -0.03520508 -0.04122508 0.26299924 -0.034629658 -0.1907951
-0.0035096675 -0.018775858 -0.09547442 0.042663783 -0.16916339 0.09990022 -0.15248004 0.12707888
0.2542256 -0.09806902 -0.08408471 0.02215054 0.074051134 0.17319939 -0.018837735 -0.033916652
-0.0388883 0.23929286 0.08428622 0.11776757 0.15483096 -0.04433455 0.23971519 -0.2957636
0.2025454 0.14587677 0.2871136 0.22691232 -0.122001514 -0.041458722 -0.15748475 0.31127393
-0.18074757 -0.022885159 0.18885368 0.19047283 -0.1697754 0.09759492 0.09136609 0.17614314
0.10742035 0.33090574 -0.058248237 0.37193814 0.06879219 -0.18945564 0.08833579 -0.059320692
0.115861125 0.23707831 -0.15886992 -0.21443188 0.30700356 -0.030682342 0.077422254 0.39245653
0.108498625 0.16646397 0.08698868 0.082436986 -0.15331906 0.33922982 -0.14562686 0.12383979
0.21986225 -0.26561743 0.20354949 0.26255044 0.22514229 0.20143895 0.04384363 -0.13106559
0.06531608 0.38194984 0.2991486 0.104888216 0.14437032 -0.0038630615 -0.0028123527 0.08915475
-0.24701284 0.040267944 0.17407899 0.0014918599 -0.082191214 -0.24789813 0.07609931 0.06669843
0.25430897 -0.102757074 -0.20768209 -0.0056424183 0.24877968 -0.0067776325 0.21396853 0.052804306
0.057552584 0.21289669 0.18831243 0.051359635

feat_extraction.stage2.rbr_dense.conv.weight f4 [12, 14, 3, 3]
00000000: 453c 8cbd ab77 b1bd 9b5c aebc 5bab fabc
00000010: d8dc 3a3d 414a bdbd dc09 123d 14ac 91bd
00000020: d7c2 253c 17d3 8fbb 3eb7 a93d 38f1 43bd
00000030: 42a3 bebc f2bf 813d 8c8f c13d ce34 52bc
00000040: 95d7 813d 5c5f 253c dee5 d2bd 18b4 443c
00000050: 3bd1 ddbb d0cb 323d ccc4 8a3d 3fb3 a03d
00000060: a33a 213d 1153 94bd 6196 8fbd cdaa 3abd
00000070: 55fa 8f3d 797a f7bc 41f4 21bd 3e98 acbc
00000080: 9d64 4ebc 1a53 ab3c 5788 b33d bba7 2fbc
00000090: 84bf b7bc 2954 183d 74b0 32bc 0b69 423d
000000a0: ed44 883d dc94 823c 556a a3bd 9ec4 923d
000000b0: 8003 21bd 0712 56bd d134 8f3d 17cc dbbc
000000c0: 270d d13c 62d8 c93d cda7 253c c3bb 19bd
000000d0: 50a8 a43d e5c0 bc3c 0760 823c 4040 27bd
000000e0: 2b83 a8bd b51a 743c 7613 30bd 070c 1cbd
000000f0: 4716 b4bd 8853 873d a042 83bd 222f 8d3c
00000100: 5219 063d 67c1 ab3d e629 163d 4615 4ebd
00000110: a11c 513d 7b58 8dbd 6f0c 02bc 5f58 0ebd
00000120: cdb4 9d3d cdd8 ab3d eb5c d7bd b924 693d
00000130: ac66 8fbd 1037 053d 38af f43b 1df3 f13c
00000140: 2a9b 6c3d 9cf1 29bd 7e04 0b3d 6a10 253d
00000150: 9cdb b93d 23ac 043d 0ab7 87ba bf1a 46bd
00000160: e8e6 75bc e1c2 313d 9057 e6bd 0a36 08be
00000170: 1129 cbbb aa64 7ebc ad5b cdbc be62 46bd
00000180: 5af0 53bd 31bd 9fbd 58a8 66bd c4bc 8cbd
00000190: a222 32bd 8a49 1a3d 8be7 adbd ba36 ae3d
000001a0: 42e3 a1bd 6c81 a53c 2793 cdbb 2e96 0dbe
000001b0: f989 eb3c 8c8d e73d 0a02 4cbc e2c1 f83d
000001c0: 1684 2c3d d40a 483c a8b6 863d 3205 d13d
000001d0: b809 d13d e20e be3d d3f4 67bd cb73 0539
000001e0: 24ee f43c 18d6 2dbd 31d3 3b3d 8fc4 02bd
000001f0: a558 bdbd 9704 e1bc 22bf bebd bb21 95bc
00000200: 1131 10be 0d7c a6bd 0f5c 48bd 9873 79bd
00000210: 1438 c8bd f42b 9a3c 3950 05be 6aa1 a9bd
00000220: 3ce4 d13d 6216 65bd 73eb b53d 7399 073e
00000230: 8fb8 3c3c 0425 83bd 0b01 cabd 8bdf 65bd
00000240: 1dad c23c 1872 3ebd 4fe8 ee3c bed8 81bd
00000250: f9e4 93bd 071d 433c 837a cc3d b6b4 2ebd
00000260: bbfc cf3d 588c fdbd 2f5b 393e 6c6e 30bc
00000270: 0551 14be d88f cc3b 53cc 09bd a512 93bd
00000280: 5da3 f03d 1ca7 afbd b151 49bd d7a7 e7bd
00000290: 9a57 953d 5ec1 debd fedd 4fbd 6592 573d
000002a0: 7815 ac3c f4ec 09be 4ea8 ad3c 9270 f8bc
000002b0: 76af 96bd 4002 613b ea71 ce3c 0dfe 293d
000002c0: f883 d7bd 025a eabc 8185 e0bc 7ec0 16bd
000002d0: f52c 533d 35a3 e9bd f94d f1bd 941b 8fbd
000002e0: 91e6 8bbd 07d5 38be 1f96 c1bd 9739 d8bd
000002f0: 54e4 aabd ad5e 593d fa5f 603d 336d c13d
00000300: a02d 61bd b21d 8e3c 9c7c cd3c a0de 7bbd
00000310: faf2 d0bd b9fd cabc e47e 84bd c0f6 4b3c
00000320: ba4b 1ebd 63b8 6b3c a691 7dbc 99ab 50bd
00000330: ba2d c63d c703 fabd 0f96 1dbc 42e4 7d3d
00000340: 0f35 273e 6dd1 783d a3f6 81bc ea23 c13d
00000350: ff81 d93d 0208 273d a58e 9cbb ec69 ad3c
00000360: 9590 2abc 3263 4a3d c7ca 45bb 1d1e e13c
00000370: 7cb8 fb3d 8671 063d 0cfe bc3c 877b 203d
00000380: 2bdd 253c 0a53 59bd 2ef0 3e3d 8223 f8bd
00000390: 7e5b 6d3d 28be 113e 5850 0d3c 7666 4a3d
000003a0: 8adb 5b3d bae2 9dbd cae3 13bd 156d 303d
000003b0: 2fa9 4c3d e635 87bc 73b4 223d ba17 c8bb
000003c0: 7374 22bc c9a5 f23b 4e10 fa3c f267 12bb
000003d0: cdbd 94bb 7d3c 743d 28e1 443d 8c63 5b3b
000003e0: ac3f 8c3d 8f7d 7fbd b9f0 983d a3bf 1f3d
000003f0: 3ff6 d9b9 cd2b a13c 6f38 41bd 435d b5bd
-0.06847433 -0.08665403 -0.021284392 -0.030599287 0.04562077 -0.092426784 0.035653934 -0.071128994
0.010117254 -0.0043891775 0.08286904 -0.047837466 -0.023271207 0.06335439 0.094512075 -0.012829972
0.06339947 0.010093536 -0.1029775 0.012005828 -0.006769327 0.043651402 0.06775817 0.078466885
0.03936256 -0.07242406 -0.070111044 -0.045573045 0.07030169 -0.030209767 -0.03953958 -0.021068688
-0.01259723 0.02091365 0.08766239 -0.010721142 -0.022430189 0.037189636 -0.0109063275 0.047463458
0.066537715 0.015940122 -0.079792656 0.07166408 -0.03930998 -0.052263286 0.06992496 -0.026830716
0.025518967 0.09855725 0.010110808 -0.03753258 0.080399156 0.023041198 0.01591493 -0.040832758
-0.08228143 0.014898946 -0.04298731 -0.038097408 -0.087933116 0.06607729 -0.06409192 0.017234389
0.03273899 0.08386498 0.03666105 -0.050313257 0.051052693 -0.06901642 -0.007937535 -0.034752246
0.07700501 0.08390961 -0.105157696 0.056919787 -0.07002005 0.032523215 0.0074671768 0.02953487
0.057765163 -0.041490182 0.03393983 0.040298857 0.0907509 0.032390725 -0.0010354233 -0.04836535
-0.015008666 0.04339874 -0.1124717 -0.13301864 -0.006199964 -0.01552693 -0.025068128 -0.04843401
-0.05174289 -0.07799757 -0.05631289 -0.06871942 -0.04349006 0.03766779 -0.08491429 0.08506532
-0.07904674 0.020203315 -0.0062736454 -0.1382682 0.028752314 0.11306295 -0.012451658 0.12146355
0.042118154 0.012209613 0.06577808 0.10206069 0.10206932 0.092801824 -0.056629967 0.00012727005
0.02989871 -0.042440504 0.045855705 -0.031925734 -0.09245423 -0.027468009 -0.093137994 -0.01820456
-0.14081217 -0.081291296 -0.04891592 -0.060901254 -0.09776321 0.018819787 -0.13018884 -0.082827404
0.102486104 -0.05592955 0.08882799 0.1324213 0.011518612 -0.064035445 -0.0986348 -0.05612139
0.023764187 -0.046495527 0.029163508 -0.063401684 -0.072214074 0.011908776 0.09984305 -0.042652808
0.101556264 -0.12380284 0.1810119 -0.010768514 -0.14484031 0.0062427334 -0.033642124 -0.071812905
0.11749909 -0.085767955 -0.049150173 -0.1131131 0.07292099 -0.108767256 -0.050748818 0.052629847
0.02100633 -0.13469297 0.021198418 -0.030327115 -0.07357685 0.0034333616 0.025200803 0.041502047
-0.10523218 -0.028607372 -0.02740741 -0.03680467 0.051556546 -0.114080824 -0.1178245 -0.06987682
-0.068310864 -0.18050013 -0.094524615 -0.105578594 -0.083443314 0.053068805 0.05477903 0.09444656
-0.054975152 0.017348144 0.025083832 -0.06149161 -0.10202594 -0.024779188 -0.06469515 0.0124489665
-0.038646437 0.014387223 -0.01547662 -0.0509449 0.096766904 -0.12207752 -0.009618296 0.06198526
0.16328834 0.0607466 -0.015864676 0.09430678 0.10620498 0.04077912 -0.0047777467 0.021168672
-0.010410448 0.049411006 -0.003018068 0.02748018 0.12291047 0.032823108 0.023070358 0.039180305
0.010123531 -0.053057708 0.046615772 -0.121161476 0.057948582 0.14232695 0.0086251125 0.04941412
0.053676166 -0.0770926 -0.03610591 0.04307278 0.049966034 -0.016505193 0.03972287 -0.006106344
-0.009915459 0.007405017 0.030525353 -0.0022339788 -0.0045392276 0.059628 0.04806629 0.0033476083
0.06848082 -0.0623756 0.07467789 0.03900112 -0.00041572933 0.019674206 -0.04717296 -0.08855679

feat_extraction.stage2.rbr_1x1.conv.weight f4 [12, 14, 1, 1]
00000000: 52b9 0bbe 3725 91bd b281 5bbe 3347 bb3d
00000010: 3eea e3bc 31fc 543d 766a 8a3e e51a 5f3d
00000020: 69a2 d13d 1132 823d b450 debc a284 383e
00000030: aa5b 083e 1d3f 07bd db25 49bd c35c 13bd
00000040: ebda 15bd 94ee 483e 9a15 473e f934 603e
00000050: 1972 4bbe 62c6 e4bb 7249 8e3c 5656 873e
00000060: 22f4 a2bc e158 2f3c f6d7 1c3e e6be ddbd
00000070: 37e9 7f3e c372 13be b249 cf3d 331d 84bd
00000080: a712 4abe d562 85be c846 dd3d d10e d4bd
00000090: fc02 11be c993 9a3e ed93 453e 95e7 9d3e
000000a0: aac6 dfbd 41d5 d93c 4c1b fd3c 0f3c 43bc
000000b0: 2ff2 e13d ef6d 903d c766 b6bd 94a1 28bd
000000c0: c1f1 0abe 9bca 48be 78a9 d93d 0839 87bd
000000d0: 1db0 e5bd eb49 04be 2496 2b3e 98e6 8bbd
000000e0: db25 453e 7234 c03d af32 b2bd 6b3d 813e
000000f0: 73e9 bbbd fbfc 73be 42b6 343e de84 22be
00000100: 4270 5b3e fbcb 5b3e eacf 85bd 733f 7fbd
00000110: 214e ed3d 8e29 da3d 598f 503e a0c2 af3d
00000120: 12ae 033d d519 413e 3ceb 183d 79d5 49be
00000130: 6d4d 37bd 4b54 cbbc 9d70 8a3a 9251 6cbe
00000140: 0a7d 88be 79b1 a3bd 7084 a73d e4d0 d93d
00000150: 5bb3 5abe 9a59 033e 4bf6 363d 3a40 2e3e
00000160: 7469 07be edc0 87bd 92fe f43d 83f4 76be
00000170: 18d5 b13d 6d60 aebd 8091 893d 9fe6 e6bd
00000180: a2dc 873e 6d8d 5c3d d95a d13c 94f9 f6bd
00000190: a273 43be d82f 7dbc 9197 13be cf8e 813c
000001a0: 6774 833e 7788 f33d c02d c9bd 77ed 55bd
000001b0: 46ce 073e 4d61 a8bc 4ce1 35be a3d7 60bc
000001c0: a6bf 0d3e 6fec f2bd aaaf 41bd 04e4 8bbd
000001d0: 5dee 0b3e 8c1d 05be d80b 95bd 9d15 cc3d
000001e0: 3ef2 f4bd 0000 833e 1984 34be e055 48be
000001f0: 8a88 d8bb 3d0f 1bbe a4bf 85be e611 1cbe
00000200: 96e3 6fbe 23c0 7c3e 9566 193d 1ce8 fbbd
00000210: 778f f53d 16d8 193d b16c f0bd b232 603e
00000220: 8fed 06be 079b 59bd c892 6b3e 102e 2a3e
00000230: 16f2 e63d ae62 e63d ad38 cdbd d69e 82be
00000240: 5e76 2dbc 8477 0e3e 9b26 403e 14b9 2ebd
00000250: ec1c ebbd 89fd dd3c af0a 593e 2fca 943d
00000260: faa5 933e 04bd e6bd bee9 803d 3dba 06be
00000270: 0cda 0e3d e2bc 313e ba73 55be 8687 703e
00000280: bb0a 683e 6ef1 653e 1c10 9cbd 8d4a 593e
00000290: 8457 8e3d 245d c0bd 2dfe 9b3e 1b49 68be
-0.13644913 -0.07087176 -0.21436194 0.091444395 -0.027821656 0.05199832 0.27034348 0.054469008
0.102360554 0.06357206 -0.027138092 0.18019345 0.13316217 -0.033019174 -0.049108367 -0.035977136
-0.03658573 0.1962226 0.19441834 0.21895207 -0.19867744 -0.006981657 0.017369006 0.26433057
-0.019891802 0.010702343 0.15316758 -0.108274266 0.24991308 -0.14399247 0.10121478 -0.06450882
-0.19733678 -0.26051965 0.10804516 -0.103543885 -0.14161295 0.30190876 0.1929471 0.30840746
-0.10926564 0.026590945 0.030896805 -0.011916175 0.11032521 0.07052218 -0.08906322 -0.041169718
-0.13568784 -0.19608538 0.10628027 -0.06602675 -0.112152316 -0.12918822 0.16756493 -0.06831092
0.19252722 0.09385003 -0.087010734 0.2524217 -0.09175386 -0.23826973 0.17647651 -0.15870997
0.21429542 0.21464531 -0.06533797 -0.06231637 0.115871675 0.10652457 0.20367183 0.08582044
0.03214843 0.1885751 0.037333712 -0.1971034 -0.044751573 -0.024820467 0.0010562126 -0.23077992
-0.26657897 -0.079928346 0.08179557 0.10635546 -0.21357481 0.12827149 0.044668477 0.17016688
-0.13223821 -0.066285945 0.11962618 -0.24116711 0.086832225 -0.085144855 0.06717205 -0.11274456
0.26535517 0.05384581 0.025556015 -0.12059322 -0.19087079 -0.015453301 -0.14413287 0.015815167
0.25674745 0.11891263 -0.09823179 -0.052228417 0.13262281 -0.02055421 -0.17761725 -0.013723287
0.1384264 -0.118615024 -0.047286667 -0.068306 0.13665147 -0.12999552 -0.0727765 0.0996506
-0.119602665 0.25585938 -0.17628516 -0.19564009 -0.0066080736 -0.15142532 -0.26122773 -0.15241203
-0.23426661 0.2468267 0.037451345 -0.12300131 0.11990254 0.03755959 -0.11739481 0.21894339
-0.13176559 -0.05312636 0.23005211 0.16619134 0.11276643 0.112492904 -0.10020576 -0.25511807
-0.010587303 0.13912779 0.18764727 -0.042656973 -0.11480126 0.027098434 0.21195482 0.07265126
0.28837568 -0.112665206 0.06294583 -0.13156982 0.034875914 0.1735721 -0.20844927 0.23489198
0.22660343 0.2245538 -0.0762026 0.21219845 0.06950286 -0.09392765 0.30467358 -0.22684138

importance_map.upscale.weight f4 [12, 6, 3, 3]
00000000: 52f9 5c3d bb58 fb3c ef9c a63d 0b3d 21bd
00000010: 7eca e2bc 1095 e93c 3281 e0bd d426 05bd
00000020: 460d 6abc 0b88 13be 80f1 50bc 93f0 e93d
00000030: 160a a3bc 71c2 f7bc 1692 8f3b f2d9 ce3c
00000040: effa 753d 7017 4e3d 61f4 a1bd 79bf 31be
00000050: f473 8b3d f4f0 e83d 0aee e7bd 9728 223e
00000060: e313 f03d 542e 813d ea5c 163e 05ec 783d
00000070: 8ce2 9d3d e23b a8bd a566 16bd 6e58 c3bc
00000080: 48f4 f83c 211e cd3c 51d6 503d 44ec 8abd
00000090: ac41 a73d 56c6 8bbd 4223 9cbd 824d 3f3e
000000a0: 9c60 563e 4590 633e e555 a73c b4d2 373e
000000b0: 6d37 163d 19f4 14be 66bb d03d a058 2fbd
000000c0: 9de7 e3bd e6f4 3b3e 4ee5 1f3b d3d0 363d
000000d0: e3f5 21bd 82fe 10be 4557 fc3d ac74 593d
000000e0: 6dc8 8d3d fd9b ab3d eb79 453e fddd b03e
000000f0: 8ba7 0fbd 804b 6d3d e737 6f3e 628b 543d
00000100: 7c89 463e 645e b8bd eaab fc3d 1fa5 59bb
00000110: e9b7 203d 564a 743d dca7 df3d 2aae 623e
00000120: 8fae 0bbe 8030 04be 6ee6 febd 4627 6b3d
00000130: 7a43 f43c 2a9a d83d b4f4 0fbc aab5 70be
00000140: 0905 f4bc 2e40 1a3c 3bcf 303d 5f25 d83d
00000150: f835 aabd a999 6a3d f779 dbbc f84d ac3b
00000160: db50 a5bc da27 c43d f0d4 f63d 03d5 043d
00000170: 5dab b0bc f73a 5bbd 83c5 66bc 25b0 c1bc
00000180: 555f 7a3d 1b90 febc 3f1a 3fbc f7be f5bc
00000190: 8bff f03c 254b 76be 6f8f bbbd 7991 163e
000001a0: 3e2c d4bd c15a d4bd f3e0 7d3d e804 72be
000001b0: 4c07 e53d 1b0c dbbd 798a 3abd b1c8 a73d
000001c0: b51c f63d 0f29 cc3d d633 47bd bc57 873d
000001d0: 3614 763d 8020 ccbd 930b bbbd 6c7e 6e3c
000001e0: aa09 e53d dba1 32bd 97bd 3a3d 8dcf b03d
000001f0: ecf9 ac3d 441f 653d deb7 2abd ceec ca3d
00000200: 2330 fcbd 9022 913c def3 783d 367e 75bc
00000210: 9bb3 ed3d 6974 d2bd 98a7 adbd 5bce 1d3e
00000220: 95b3 d5bc dcef 853d fb97 363d 506e 073e
00000230: be95 063d 9a14 c93c 2346 32bd 3405 c03c
00000240: fd7f d2bd 1a93 123d 72d3 51bc 6dab c8bd
00000250: 7f2e 17bd b6e7 e4bc e83d e23c 4de6 dfbd
00000260: 6e9c f83d 54ea f7bd f7f1 153e 4cfb a83b
00000270: fec0 aa3d 8af9 443d 398d aabd 0528 efbd
00000280: 5454 1f3d cea9 9ebc b37d 4bbd c68e b8bd
00000290: 634e 3e3b 1560 233d 64db e8bd 6800 fbbd
000002a0: 39f5 c63d 0ad4 94bb d89f 6abc b591 34be
000002b0: 0d35 883d 7553 513e a00a 9abd 3f70 d13c
000002c0: 91ea fabd 5ead e03d 39c6 e13c b660 9bbd
000002d0: e661 803c 872b 11be 9c23 843c 4627 de3b
000002e0: a439 17be 3c79 973d 27a4 e33d caa2 e5bd
000002f0: 9789 c93d 106a f0bd 026d 83bd 16d2 abbc
00000300: 27c8 66bc 7e07 01be ac4c 76bd 1f8c f8bc
00000310: dbc8 3dbe ae4e d8bc 833b 02bd dbe5 9e3d
00000320: f664 313c 5a7e 09bc b60f 76bd e2d6 e7bd
00000330: 04c5 0d3e acef e3bd 4c32 1f3e cf1e efbd
00000340: 75de fd3d ecdc a13d 5a20 9a3d c449 eb3d
00000350: 7bb4 84bd afb6 23be aa40 b03c d88a 26be
00000360: 2e1a bbbb 1c33 01be 2312 1bbd 3276 e93d
00000370: 584b b1bb 9cb0 66bd 4a56 263e 33f1 43bd
00000380: 0dbd dcbd eb65 a53b 05a2 bf3d 922d 41bc
00000390: d67f 06be d1ce 793d 35b3 4cbb 3add f1bc
000003a0: 1165 42bd 2c4d 8c3d f39d 693d b51f 46bd
000003b0: 680e 043e ff10 083e dfa4 c73c 97bc 9fbd
000003c0: 5036 8ebd ebaa 77bd 850a 3c3c 2189 94bd
000003d0: 268e 1fbe 2f13 17bd 0689 03bd 6d6b 6a3c
000003e0: be77 d8bc 4f61 213d ac16 163d 1bbd df3d
000003f0: 6dd2 a63a 5af4 8c3d 2b27 90bd e301 6a3d
0.053948708 0.030681958 0.081354015 -0.039364856 -0.027684446 0.028513461 -0.10962142 -0.032507733
-0.014285391 -0.14407365 -0.012752891 0.11422839 -0.01990227 -0.030244084 0.0043814285 0.025250409
0.060053762 0.05031532 -0.0790794 -0.17358197 0.06809226 0.11374083 -0.11324699 0.15835796
0.11722543 0.063076645 0.14683881 0.06077196 0.07709226 -0.08214547 -0.036718983 -0.023845877
0.03038992 0.02503878 0.050985638 -0.06783345 0.08166823 -0.06824939 -0.076239124 0.1868191
0.20935291 0.22223003 0.0204267 0.1795147 0.036673952 -0.14546241 0.101919934 -0.04280913
-0.11128161 0.1835514 0.002439815 0.044632744 -0.039541136 -0.14159587 0.12321333 0.053089783
0.06922994 0.08379362 0.1928479 0.34544364 -0.03507189 0.05793333 0.23361169 0.05189074
0.19388384 -0.090023786 0.123374775 -0.0033209992 0.03923789 0.059641205 0.109206885 0.22136751
-0.13640808 -0.12909126 -0.12446295 0.0574105 0.029817332 0.105762795 -0.008786369 -0.235068
-0.029787557 0.009414716 0.04316638 0.10554003 -0.08311075 0.057275448 -0.026791556 0.005258318
-0.020180156 0.095779136 0.12052333 0.032429706 -0.021566087 -0.05352303 -0.014085176 -0.023643563
0.061126072 -0.031074574 -0.011663972 -0.029998286 0.029418727 -0.24052103 -0.09158217 0.14703931
-0.10360001 -0.103688724 0.061982106 -0.23634684 0.111830324 -0.10695668 -0.045542214 0.08192576
0.12017194 0.09968769 -0.04863342 0.06608531 0.06007787 -0.099671364 -0.09133067 0.0145565085
0.11183484 -0.04361139 0.045590963 0.08633337 0.08446106 0.05593802 -0.041679256 0.09908448
-0.12313869 0.017716676 0.060779445 -0.014983704 0.11606523 -0.1027611 -0.084792316 0.1541075
-0.026086608 0.0653989 0.044578534 0.13225675 0.03285765 0.024545956 -0.04352392 0.023439981
-0.10278318 0.03578482 -0.01280676 -0.09798322 -0.036909577 -0.02794252 0.02761741 -0.10932598
0.121392116 -0.121052414 0.14643084 0.00515691 0.083375916 0.04808954 -0.08327717 -0.11677555
0.03889878 -0.019368079 -0.049680423 -0.09011607 0.0029038421 0.039886553 -0.113699704 -0.12255937
0.09714741 -0.0045418786 -0.014320336 -0.17633708 0.06650744 0.20441993 -0.07521558 0.025566218
-0.12251771 0.10970567 0.02756034 -0.075868055 0.015671682 -0.1417676 0.016130261 0.006779584
-0.14768082 0.073961705 0.11115294 -0.1121269 0.09840696 -0.1173898 -0.06417276 -0.0209742
-0.014085806 -0.12600514 -0.060131714 -0.030340252 -0.18533652 -0.026404705 -0.031795036 0.07758685
0.010827294 -0.008391941 -0.060073577 -0.113202825 0.13844687 -0.11129698 0.1554653 -0.11675798
0.12395946 0.07903466 0.07525702 0.11488679 -0.064797364 -0.15987657 0.02151521 -0.16263902
-0.005709908 -0.12617153 -0.037859093 0.11399497 -0.005410593 -0.05632077 0.16243854 -0.047837447
-0.10778246 0.00504755 0.09357075 -0.01179065 -0.13134703 0.06098825 -0.0031234745 -0.029524434
-0.047459666 0.06850657 0.057035398 -0.048370082 0.1289612 0.13287733 0.024370609 -0.077996425
-0.06943953 -0.060465734 0.011477117 -0.07252718 -0.15581569 -0.03688353 -0.032113098 0.014307839
-0.026424285 0.03939944 0.036642715 0.10924741 0.0012727507 0.06882544 -0.07038721 0.057130706

importance_map.upscale.bias f4 [6]
00000000: b5a4 ab3d a5d6 2f3d ac1b 0abe 0031 edbc
00000010: 1481 a7bd 9bad 2c3d
0.08381025 0.04292931 -0.13487118 -0.02895403 -0.081789166 0.04215775

importance_map.genmap.weight f4 [18, 6, 3, 3]
00000000: 2b61 b33d 5edc 483d bc57 033e 06d6 be3c
00000010: 55ed c73d 45e1 243c a981 0c3e 8cf5 c23d
00000020: b308 353e ccc4 98bb d19d 093d db6a e6bd
00000030: f8e0 123e b337 ec3c 0685 963d 04b9 d4bd
00000040: 1eed b8bb 74d9 063e 7285 81bc 90ba bf3c
00000050: 06da e23d 579d 833d fb09 9b3d 15a9 b1bd
00000060: 5981 5fbd ffa3 1e3c cbb8 d83a 75d6 9ebd
00000070: 37ad 1abe 21e0 073e faf7 05bd 1f42 033e
00000080: 9db2 72bd 9b68 af3d cf4e 90bd cda1 f13d
00000090: 6c8c 043e 57a6 c13d 2145 99bd 27a6 89bd
000000a0: 84e1 06be 904a 9bbd 1bc6 423d 6ccb 953d
000000b0: a01c 87bd f815 853d 8964 0b3d 9bd2 b3bc
000000c0: ad30 58bd 2a9d d73d 329c 3d3d 24d6 8d3d
000000d0: 2e32 0a3e 0bae b43d 57ac cb3d 9c04 ab3c
000000e0: 3cc1 c33d f73a 183e 2fb4 ff3d 54cc 013e
000000f0: f8db c9bc 6369 dc3c 9985 29bd 7271 fb3d
00000100: b976 023b 10fe b5bd dda6 1fbd 10b5 b2bd
00000110: 8a5a 2c3d 675d 113e f8ef d13c f86a aebc
00000120: c303 7fbd 76aa e3bd 6bcc 323d 24b6 953d
00000130: ad50 e6bd 1cee 5f3d e257 b03c ade5 04be
00000140: 028d 7d3d c2b8 4e3d 0175 32bd 800a f23d
00000150: 59e0 6fbd b95a ae3c 9a0b 0d3e 9e53 003e
00000160: 245b e33d 2486 05bd 50ea 15bd b31c 743d
00000170: f0e2 fb3c 25ae f73d 91ed fe3d cb65 003e
00000180: 3ada 9b3d f855 86bd 5c1a f93c 3cdb 493d
00000190: 78fe 963c df11 003c 0884 b53b f8f8 babd
000001a0: a27c 653c ebd6 9bbd 7db9 1f3e c10c dbbc
000001b0: cf84 573d 4a09 1ebd 54dd a9bd 560c 383d
000001c0: 9250 e5bd 1cc3 b53d f579 973c 80df 853c
000001d0: ac15 b43d 8f75 b93d b626 f53d 8b8e bb3d
000001e0: 90f8 98bc c3b9 f1ba 2b9d eebd 2a0d 333d
000001f0: 8a64 503c 4806 d53d 4c3e d83d 07c9 fcbd
00000200: 7eb6 5dbd 6bde f73d 00c0 263d f060 00bc
00000210: 09ef a1bd c281 5dbe c286 9e3d c390 8f3d
00000220: cc49 5c3d 1482 ba3d c41f 6fbd dd45 2c3e
00000230: 0d0b a63d 335d 943d 0da4 60bb 0fa3 c6bd
00000240: 4ed2 963d f025 8f3d 1ebf 833d 0690 923d
00000250: 1ca1 20bd 9649 033e f962 6a3d 158d b3bd
00000260: 61a7 81bc 1f4e 59bd 865e b83d a565 e3bd
00000270: f0c9 abbd 43bd d4ba 9bdc 05be 1dec 1bbe
00000280: 399f afbd b6d3 5c3d 40be 9cbd fb83 3fbc
00000290: 57e9 fa3d 6143 d3bc 29b7 173e 9f09 78bd
000002a0: 5777 c83a 1167 673a 1c21 78bd a673 093e
000002b0: 6451 523d 0190 a0bd cb0c 913d f116 10bd
000002c0: b109 5abd 203c f13d 82f5 8e3d fa93 57bc
000002d0: db48 193d 178d 313d 18ed 74bd e9f9 0f3e
000002e0: 4df2 4e3e 5a3e f83d 9193 8ebd 44bf 273d
000002f0: 0f01 febb ae5e 283e 8db6 10be 24f2 353d
00000300: 6350 f33d e158 8bbd 05c8 603b 46f7 143e
00000310: 9911 293d 9569 473e 9674 dc3d 3d61 cf3c
00000320: 3726 00bd 461d 44bd 99bd c73d 00f5 3f3c
00000330: ed18 253e b257 0e3e 3810 8b3d 410b 263e
00000340: ab07 66bc dfe7 ad3d 3c70 183e 417f 96bd
00000350: bc35 7f3d 6ff3 853c 4df7 b43d 87f0 d33d
00000360: e2d5 3bbe 3718 adbe dcf1 2bbe 08a3 85bd
00000370: 480a e6bd 6fa6 52bd 03b7 82be 5f7b b8be
00000380: dde5 5cbe 49e7 28be 76a1 e1bc 5d38 033c
00000390: 694a 63ba 3cba 02be c761 83be a699 f53c
000003a0: 7397 28be 115f 30bc 30a9 fa3b fa4f f6bd
000003b0: 68ba 133e adfc cc3b 6992 3dbe 33e1 963c
000003c0: 88ad 1ebd 30a5 98bd 9ca2 543c 57d6 b43c
000003d0: 7ebe a8bd 6cd3 0a3b 9a4b 05be c4e4 28bd
000003e0: fe43 bcbd 579a b33d e8ee 263d 1c6e 233e
000003f0: 3146 983d 6bd3 33be 13ce 36bc 9881 97bc
0.08758768 0.049038284 0.12826437 0.023295414 0.09762064 0.010063474 0.13721336 0.095194906
0.176791 -0.004662132 0.03359777 -0.1125085 0.14343631 0.028835153 0.07349591 -0.103868514
-0.005643501 0.1316889 -0.015810702 0.02340439 0.11076741 0.064264946 0.07570263 -0.08674828
-0.054566715 0.009682654 0.0016534565 -0.07755748 -0.15105139 0.13269092 -0.032707192 0.12818192
-0.05925237 0.08564874 -0.070462815 0.11798439 0.12944192 0.09455555 -0.074838884 -0.06721144
-0.13171965 -0.07582581 0.04755221 0.0731419 -0.06597257 0.06498331 0.034031425 -0.02195101
-0.052780796 0.105280235 0.046291538 0.0692561 0.13495705 0.088222586 0.099449806 0.020876221
0.09558341 0.14866243 0.12485539 0.12675601 -0.024641022 0.026905721 -0.041387174 0.12277497
0.001990719 -0.08886349 -0.038977493 -0.08725941 0.042078532 0.14195786 0.025627121 -0.021291241
-0.062259447 -0.11116497 0.04365198 0.07310131 -0.112458564 0.05467044 0.02152628 -0.1297824
0.061902054 0.050469168 -0.043568615 0.11818409 -0.058563564 0.021283494 0.13773957 0.12531897
0.11101368 -0.03259863 -0.03660041 0.059597682 0.03074786 0.12093762 0.12447656 0.12538831
0.07609983 -0.06559366 0.030408077 0.049281344 0.018431887 0.007816761 0.005539421 -0.09129518
0.014006766 -0.07609352 0.15598102 -0.02673948 0.05261689 -0.038583077 -0.08294168 0.04493364
-0.11197008 0.08875105 0.01849077 0.016341925 0.08793196 0.09055626 0.11970274 0.09158047
-0.018673211 -0.0018442202 -0.11651071 0.043713726 0.012719283 0.10401589 0.10558757 -0.123430304
-0.054129116 0.1210297 0.04071045 -0.007835612 -0.079069205 -0.2163153 0.07740547 0.07010033
0.053781316 0.09106842 -0.058379903 0.16823526 0.081075765 0.07244339 -0.003427747 -0.0969907
0.07364331 0.06989658 0.06432937 0.071563765 -0.039216146 0.1282104 0.057223294 -0.08767144
-0.015826883 -0.053053018 0.09002404 -0.111033715 -0.08388126 -0.0016230721 -0.13072436 -0.15226789
-0.08575291 0.05391284 -0.07653475 -0.011689181 0.12251537 -0.025788965 0.14815964 -0.06055605
0.0015294355 0.0008827309 -0.06057845 0.13423023 0.05134715 -0.078399666 0.07082518 -0.03517813
-0.0532319 0.11779046 0.06980421 -0.013157839 0.037422996 0.043347444 -0.059796423 0.14060177
0.20209618 0.121212676 -0.0696174 0.04095389 -0.007751591 0.16442367 -0.14132138 0.044420376
0.11880567 -0.06804062 0.0034298908 0.14547452 0.041276548 0.1947387 0.107644245 0.025314922
-0.031286445 -0.04787948 0.0975296 0.011716127 0.1612279 0.1390064 0.06790203 0.1621523
-0.014039914 0.084914915 0.14886564 -0.073484905 0.062307104 0.01635143 0.088362314 0.10348611
-0.18343309 -0.33807537 -0.16791481 -0.06525236 -0.1123243 -0.051428255 -0.25530252 -0.36031625
-0.21572061 -0.16494478 -0.02754281 0.0080090435 -0.0008670451 -0.12766355 -0.25660536 0.029980492
-0.16464023 -0.010764853 0.0076495633 -0.12026973 0.14426577 0.0062557072 -0.18512882 0.01841793
-0.03873971 -0.07453382 0.012978222 0.022074861 -0.082394585 0.0021183146 -0.13017121 -0.041233793
-0.09192656 0.08769672 0.040755183 0.15959972 0.07435263 -0.17561118 -0.01115753 -0.018494412

importance_map.genmap.bias f4 [18]
00000000: adc5 3a3d b93d 0f3e 9c02 753d d923 b03c
00000010: fba1 28be d347 f33d b005 0a3e d2af 803c
00000020: 1a14 4fbd e12e 6b3e 0302 f23d ca06 d53b
00000030: 2fc5 493d 1304 59bd 6123 973d 45de 68be
00000040: 36af 0b3e a2cf e33d
0.045598675 0.13988389 0.05981694 0.021501468 -0.1646804 0.11878934 0.13478732 0.015708838
-0.05055628 0.22967102 0.1181679 0.0065010535 0.049260315 -0.0529824 0.07379795 -0.22741039
0.13641056 0.11123587
