experiment/meta/model/model_5.pt (torch, 28984 bytes, 14 tensors)

feat_extraction.stage0.rbr_dense.conv.weight f4 [14, 3, 3, 3]
0.16853839 -0.017940905 0.038470358 0.16045323 -0.13814528 0.15622781 0.025031345 0.14153878
0.044712257 0.03497097 0.11325566 0.08088616 0.13215588 -0.036074225 0.023483241 0.038203362
0.06364352 0.015699953 0.186435 0.075851835 -0.041499667 -0.09159842 -0.03301252 -0.08125314
-0.03832059 0.007801568 0.10047152 0.10137725 -0.20804398 0.1028344 0.059247654 0.17314619
0.13091503 -0.2287543 -0.23038173 -0.12522474 0.16809282 -0.04388536 0.06978652 -0.08022777
0.18879728 -0.07285687 0.08789846 -0.043833654 -0.13462478 0.1548224 -0.05159449 0.10216793
0.007343269 0.039414313 -0.12176647 -0.09414969 0.11537475 -0.027888164 0.23650639 0.19555047
0.02190256 -0.080642 0.15998967 0.10144099 -0.08317782 0.16422401 0.15134776 0.20406015
-0.07373602 -0.005621783 0.032715317 0.06374074 -0.109233476 -0.108607925 0.13446192 -0.018573811
0.12947282 0.04827995 0.090723455 0.08052782 0.10944039 0.13371661 -0.15140328 0.1267414
-0.11175288 -0.1493364 0.07608493 -0.019843586 0.0929653 -0.06649984 -0.1873309 0.089292906
-0.017206982 0.08329306 0.039707478 -0.09267291 0.035367645 0.018928558 -0.08532482 -0.11178001
0.013312945 0.04398069 -0.11076578 -0.05434466 0.23349874 -0.012594973 0.112339154 0.13702902
-0.11399172 -0.18507937 0.20441243 0.0067671468 0.16366884 0.07370794 0.084858045 0.18271193
0.22406302 -0.10009288 0.0517152 0.18134695 0.16498627 0.15969016 -0.09521442 -0.10431387
-0.069492094 0.07524844 0.23032491 -0.088217616 0.14703387 -0.07316625 -0.1293195 0.009965038
0.14687656 0.23669524 -0.062224735 0.081483364 0.20453408 0.17281605 0.14959107 0.14690827
0.14205796 0.04398455 -0.124453105 -0.1108558 -0.07941146 -0.015406806 -0.070970915 0.08875494
0.07168584 -0.009311249 0.08012939 0.067270644 0.18371734 0.15194578 -0.06489759 0.24218164
-0.0022319907 -0.0046979603 -0.15577245 -0.1272383 -0.11747666 -0.025996452 0.1481288 -0.076095395
-0.10033134 0.080928616 0.039315302 0.11512748 -0.13066916 0.037173558 -0.048492447 -0.05854675
-0.16180608 -0.069050916 -0.059533216 0.065293685 0.04379618 0.030545034 0.19424795 0.22909644
0.13108452 -0.005967957 -0.10968948 0.14904985 -0.015641864 0.03606463 -0.15636416 0.014941197
-0.04122613 0.20265816 -0.14576198 -0.10260822 0.0027774454 -0.14090486 0.04341239 -0.12257388
-0.12163639 0.007375716 0.10851877 -0.17522918 0.07548465 0.09372576 0.16171423 -0.14007519
0.01897589 -0.1612197 0.18214886 -0.08319302 0.085258506 0.0075410088 -0.029538427 0.019917073
0.0819878 0.11073223 0.06629865 0.13210757 -0.13258536 0.1565286 0.21768138 0.1862435
0.16381007 -0.117488325 -0.028656268 0.21109954 -0.13254498 0.19874455 -0.11616313 -0.10896477
0.099537395 -0.09868443 -0.021870121 0.18334918 0.20546538 0.19391952 -0.017456194 -0.09666123
0.21975367 -0.031311322 -0.0620035 0.048451334 -0.09255787 0.13640496 0.093943514 -0.14851224
-0.13307226 -0.01005217 0.08255822 -0.061709516 -0.13549541 -0.06466199 -0.23881523 -0.17486502
-0.18441811 0.06396625 0.07318983 -0.13285004 -0.052069776 0.03853115 -0.057958964 -0.13364461
00000000: 5495 2c3e cef8 92bc 1893 1d3d da4d 243e
00000010: f575 0dbe 2ffa 1f3e 890e cd3c 8bef 103e
00000020: 3324 373d b83d 0f3d 95f2 e73d a5a7 a53d
00000030: df53 073e 91c2 13bd ed5f c03c 217b 1c3d
00000040: 8957 823d 309d 803c d1e8 3e3e 3558 9b3d
00000050: 8efb 29bd f497 bbbd 2338 07bd 0c68 a6bd
00000060: 0df6 1cbd 4ca4 ff3b 03c4 cd3d e09e cf3d
00000070: 7b09 55be d89a d23d abad 723d 3c4d 313e
00000080: 970e 063e 913e 6abe 30e9 6bbe ea3a 00be
00000090: 8620 2c3e 23c1 33bd 3cec 8e3d 754e a4bd
000000a0: 1354 413e fc35 95bd 1c04 b43d eb8a 33bd
000000b0: 14db 09be c389 1e3e be54 53bd 6b3d d13d
000000c0: ce9f f03b e770 213d b360 f9bd 8dd1 c0bd
000000d0: 9949 ec3d b875 e4bc bb2e 723e 623e 483e
000000e0: ff6c b33c a227 a5bd 55d4 233e 4bc0 cf3d
000000f0: 2259 aabd 572a 283e e8fa 1a3e 25f5 503e
00000100: e902 97bd ef36 b8bb 7f00 063d 818a 823d
00000110: cdb5 dfbd d56d debd 63b0 093e 1b28 98bc
00000120: 8694 043e 32c1 453d 38cd b93d c5eb a43d
00000130: 4822 e03d 02ed 083e 7609 1bbe 7fc8 013e
00000140: b2de e4bd a4eb 18be 6ad2 9b3d 048f a2bc
00000150: 9764 be3d 1131 88bd acd3 3fbe 33df b63d
00000160: a8f5 8cbc 8d95 aa3d 4fa4 223d 4bcb bdbd
00000170: aadd 103d 1010 9b3c c7be aebd ebec e4bd
00000180: 8a1e 5a3c 1925 343d 2bd9 e2bd 8298 5ebd
00000190: 4b1a 6f3e 255b 4ebc 1212 e63d 5651 0c3e
000001a0: 7e74 e9bd 7285 3dbe 7e51 513e f1be dd3b
000001b0: ce98 273e 30f4 963d 0eca ad3d d618 3b3e
000001c0: c770 653e 7ffd ccbd 51d3 533d 04b3 393e
000001d0: 29f2 283e d185 233e c7ff c2bd 83a2 d5bd
000001e0: df51 8ebd db1b 9a3d 4bda 6b3e 70ab b4bd
000001f0: 0c90 163e 30d8 95bd 556c 04be 6644 233c
00000200: cf66 163e 3d60 723e 5ddf 7ebd c0e0 a63d
00000210: 6271 513e b1f6 303e 672e 193e 1f6f 163e
00000220: a477 113e 2529 343d 45e1 febd 5e08 e3bd
00000230: 7aa2 a2bd d46c 7cbc 3359 91bd 26c5 b53d
00000240: 07d0 923d 358e 18bc e11a a43d 31c5 893d
00000250: 6620 3c3e ad97 1b3e 07e9 84bd 77fe 773e
00000260: 9746 12bb 59f1 99bb d082 1fbe c24a 02be
00000270: 9a97 f0bd 83f6 d4bc 13af 173e e7d7 9bbd
00000280: 857a cdbd e7bd a53d 1509 213d f5c7 eb3d
00000290: 23ce 05be 4d43 183d 04a0 46bd b8ce 6fbd
000002a0: 7eb0 25be 916a 8dbd 1ad9 73bd b2b8 853d
000002b0: a063 333d 9439 fa3c efe8 463e 4298 6a3e
000002c0: 053b 063e da8e c3bb e1a4 e0bd 86a0 183e
000002d0: 5e23 80bc 81b8 133d ed1d 20be eccb 743c
000002e0: bbdc 28bd 9f85 4f3e a142 15be 4224 d2bd
000002f0: cd05 363b 5d49 10be 31d1 313d 0408 fbbd
00000300: 801c f9bd feaf f13b 173f de3d 476f 33be
00000310: b297 9a3d 4bf3 bf3d 6a98 253e df6f 0fbe
00000320: 5373 9b3c c716 25be 3b85 3a3e 1a61 aabd
00000330: 039c ae3d 911a f73b 92fa f1bc 2129 a33c
00000340: 38e9 a73d 94c7 e23d 96c7 873d 3547 073e
00000350: 75c4 07be 0949 203e dee7 5e3e 9eb6 3e3e
00000360: d4bd 273e b89d f0bd 8dc0 eabc 7a2a 583e
00000370: dfb9 07be b183 4b3e efe6 edbd ec28 dfbd
00000380: 43da cb3d 101b cabd f828 b3bc e3bf 3b3e
00000390: 8465 523e d792 463e 4b00 8fbc 53f6 c5bd
000003a0: 1b07 613e 4d40 00bd 62f7 7dbd e874 463d
000003b0: fb8e bdbd bead 0b3e 7565 c03d 9813 18be
000003c0: 1844 08be dbb1 24bc 4914 a93d 1ec3 7cbd
000003d0: 4fbf 0abe 816d 84bd fb8b 74be d10f 33be
000003e0: 1ad8 3cbe bd00 833d 8de4 953d d709 08be
000003f0: 1e47 55bd d7d2 1d3d 6166 6dbd 22da 08be

feat_extraction.stage0.rbr_1x1.conv.weight f4 [14, 3, 1, 1]
0.33267817 0.11141755 -0.11163568 -0.4984414 0.44572088 -0.08846614 -0.33030328 0.4058017
0.24451199 0.18783121 -0.07094544 -0.12647605 0.13955447 0.49785295 0.13997331 -0.22224343
0.6397505 0.06866671 0.47797284 0.18224098 0.6004142 0.32959163 -0.2765045 0.47896165
0.017749961 -0.45153984 -0.14765255 -0.55996937 -0.33185703 -0.44334534 0.41377485 -0.07468581
-0.08705686 0.27967024 0.26542968 -0.3476441 0.16003917 0.21798575 -0.48716015 0.5335314
-0.34694493 -0.24335034
00000000: cb54 aa3e e22e e43d 3fa1 e4bd b633 ffbe
00000010: 8735 e43e bc2d b5bd 831d a9be 3ec5 cf3e
00000020: 5a61 7a3e d356 403e d84b 91bd f082 01be
00000030: 5ee7 0e3e 95e6 fe3e 2a55 0f3e c893 63be
00000040: b0c6 233f 22a1 8c3d dbb8 f43e 619d 3a3e
00000050: bfb4 193f 3cc0 a83e ff91 8dbe 763a f53e
00000060: 5e68 913c 3b30 e7be 3b32 17be 275a 0fbf
00000070: 2ae9 a9be 29fe e2be 4cda d33e e0f4 98bd
00000080: de4a b2bd f030 8f3e 66e6 873e 68fe b1be
00000090: 4fe1 233e a837 5f3e 0e6d f9be 8495 083f
000000a0: c4a2 b1be d530 79be

feat_extraction.stage1.rbr_identity.weight f4 [14]
0.8631425 0.823861 0.96599084 0.929557 0.9854672 0.9542105 0.94189215 0.9575858
0.9523267 0.9306264 0.8564367 0.92372596 0.9555577 0.86090654
00000000: e8f6 5c3f 8ee8 523f 2d4b 773f 73f7 6d3f
00000010: 9447 7c3f 2447 743f d81f 713f 5824 753f
00000020: afcb 733f 883d 6e3f 703f 5b3f 4e79 6c3f
00000030: 6e9f 743f 5f64 5c3f

feat_extraction.stage1.rbr_identity.bias f4 [14]
0.07281498 0.08131398 0.01267106 0.13496059 0.022369778 0.037200764 0.06211062 0.058997177
0.08067113 0.033345718 0.10569369 0.1794511 0.021884164 0.092792526
00000000: 0520 953d f287 a63d 479a 4f3c 1c33 0a3e
00000010: d340 b73c d45f 183d b567 7e3d 06a7 713d
00000020: e836 a53d 8595 083d ef75 d83d 07c2 373e
00000030: 6b46 b33c 020a be3d

feat_extraction.stage1.rbr_identity.running_mean f4 [14]
0.6517282 0.018827911 0.7574739 0.010158307 1.2133362 0.3793601 0.63552505 0.47710145
0.03846518 1.08599004e-07 0.046702906 0.028684437 3.705066e-08 0.15366077
00000000: a9d7 263f fe3c 9a3c cfe9 413f 076f 263c
00000010: 9a4e 9b3f 7d3b c23e c5b1 223f a446 f43e
00000020: aa8d 1d3d ef36 e933 8c4b 3f3d a0fb ea3c
00000030: a221 1f33 4059 1d3e

feat_extraction.stage1.rbr_identity.running_var f4 [14]
0.14355181 0.0029954347 0.19978306 0.0010893306 0.4943218 0.053064976 0.14611979 0.11114612
0.0019968546 1.5054825e-10 0.004482044 0.0020468433 2.8207173e-11 0.026918946
00000000: 3fff 123e 0e4f 443b ee93 4c3e dfc7 8e3a
00000010: bf17 fd3e a95a 593d 6da0 153e 94a0 e33d
00000020: a9dd 023b 9187 252f 1cde 923b 5524 063b
00000030: e81c f82d 1f85 dc3c

feat_extraction.stage1.rbr_dense.conv.weight f4 [14, 14, 3, 3]
0.008179861 0.15154758 0.08993553 0.14841637 0.06584464 0.11088419 0.038902257 -0.012796966
0.06426978 -0.015005343 -0.011629545 -0.051631164 0.0042531686 0.02860998 0.019409081 -0.08954019
0.038686525 -0.0038484656 0.111942545 0.1046523 -0.01812678 0.13456568 -0.056683205 0.08781638
0.049632806 0.07243468 -0.023327094 0.0712078 -0.06610917 -0.11367863 -0.0077940715 0.12668577
0.06196834 -0.09431212 0.1467439 0.026498478 0.0058903284 -0.024975926 0.09888231 -9.835694e-06
0.078341454 -0.03959964 0.112252735 0.064561136 0.022783628 0.08584292 -0.012144631 0.04860831
0.05020613 -0.0179381 0.030977167 0.0073612225 0.115722805 0.11533491 0.1195516 0.11617788
-0.02579955 0.0706603 0.05910373 -0.026058055 0.07708794 -0.021922763 0.037218243 0.047159083
0.08907592 -0.019743372 -0.04779755 0.08816801 0.049242143 0.07147469 0.0446687 -0.021776764
0.16337918 -0.14790975 0.02470245 0.1153446 0.09837982 -0.056175094 -0.10079365 0.100927144
-0.034479864 -0.067666136 -0.07367188 -0.047736626 -0.019535147 -0.053732496 -0.035343636 -0.08749851
0.046390817 -0.026677141 -0.0011827175 0.075932406 0.0043217153 0.103609666 0.09233901 -0.040464472
-0.08247829 -0.050912432 -0.06735448 0.07384408 -0.022989215 0.101295225 0.09960168 0.094642505
0.07671141 -0.093419306 0.084305674 0.065019995 -0.037931755 -0.058307044 0.015836675 0.023256395
0.038753375 0.026103973 -0.01474536 -0.069723815 0.0564482 0.0390909 -0.0038209716 0.13379703
0.07315172 -0.048794262 -0.01511493 -0.021216456 -0.023110595 0.08880702 -0.07917468 0.066639595
-0.049582865 0.04020253 -0.007264065 -0.046805315 0.05046172 -0.07795858 -0.051266484 0.1039722
0.16560674 0.0594714 0.037941404 0.04292801 0.05471859 0.072468154 0.099793576 0.056414776
0.056586724 0.027788818 -0.025420139 -0.017982002 0.055403456 0.03906786 0.09475492 0.022361705
-0.03037974 -0.021079041 -0.02492927 0.06634615 0.10171264 -0.029833438 0.09119707 0.06800611
-0.0024531144 0.0959391 -0.007070191 0.098133385 0.043971356 -0.041296866 -0.030279336 0.07992458
0.057642438 0.08903433 0.018541109 0.10059943 0.07910838 0.05714182 0.019348511 0.12825474
0.055148613 0.011645652 0.0409236 0.12573785 0.0871775 0.01690193 0.11195036 0.07140514
-0.019116733 -0.049447425 0.07960906 0.11493181 -0.013689033 0.09792359 0.0659626 0.048003085
0.034029044 0.08725053 0.09067777 0.111327164 0.09336562 0.10810191 -0.020702796 0.0022172823
-0.06232822 -0.10354398 0.017351268 -0.14324096 0.01302611 -0.011976996 -0.127598 0.061059482
-0.017691625 0.06954664 0.079529725 -0.020840354 0.009850934 -0.026420964 -0.030131605 -0.011369606
-0.08848211 -0.13576499 -0.18550158 -0.09281324 -0.07261041 -0.1034275 0.050076816 0.043659512
0.02875092 0.017238606 -0.11614318 0.06817262 -0.022079684 -0.045872692 -0.047016434 0.09925145
-0.062308475 0.019300213 -0.06340206 -0.0615498 -0.048477285 0.0830123 -0.012172571 0.021748092
-0.092606165 0.074656256 -0.024567619 -0.22674903 -0.08924449 -0.18848002 -0.08351011 -0.23494406
-0.26281828 -0.21003568 -0.109472804 -0.16354764 -0.06600058 0.022102084 0.005300395 0.045853
00000000: d304 063c 4a2f 1b3e 1f30 b83d 76fa 173e
00000010: 8ed9 863d 4017 e33d f957 1f3d 5eaa 51bc
00000020: e09f 833d f8d8 75bc d989 3ebc 337b 53bd
00000030: 2a5e 8b3b 7a5f ea3c cbff 9e3c d960 b7bd
00000040: c375 1e3d 8a36 7cbb 2242 e53d f253 d63d
00000050: 9d7e 94bc 96cb 093e a62c 68bd 13d9 b33d
00000060: c54b 4b3d a258 943d 7618 bfbc 65d5 913d
00000070: 3f64 87bd 57d0 e8bd 6965 ffbb eab9 013e
00000080: 84d2 7d3d b626 c1bd 0844 163e 5613 d93c
00000090: a803 c13b 509a ccbc cf82 ca3d fc03 25b7
000000a0: 7c71 a03d 3b33 22bd c3e4 e53d a138 843d
000000b0: bba4 ba3c 6ace af3d 46fa 46bc 8219 473d
000000c0: f1a4 4d3d ecf2 92bc d4c3 fd3c 6936 f13b
000000d0: 1400 ed3d b634 ec3d 78d7 f43d abee ed3d
000000e0: 9459 d3bc 59b6 903d c116 723d b477 d5bc
000000f0: 48e0 9d3d 5e97 b3bc 2872 183d e229 413d
00000100: 706d b63d dabc a1bc 5dc7 43bd 6e91 b43d
00000110: 21b2 493d 5361 923d 87f6 363d 2f65 b2bc
00000120: df4c 273e a775 17be cb5c ca3c ca39 ec3d
00000130: 5c7b c93d db17 66bd e76c cebd e4b2 ce3d
00000140: c23a 0dbd 8b94 8abd 48e1 96bd 7b87 43bd
00000150: 2c08 a0bc 9b16 5cbd 7dc4 10bd 6b32 b3bd
00000160: 4c04 3e3d 058a dabc 6a05 9bba 7382 9b3d
00000170: 2d9d 8d3b 4e31 d43d 3c1c bd3d 13be 25bd
00000180: 61ea a8bd 8e89 50bd 25f1 89bd 913b 973d
00000190: e153 bcbc df73 cf3d f7fb cb3d eed3 c13d
000001a0: df1a 9d3d 9f52 bfbd 74a8 ac3d 3429 853d
000001b0: 545e 1bbd 5ed3 6ebd eabb 813c 3284 be3c
000001c0: dcbb 1e3d 00d8 d53c 8696 71bc 5ccb 8ebd
000001d0: 3a36 673d c81d 203d 4469 7abb 1702 093e
000001e0: 92d0 953d 7edc 47bd 9da4 77bc 22ce adbc
000001f0: 6e52 bdbc 74e0 b53d 5626 a2bd 577a 883d
00000200: 6717 4bbd 68ab 243d 6507 eebb eeb6 3fbd
00000210: f3b0 4e3d bfa8 9fbd cefc 51bd 60ef d43d
00000220: d094 293e 4898 733d 7268 1b3d 48d5 2f3d
00000230: 9a20 603d 2f6a 943d 9360 cc3d 2e13 673d
00000240: 7bc7 673d 60a5 e33c e53d d0bc fe4e 93bc
00000250: bcee 623d 9f05 203d de0e c23d e52f b73c
00000260: efde f8bc f4ad acbc 7838 ccbc 7ee0 873d
00000270: b74e d03d 4165 f4bc 88c5 ba3d ca46 8b3d
00000280: 6ec4 20bb b87b c43d 10ad e7bb 28fa c83d
00000290: 4f1b 343d e726 29bd 5f0c f8bc 80af a33d
000002a0: 7a1a 6c3d a157 b63d 86e3 973c 1307 ce3d
000002b0: 9303 a23d 8b0d 6a3d c580 9e3c 3655 033e
000002c0: 83e3 613d 68cd 3e3c 819f 273d 6cc1 003e
000002d0: 1e8a b23d eb75 8a3c 3b46 e53d dc3c 923d
000002e0: b29a 9cbc 6289 4abd 130a a33d 5e61 eb3d
000002f0: f747 60bc 2a8c c83d 6617 873d e29e 443d
00000300: 0a62 0b3d 68b0 b23d 44b5 b93d 7fff e33d
00000310: 7936 bf3d 8964 dd3d e998 a9bc d34f 113b
00000320: e04b 7fbd de0e d4bd 3f24 8e3c c2ad 12be
00000330: 776b 553c 2a3b 44bc 0da9 02be 8219 7a3d
00000340: 07ee 90bc 786e 8e3d 7be0 a23d 64b9 aabc
00000350: d065 213c c770 d8bc 8ed6 f6bc 9547 3abc
00000360: 1c36 b5bd fa05 0bbe 20f4 3dbe de14 bebd
00000370: c4b4 94bd ccd1 d3bd 591d 4d3d 51d4 323d
00000380: 0d87 eb3c fa37 8d3c 7adc edbd 169e 8b3d
00000390: 74e0 b4bc 01e5 3bbd 4e94 40bd 5844 cb3d
000003a0: 2c37 7fbd 7b1b 9e3c f0d8 81bd a51b 7cbd
000003b0: 1e90 46bd 5a02 aa3d 776f 47bc 0e29 b23c
000003c0: 4da8 bdbd 61e5 983d 0842 c9bc e630 68be
000003d0: d1c5 b6bd e800 41be 5907 abbd 2d95 70be
000003e0: 1e90 86be 9813 57be 4733 e0bd 0879 27be
000003f0: 502b 87bd 6e0f b53c f0ae ad3b 5bd0 3b3d

feat_extraction.stage1.rbr_1x1.conv.weight f4 [14, 14, 1, 1]
0.056754854 -0.20677292 0.02025305 -0.012306056 -0.047921285 -0.01586107 0.09056858 -0.056472216
-0.14990982 -0.13441826 -0.18274589 -0.14313444 0.12836827 0.17055295 0.19166638 0.120959625
-0.073389836 -0.17059574 0.15241575 -0.11914123 0.22804207 -0.08248648 -0.29730505 -0.18137926
0.15267394 0.18514605 0.06033509 -0.16825028 0.23117861 0.09177708 0.1604006 -0.15719302
0.049387045 0.2463007 -0.18884708 0.2811861 -0.22273709 -0.07943469 -0.041865848 0.05664139
0.07898923 -0.17034702 0.124336965 0.2033851 -0.009720217 -0.17024924 0.27508453 -0.12130965
-0.12488671 0.2892454 -0.11799564 0.15649074 0.25267237 -0.0048313793 -0.22939749 -0.026489347
0.096012086 0.2451178 -0.025907122 -0.026232319 -0.08171699 -0.19249217 0.25559953 -0.028828286
-0.07985976 -0.18410523 0.21404243 0.12976068 0.17112568 0.09859758 -0.039596833 0.108014576
0.031879723 -0.061638027 0.08734189 -0.121240094 -0.15556632 -0.018311149 -0.2288784 0.0050592055
0.051658724 0.22223677 0.07841128 -0.016724063 -0.16235533 -0.062137403 0.010934913 -0.08631417
0.09595183 0.23848219 0.20549814 -0.048122413 -0.036392853 0.26299924 -0.035670795 -0.17712523
-0.0035096337 -0.015051527 -0.08987269 0.04066895 -0.17309661 0.12237471 -0.15461431 0.12768583
0.24410956 -0.11083386 -0.053468175 0.02215054 0.025529714 0.19559443 -0.018837735 -0.0131049985
-0.047099162 0.17911562 0.07537801 0.007649487 0.14768209 -0.049015407 0.23593013 -0.29903436
0.14638369 0.14522645 0.27253366 0.19578077 -0.12235927 -0.051974196 -0.1616506 0.310754
-0.18471456 -0.03900885 0.18400699 0.18606965 -0.17644739 0.094042264 0.08137254 0.19129258
0.08332605 0.29779726 -0.0534365 0.34338447 0.055574086 -0.1639879 0.08776014 -0.048473928
0.113491096 0.2303832 -0.1614956 -0.20009229 0.27500418 -0.025336737 0.04795897 0.37301978
0.11084205 0.11712295 0.08233714 0.07182942 -0.15064478 0.3323867 -0.14517108 0.10472665
0.21746303 -0.25023246 0.16762067 0.26817954 0.20854335 0.13444705 0.043823283 -0.14312151
0.06973716 0.35187608 0.29155344 0.060226463 0.14052907 -0.0024149464 -0.013162888 0.072862014
-0.21780236 0.055724893 0.16808182 -0.0009843248 -0.078960426 -0.21736765 0.07403466 0.06640586
0.2581735 -0.16819212 -0.20657182 0.0076152035 0.25416574 -0.00079312624 0.1944421 0.05166379
0.039709184 0.20210868 0.18807536 0.0032585536
00000000: c777 683d 48bc 53be b9e9 a53c 579f 49bc
00000010: 1c49 44bd 13ef 81bc 057c b93d 694f 67bd
00000020: f681 19be f1a4 09be bd21 3bbe d691 12be
00000030: f972 033e 6fa5 2e3e 3144 443e aeb9 f73d
00000040: 694d 96bd a6b0 2ebe e012 1c3e 5100 f4bd
00000050: dc83 693e acee a8bd 5e38 98be 7cbb 39be
00000060: 8f56 1c3e ed96 3d3e ed21 773d cd49 2cbe
00000070: 16ba 6c3e 9ff5 bb3d 0e40 243e 35f7 20be
00000080: 124a 4a3d 4036 7c3e 2161 41be a0f7 8f3e
00000090: 3115 64be a8ae a2bd 867b 2bbd cd00 683d
000000a0: 1bc5 a13d 736f 2ebe 61a4 fe3d 2f44 503e
000000b0: 8c41 1fbc d155 2ebe e1d7 8c3e 3271 f8bd
000000c0: 9ac4 ffbd f917 943e b3a7 f1bd 1c3f 203e
000000d0: 465e 813e 8c50 9ebb 2de7 6abe 3000 d9bc
000000e0: fca1 c43d 2900 7b3e 2c3b d4bc 29e5 d6bc
000000f0: 3d5b a7bd ab1c 45be f1dd 823e 4c29 ecbc
00000100: 848d a3bd 1586 3cbe f02d 5b3e fcdf 043e
00000110: 923b 2f3e 87ed c93d 4a30 22bd bf36 dd3d
00000120: 5094 023d 2878 7cbd 4ee0 b23d ba4c f8bd
00000130: c74c 1fbe 4301 96bc 195f 6abe b1c7 a53b
00000140: 1998 533d 0992 633e 1896 a03d e700 89bc
00000150: 7a40 26be ca83 7ebd 5928 333c 7cc5 b0bd
00000160: 6582 c43d ad34 743e 1b6e 523e 021c 45bd
00000170: ac10 15bd d6a7 863e 8a1b 12bd 5160 35be
00000180: e201 66bb ae9a 76bc 2c0f b8bd 7c94 263d
00000190: 3d40 31be 989f fa3d 3753 1ebe 13c0 023e
000001a0: dbf7 793e ddfc e2bd 7201 5bbd 0d75 b53c
000001b0: b123 d13c e849 483e 9851 9abc 59b6 56bc
000001c0: 0deb 40bd 166a 373e c95f 9a3d 8ca8 fa3b
000001d0: f939 173e 61c4 48bd ab97 713e 081b 99be
000001e0: 9be5 153e 3eb6 143e 8889 8b3e c17a 483e
000001f0: 7f97 fabd e5e2 54bd bc87 25be 261b 9f3e
00000200: d025 3dbe bec7 1fbd 546c 3c3e 0b89 3e3e
00000210: a0ae 34be 3b99 c03d a5a6 a63d 34e2 433e
00000220: d9a6 aa3d e278 983e 3be0 5abd 17d0 af3e
00000230: a7a1 633d 72ec 27be 97bb b33d 998c 46bd
00000240: 056e e83d 93e9 6b3e 1a5f 25be fee4 4cbe
00000250: 59cd 8c3e fd8e cfbc a070 443d 73fc be3e
00000260: 2801 e33d 28de ef3d 60a0 a83d 4e1b 933d
00000270: a042 1abe 972e aa3e baa7 14be ed7a d63d
00000280: a1ae 5e3e 781e 80be c1a4 2b3e d44e 893e
00000290: 638c 553e 7dac 093e 0b80 333d 728e 12be
000002a0: 5bd2 8e3d 1a29 b43e 7e46 953e 06b0 763d
000002b0: dae6 0f3e 1444 1ebb 27a9 57bc ae38 953d
000002c0: 9507 5fbe c93f 643d a41d 2c3e 7604 81ba
000002d0: 01b6 a1bd a095 5ebe 7c9f 973d ccff 873d
000002e0: 512f 843e 8e3a 2cbe 9087 53be f588 f93b
000002f0: 0322 823e cde9 4fba d41b 473e 699d 533d
00000300: 19a6 223d 94f5 4e3e d496 403e 758d 553b

feat_extraction.stage2.rbr_dense.conv.weight f4 [12, 14, 3, 3]
-0.07277694 -0.08620076 -0.026246356 -0.03084878 0.050589554 -0.09296387 0.0313766 -0.071868226
0.0045916815 -0.00014269316 0.079716966 -0.047132105 -0.025352424 0.05617157 0.093634635 -0.016730914
0.05929888 0.009969424 -0.09568506 0.015775833 -0.009444364 0.046534684 0.06970837 0.075354464
0.039183777 -0.07093038 -0.07484782 -0.04807522 0.07743585 -0.019674515 -0.0288482 -0.010290876
-0.0119892415 0.016892994 0.089362465 -0.00833314 -0.017668463 0.038390297 -0.020415343 0.054392222
0.072923444 0.015600351 -0.079142906 0.072969496 -0.045965943 -0.04855604 0.06526899 -0.03750828
0.023814589 0.092309564 0.0016120865 -0.035839114 0.08005825 0.01618822 0.02241933 -0.03164931
-0.07799358 0.015821042 -0.039767906 -0.036272794 -0.08609474 0.07179424 -0.061964303 0.02945518
0.041771058 0.087104134 0.045571692 -0.044596456 0.055413917 -0.061110612 0.0014824511 -0.028960718
0.031206246 0.01713291 -0.13345125 0.057195622 -0.07106497 0.01922127 -0.014285829 -0.03967706
0.026571024 -0.04119034 0.03504758 0.0424259 0.09045349 0.033070385 0.0009822453 -0.044698194
-0.010136361 0.048601396 -0.110347226 -0.11845093 0.0031920015 -0.01742762 -0.015479782 -0.042689845
-0.05522749 -0.06910904 -0.053764965 -0.0674154 -0.027904017 0.032251414 -0.08149051 0.09096899
-0.08753375 0.010941041 0.0018032235 -0.14526412 0.022857163 0.10649335 -0.01684087 0.11094553
0.03153466 0.0044475123 0.05817539 0.09523719 0.09716534 0.07515215 -0.074378446 -0.023044303
0.025172273 -0.042684924 0.03963432 -0.04248941 -0.10597333 -0.052149087 -0.10446264 -0.023764342
-0.17110622 -0.08568394 -0.040534753 -0.06667641 -0.10949026 0.020083275 -0.13742003 -0.0750532
0.09162043 -0.05243101 0.10140054 0.121639825 0.01729797 -0.047538362 -0.08526043 -0.035405625
0.016389385 -0.025860628 -0.09018564 -0.069723785 -0.037803948 -0.05219888 0.04240466 -0.031884734
0.0045137433 -0.1301958 0.16969396 -0.0016120223 -0.14627767 0.0041371216 -0.02155731 -0.06052263
0.11210787 -0.0673934 -0.020882407 -0.10211251 0.028059447 -0.08834109 -0.041430105 0.024401823
0.016781988 -0.13185336 -0.0011519734 -0.0027491949 -0.067028195 -0.029646654 0.04943257 0.048427608
-0.11039633 -0.038209468 -0.025614543 -0.03838527 0.051219612 -0.10346045 -0.14300379 -0.060609687
-0.06044896 -0.18374409 -0.10300221 -0.100931086 -0.086542435 0.044224434 0.056162227 0.04109294
-0.057067614 0.015949158 -0.010286303 -0.079816 -0.09089698 -0.03859753 -0.059479035 0.008230092
-0.049114723 0.007638322 -0.007896379 -0.055804014 0.105193235 -0.12987542 -0.011598667 0.06275882
0.14434475 0.048544668 -0.020395434 0.06962128 0.091309756 0.047620513 -0.015076813 0.02043341
0.0022917215 0.048904162 -0.0035896364 0.041676857 0.11507371 0.02943793 0.038125657 0.04345906
0.017053995 -0.027679928 0.024021666 -0.09178878 0.076480895 0.10631842 0.018919533 0.067969166
0.02209708 -0.051315088 -0.02668481 0.036005747 0.056646533 -0.006835798 0.031031536 0.0017485048
0.0072075757 0.008257358 0.046973 0.015093818 -0.014341837 0.04657928 0.05330666 -0.017295364
0.05262166 -0.048646048 0.06840428 0.037795648 -1.06053585e-05 0.019891595 -0.04594234 -0.08684122
00000000: 140c 95bd 068a b0bd 9902 d7bc 95b6 fcbc
00000010: fe36 4f3d d763 bebd c084 003d a62f 93bd
00000020: d175 963b e79f 15b9 a642 a33d 980d 41bd
00000030: e3af cfbc 2914 663d 84c3 bf3d 450f 89bc
00000040: 62e3 723d cc56 233c 87f6 c3bd 523c 813c
00000050: 89bc 1abc 279b 3e3d 43c3 8e3d 7153 9a3d
00000060: 2b7f 203d f243 91bd d049 99bd 86ea 44bd
00000070: b096 9e3d 732c a1bc 0f53 ecbc 109b 28bc
00000080: 866e 44bc 2d63 8a3c ab03 b73d b987 08bc
00000090: 74bd 90bc 253f 1d3d 143e a7bc 61ca 5e3d
000000a0: e358 953d 9d98 7f3c ad15 a2bd 0871 953d
000000b0: c946 3cbd b3e2 46bd c0ab 853d 48a2 19bd
000000c0: d016 c33c cc0c bd3d a64c d33a 09cc 12bd
000000d0: 94f5 a33d 289d 843c bea8 b73c b5a2 01bd
000000e0: 19bb 9fbd 219b 813c ace3 22bd c892 14bd
000000f0: 7052 b0bd dc08 933d 48ce 7dbd fd4b f13c
00000100: 2118 2b3d a763 b23d 62a9 3a3d c6aa 36bd
00000110: b4f9 623d 1f4f 7abd ce4e c23a 073f edbc
00000120: 3ea4 ff3c 515a 8c3c 72a7 08be f545 6a3d
00000130: 838a 91bd ed75 9d3c 1c0f 6abc 6a84 22bd
00000140: 7aab d93c 34b7 28bd 0d8e 0f3d c8c6 2d3d
00000150: ae3f b93d d074 073d afbe 803a 7415 37bd
00000160: fb12 26bc 4212 473d bafd e1bd 6796 f2bd
00000170: e630 513b 5ec4 8ebc e99e 7dbc 8cdb 2ebd
00000180: 3836 62bd 0a89 8dbd a738 5cbd 1611 8abd
00000190: f796 e4bc 0f1a 043d 7fe4 a6bd f34d ba3d
000001a0: e544 b3bd 0d42 333c 245a ec3a 1ec0 14be
000001b0: f23e bb3c 2f19 da3d ddf5 89bc 6937 e33d
000001c0: 7d2a 013d 70bc 913b 5149 6e3d b70b c33d
000001d0: 9ffe c63d 5fe9 993d ba53 98bd 68c7 bcbc
000001e0: 1536 ce3c 63d6 2ebd 9957 223d 6009 2ebd
000001f0: 8c08 d9bd 489a 55bd 82f0 d5bd 70ad c2bc
00000200: 7836 2fbe 107b afbd c507 26bd a48d 88bd
00000210: 6e3c e0bd ae85 a43c d6b7 0cbe 7eb5 99bd
00000220: 7ea3 bb3d e6c1 56bd 16ab cf3d 4d1e f93d
00000230: 79b4 8d3c 96b7 42bd 059d aebd 7d05 11bd
00000240: 0843 863c abd9 d3bc 40b3 b8bd 58cb 8ebd
00000250: 50d8 1abd 7ece 55bd 82b0 2d3d 9199 02bd
00000260: 06e8 933b 0c52 05be 41c4 2d3e 7e4a d3ba
00000270: d0c9 15be b190 873b f598 b0bc 94e6 77bd
00000280: d098 e53d 8d05 8abd 9511 abbc 5d20 d1bd
00000290: eddc e53c 2cec b4bd 9db2 29bd 55e6 c73c
000002a0: 617a 893c 9104 07be d0fd 96ba d62b 34bb
000002b0: 1446 89bd 8add f2bc ce79 4a3d 075c 463d
000002c0: 7917 e2bd 8881 1cbd 97d5 d1bc df39 1dbd
000002d0: a8cb 513d 13e3 d3bd 966f 12be dd41 78bd
000002e0: 5499 77bd 6927 3cbe d3f2 d2bd f5b4 cebd
000002f0: 293d b1bd ae24 353d 5d0a 663d 1251 283d
00000300: bbbf 69bd cfa7 823c e287 28bc 9276 a3bd
00000310: 3228 babd 7218 1ebd 4aa0 73bd 82d7 063c
00000320: 852c 49bd e44a fa3b d05f 01bc c092 64bd
00000330: 8d6f d73d 10fe 04be 5608 3ebc b287 803d
00000340: 1ccf 133e c6d6 463d 5314 a7bc 9a95 8e3d
00000350: 9c00 bb3d ba0d 433d bd04 77bc f763 a73c
00000360: b530 163b bb4f 483d 1b40 6bbb 5ab5 2a3d
00000370: c4ab eb3d d027 f13c a629 1c3d 2102 323d
00000380: d2b4 8b3c 04c1 e2bc 16c9 c43c c2fb bbbd
00000390: 04a2 9c3d 79bd d93d 23fd 9a3c 6b33 8b3d
000003a0: ef04 b53c c52f 52bd 1a9a dabc c37a 133d
000003b0: 3206 683d d4fe dfbb d935 fe3c 162e e53a
000003c0: 872d ec3b df49 073c c366 403d 104c 773c
000003d0: 06fa 6abc eac9 3e3d 1658 5a3d 02af 8dbc
000003e0: cf89 573d 1441 47bd 8b17 8c3d 9ccf 1a3d
000003f0: abed 31b7 b3f3 a23c 092e 3cbd cfd9 b1bd

feat_extraction.stage2.rbr_1x1.conv.weight f4 [12, 14, 1, 1]
-0.13148053 -0.07805452 -0.21241134 0.10222204 -0.021435956 0.045750532 0.27356213 0.060185812
0.10131564 0.06425159 -0.01754974 0.18609646 0.12257845 -0.033263583 -0.0407272 -0.04675868
-0.0021756005 0.19411671 0.20373678 0.22587779 -0.1908152 -0.008380625 0.024949262 0.23964483
-0.027728468 -0.025306227 0.14447582 -0.12891713 0.25222185 -0.1392034 0.10975571 -0.06302651
-0.20406432 -0.25399852 0.112581074 -0.10067371 -0.13786478 0.29721704 0.1910629 0.29806924
-0.10096359 0.02156745 0.03285964 -0.0112353265 0.11368817 0.066413485 -0.08022516 -0.04185267
-0.13489027 -0.1879135 0.104024224 -0.06485154 -0.11226248 -0.13316329 0.16449626 -0.06539851
0.19565934 0.09387628 -0.08849479 0.24947467 -0.0871031 -0.24315938 0.17983891 -0.15641713
0.22326826 0.21870798 -0.06893736 -0.06046057 0.11257562 0.11209877 0.20647927 0.0825271
0.028675206 0.18990295 0.0397865 -0.20489608 -0.04512033 -0.026452692 -0.0020834408 -0.2283076
-0.260312 -0.08931251 0.0780387 0.110682175 -0.2150348 0.124534085 0.038326424 0.17121631
-0.13636291 -0.07419029 0.11620734 -0.24196094 0.09302899 -0.083619475 0.0673621 -0.11004137
0.25719813 0.059172772 0.028216567 -0.12155849 -0.18386942 -0.015613681 -0.14995314 0.02742369
0.25943515 0.12016727 -0.083638944 -0.05633063 0.1326628 -0.01629425 -0.17546 -0.017047742
0.14434928 -0.11996562 -0.047627416 -0.060081214 0.15109287 -0.1233318 -0.06237569 0.10848163
-0.116302624 0.2594443 -0.17488435 -0.18083286 -0.0028226972 -0.14022969 -0.26038474 -0.15730256
-0.23462169 0.24758984 0.03620707 -0.12058568 0.119951844 0.03275994 -0.11491484 0.21439832
-0.1372846 -0.055131286 0.22882588 0.16779345 0.11254993 0.1110958 -0.104895696 -0.24878903
-0.007757142 0.13637035 0.18801288 -0.04340274 -0.11679963 0.025860216 0.21378556 0.07210584
0.28032255 -0.11184245 0.06277662 -0.13585544 0.029662726 0.18551658 -0.2092436 0.23063771
0.22578466 0.22248304 -0.07563797 0.21293615 0.069656044 -0.088356294 0.29849792 -0.2269262
00000000: d5a2 06be 0cdb 9fbd 5c82 59be ca59 d13d
00000010: 759a afbc e964 3b3d 5610 8c3e 6685 763d
00000020: 937e cf3d 5696 833d 79c4 8fbc 1290 3e3e
00000030: 690a fb3d 653f 08bd 91d1 26bd 0886 3fbd
00000040: 8594 0ebb 88c6 463e 60a0 503e 824c 673e
00000050: 0f65 43be e44e 09bc 6562 cc3c 7465 753e
00000060: d026 e3bc 014f cfbc 78f1 133e da02 04be
00000070: 3923 813e 568b 0ebe 9ac7 e03d 0b14 81bd
00000080: 3df6 50be 180c 82be e890 e63d 052e cebd
00000090: 6d2c 0dbe d52c 983e fea5 433e 889c 983e
000000a0: 00c6 cebd 39ae b03c d497 063d 6014 38bc
000000b0: 58d5 e83d cb03 883d 174d a4bd b56d 2bbd
000000c0: ad20 0abe 666c 40be a70a d53d e2d0 84bd
000000d0: dfe9 e5bd f55b 08be b571 283e a7ef 85bd
000000e0: ec5a 483e 3542 c03d c23c b5bd 4a76 7f3e
000000f0: 1c63 b2bd c6fe 78be b127 383e d02b 20be
00000100: 6fa0 643e fcf4 5f3e 082f 8dbd 81a5 77bd
00000110: 0c8e e63d 0a94 e53d 4d6f 533e f803 a93d
00000120: 44e8 ea3c eb75 423e 2bf7 223d 47d0 51be
00000130: 18d0 38bd 51b3 d8bc 568a 08bb 78c9 69be
00000140: 9d47 85be 7ae9 b6bd c1d2 9f3d 56ad e23d
00000150: 1532 5cbe ba0b ff3d 2bfc 1c3d 5453 2f3e
00000160: b8a2 0bbe 14f1 97bd 1dfe ed3d 9cc4 77be
00000170: fc85 be3d b040 abbd 24f5 893d 5f5d e1bd
00000180: 79af 833e 265f 723d 6e26 e73c a8f3 f8bd
00000190: 4448 3cbe 86d0 7fbc 518d 19be a5a7 e03c
000001a0: afd4 843e 421a f63d e54a abbd f2ba 66bd
000001b0: c2d8 073e 857b 85bc c9ab 33be b5a7 8bbc
000001c0: 4cd0 133e 89b0 f5bd f714 43bd b817 76bd
000001d0: 17b8 1a3e 6295 fcbd a77d 7fbd 9e2b de3d
000001e0: 1230 eebd e2d5 843e e214 33be 402c 39be
000001f0: 00fd 38bb 5f98 0fbe 2651 85be ec13 21be
00000200: ab40 70be 3188 7d3e dd4d 143d a0f5 f6bd
00000210: 50a9 f53d 492f 063d 7958 ebbd 3c8b 5b3e
00000220: 5694 0cbe 58d1 61bd 5551 6a3e 0cd2 2b3e
00000230: 9480 e63d 3286 e33d 8ed3 d6bd 8dc2 7ebe
00000240: a02f febb aba4 0b3e 7386 403e 12c7 31bd
00000250: a534 efbd ced8 d33c 9aea 5a3e 3aac 933d
00000260: 7086 8f3e a80d e5bd 0791 803d b01d 0bbe
00000270: 3fff f23c 0ff8 3d3e f443 56be 4b2c 6c3e
00000280: 1834 673e 98d2 633e 14e8 9abd ef0b 5a3e
00000290: d4a7 8e3d 25f4 b4bd b8d4 983e 575f 68be

importance_map.upscale.weight f4 [12, 6, 3, 3]
0.0500809 0.04295537 0.070107624 -0.018848903 -0.038584463 0.035886586 -0.12625459 -0.026585825
-0.028535776 -0.15708798 -0.013996098 0.0944658 -0.00021748539 -0.026169555 0.034946643 0.0012820584
0.050369304 0.0334642 -0.058370665 -0.1477052 0.07811902 0.13751812 -0.09979056 0.16993907
0.11862701 0.08874092 0.14914085 0.06813982 0.05978723 -0.0720768 -0.048637997 -0.0427132
0.02994242 0.026352849 0.035565227 -0.06049138 0.07467736 -0.048727863 -0.08571043 0.17914374
0.1793444 0.19738993 0.008239163 0.1947468 0.028509123 -0.13439639 0.12754908 -0.03113205
-0.10171708 0.15908158 0.021603841 0.04934718 -0.023624592 -0.12997638 0.14149599 0.06951634
0.06310839 0.08983036 0.1899945 0.30887485 -0.02584789 0.054961015 0.2112765 0.05893748
0.19605194 -0.082688145 0.14800669 -0.0048959292 0.03878917 0.061223414 0.0882778 0.22104102
-0.13142718 -0.12099723 -0.10517883 0.06259785 0.03628748 0.10968062 -0.0014885712 -0.22777925
-0.0116396835 0.0131014325 0.06727106 0.10830359 -0.086020544 0.055336036 -0.029664861 -0.006260383
0.0018870451 0.0830366 0.08797942 0.023097858 -0.050936773 -0.04990945 -0.017008679 -0.025547402
0.037519123 -0.041134045 -0.034292396 -0.017487869 0.017785652 -0.21845888 -0.095282994 0.15179719
-0.09206827 -0.09439431 0.051362555 -0.2198798 0.114615224 -0.109671704 -0.04300776 0.08298742
0.12294427 0.101475455 -0.0465407 0.06402162 0.06252158 -0.099648364 -0.0905435 0.014227932
0.114105314 -0.040629316 0.046253327 0.08901055 0.08607507 0.0584517 -0.0398972 0.09305423
-0.12266758 0.019828245 0.05182102 -0.0123857 0.12110229 -0.11077875 -0.08243479 0.14757015
-0.025763325 0.058152463 0.04313324 0.13077904 0.03297432 0.013999066 -0.04008385 0.012901865
-0.100267366 0.03928063 -0.009766917 -0.090831116 -0.031275 -0.022070253 0.033582702 -0.10529314
0.12719783 -0.12591971 0.14120044 0.0017886206 0.07327988 0.05316578 -0.09205417 -0.12165265
0.033610955 -0.023176555 -0.03579872 -0.084765114 -0.00016465661 0.043530546 -0.12921149 -0.10566945
0.10069433 0.009887209 -0.0068430617 -0.17351855 0.050453383 0.17145625 -0.08254404 0.040054243
-0.12566721 0.094036646 0.025865199 -0.08997189 0.031068878 -0.15048635 0.012430418 0.007111297
-0.1685898 0.07007217 0.12091857 -0.11611024 0.109771185 -0.11580537 -0.058558084 -0.026653072
-0.025194151 -0.12271154 -0.08392088 -0.039898794 -0.1711674 -0.039404873 -0.04107042 0.08431268
-0.013279091 -0.0030896277 -0.06274028 -0.105944514 0.11789032 -0.11056178 0.1349343 -0.11761959
0.13436247 0.06965688 0.0587983 0.09558167 -0.079815105 -0.16856389 0.039338205 -0.16536395
0.018911863 -0.11625643 -0.021877937 0.12158278 0.03232144 -0.03616852 0.16089934 -0.045349427
-0.10216826 0.02740937 0.09439017 -0.026087852 -0.11052414 0.06360225 0.0094979005 -0.05192234
-0.04116163 0.039370943 0.09411527 -0.036322486 0.14000951 0.15522946 0.040347606 -0.07454188
-0.03958732 -0.04796906 0.02552194 -0.06710229 -0.17453334 -0.030352192 -0.057148598 0.032792717
-0.0444856 0.020126496 0.041091036 0.08865747 0.0017055861 0.06779851 -0.09790563 0.07064596
00000000: a121 4d3d f8f1 2f3d 9694 8f3d 0469 9abc
00000010: be0a 1ebd d0fd 123d e248 01be 84ca d9bc
00000020: dcc3 e9bc acdb 20be e44f 65bc 4977 c13d
00000030: ca0c 64b9 8961 d6bc 3624 0f3d be0a a83a
00000040: 0b50 4e3d c211 093d 1416 6fbd 0840 17be
00000050: ddfc 9f3d 8dd1 0c3e fe5e ccbd 8204 2e3e
00000060: b8f2 f23d cdbd b53d 61b8 183e e48c 8b3d
00000070: 74e3 743d 009d 93bd a338 47bd 09f4 2ebd
00000080: ce49 f53c eee1 d73c d8ac 113d cfc5 77bd
00000090: 72f0 983d de96 47bd f388 afbd 7571 373e
000000a0: 0fa6 373e 9620 4a3e 8efd 063c b56b 473e
000000b0: f78b e93c 359f 09be 3a9c 023e a408 ffbc
000000c0: 0b51 d0bd 48e6 223e 8afa b03c 4520 4a3d
000000d0: 5c88 c1bc 8718 05be 53e4 103e 955e 8e3d
000000e0: f93e 813d fbf8 b73d eb8d 423e d824 9e3e
000000f0: f4be d3bc cd1e 613d de58 583e 6d68 713d
00000100: d7c1 483e 6758 a9bd 118f 173e 086e a0bb
00000110: 65e1 1e3d 67c5 7a3d feca b43d 9458 623e
00000120: d994 06be 65cd f7bd 0068 d7bd 4d33 803d
00000130: 2ea2 143d 3ca0 e03d 291c c3ba f73e 69be
00000140: 5fb4 3ebc 64a7 563c 69c5 893d 46ce dd3d
00000150: 8a2b b0bd 0aa8 623d b903 f3bc e623 cdbb
00000160: ba56 f73a 180f aa3d 8e2e b43d b837 bd3c
00000170: 14a3 50bd da6d 4cbd c955 8bbc c948 d1bc
00000180: a7ad 193d 2c7c 28bd 2f76 0cbd b842 8fbc
00000190: 37b3 913c afb3 5fbe bb23 c3bd b970 1b3e
000001a0: 4a8e bcbd ce51 c1bd 8b61 523d 2c28 61be
000001b0: 63bb ea3d 8f9b e0bd e828 30bd 4ff5 a93d
000001c0: 35ca fb3d 5dd2 cf3d 76a1 3ebd c41d 833d
000001d0: 500b 803d 7114 ccbd df6e b9bd 461c 693c
000001e0: 0cb0 e93d ed6a 26bd 2174 3d3d 2a4b b63d
000001f0: 2048 b03d 0d6b 6f3d 3f6b 23bd 3793 be3d
00000200: 2439 fbbd d86e a23c 4742 543d 64ed 4abc
00000210: 7a04 f83d f8df e2bd 92d3 a8bd a11c 173e
00000220: 9c0d d3bc 4731 6e3d 7bac 303d f1ea 053e
00000230: 1510 073d 575c 653c f72e 24bd 5862 533c
00000240: fa58 cdbd bae4 203d 6b05 20bc aa05 babd
00000250: 371a 00bd adcc b4bc 048e 093d eea3 d7bd
00000260: 2640 023e 19f1 00be d996 103e 2670 ea3a
00000270: c313 963d 5cc4 593d e686 bcbd 0625 f9bd
00000280: a4ab 093d c2dc bdbc aea1 12bd 5599 adbd
00000290: aca7 2cb9 164d 323d 0450 04be 3969 d8bd
000002a0: d438 ce3d f6fd 213c c33b e0bb d9ae 31be
000002b0: 35a8 4e3d 3a92 2f3e da0c a9bd eb0f 243d
000002c0: e8ae 00be 4996 c03d 41e3 d33c 2f43 b8bd
000002d0: 2984 fe3c 1819 1abe f4a8 4b3c e205 e93b
000002e0: cea2 2cbe ff81 8f3d 28a4 f73d 35cb edbd
000002f0: b7cf e03d 5e2b edbd 9ada 6fbd 8b57 dabc
00000300: f763 cebc 3050 fbbd b6de abbd eb6c 23bd
00000310: 8246 2fbe 0167 21bd 7539 28bd 20ac ac3d
00000320: 8b90 59bc 5a7b 4abb fa7d 80bd 70f9 d8bd
00000330: 7b70 f13d 376e e2bd 382c 0a3e 8ae2 f0bd
00000340: 5196 093e 44a8 8e3d 7cd6 703d 53c0 c33d
00000350: 1a76 a3bd 039c 2cbe 1921 213d 2b55 29be
00000360: 0ded 9a3c da17 eebd 5c39 b3bc 6400 f93d
00000370: 7c63 043d 7125 14bd ccc2 243e 52c0 39bd
00000380: 983d d1bd 9d89 e03c a24f c13d 31b6 d5bc
00000390: 7b5a e2bd e541 823d 159d 1b3c 85ac 54bd
000003a0: 1999 28bd 6d43 213d 82bf c03d e3c6 14bd
000003b0: a75e 0f3e 79f4 1e3e 8843 253d 6aa9 98bd
000003c0: 5026 22bd 347b 44bd 6313 d13c ed6c 89bd
000003d0: deb8 32be 29a5 f8bc a614 6abd a851 063d
000003e0: 8836 36bd 52e0 a43c 134f 283d 0c92 b53d
000003f0: f98d df3a f2d9 8a3d bf82 c8bd d4ae 903d

importance_map.upscale.bias f4 [6]
0.08171504 0.05100038 -0.12256052 -0.026000654 -0.08675876 0.051724825
00000000: 375a a73d c6e5 503d 0301 fbbd 53ff d4bc
00000010: 94ae b1bd 69dd 533d

importance_map.genmap.weight f4 [18, 6, 3, 3]
0.072706014 0.03243229 0.11474007 0.02073634 0.10013423 0.008100763 0.122690074 0.07973641
0.16504522 -0.00753829 0.027953373 -0.11932058 0.1402257 0.027990459 0.071872465 -0.10794638
-0.0100687845 0.12844351 -0.020059831 0.028623728 0.11347875 0.05409671 0.07581039 -0.09033114
-0.057438105 0.020616774 0.007104405 -0.078744516 -0.1489506 0.13015196 -0.04285314 0.11529536
-0.06611286 0.08342635 -0.069947496 0.11656365 0.12586616 0.09723226 -0.077204585 -0.06364176
-0.11239097 -0.059291396 0.042319752 0.07703057 -0.06768032 0.0761839 0.034956392 -0.008169709
-0.072102435 0.084284954 0.028978292 0.08284215 0.14086044 0.10434738 0.094083056 0.018329266
0.09411632 0.14376682 0.12755983 0.12496883 -0.031066833 0.024737304 -0.04297351 0.106256574
-0.0010389052 -0.10145175 -0.045858685 -0.08781865 0.038560446 0.1308592 0.023388572 -0.027712042
-0.062410697 -0.11827991 0.043672632 0.06875383 -0.11583015 0.06272151 0.020290356 -0.1397865
0.06164636 0.035706624 -0.054412097 0.107781135 -0.067274936 0.016186643 0.1325555 0.112146966
0.098144986 -0.039868347 -0.050468985 0.055455115 0.019807441 0.11177652 0.12246018 0.116364434
0.065249965 -0.07262351 0.023078874 0.051701233 0.010383162 0.009097871 0.015980046 -0.09445918
0.013983879 -0.07615587 0.14980179 -0.03113561 0.050834455 -0.039676815 -0.083953604 0.03868939
-0.116756566 0.08427779 0.015604756 0.013615796 0.0863363 0.09030628 0.11536237 0.08966361
-0.01966292 -0.0040970608 -0.11785105 0.039248176 0.00878122 0.10201065 0.11127114 -0.11085954
-0.050267406 0.12490997 0.043330472 -0.010160906 -0.073353186 -0.20795873 0.08109482 0.07022823
0.05371405 0.08974505 -0.058639355 0.17007618 0.08178607 0.070272446 -0.004256349 -0.098583214
0.07051517 0.062147427 0.06275248 0.072679564 -0.042046074 0.13165236 0.051170222 -0.09451425
-0.01944289 -0.05272739 0.09171193 -0.11501333 -0.08612927 -0.0023515846 -0.13426274 -0.14571336
-0.08490884 0.05291305 -0.079539515 -0.013616132 0.11361726 -0.02734684 0.13803884 -0.07130137
0.0004503686 0.0016288538 -0.068403415 0.12935683 0.037514117 -0.08643769 0.07223753 -0.03829601
-0.053680953 0.11567196 0.064465135 -0.01817716 0.042898666 0.057623018 -0.04847176 0.13932216
0.21160708 0.1202185 -0.057959456 0.060734272 0.014324888 0.15414444 -0.13410243 0.025065891
0.11135678 -0.06408633 -0.031408343 0.1381517 0.05286569 0.18120079 0.103792034 0.034176443
-0.05162763 -0.036905125 0.097259164 0.014673279 0.16502413 0.15453966 0.054582957 0.16343203
-0.018227533 0.076402225 0.14815192 -0.0677047 0.060340192 0.017637989 0.099675 0.09793568
-0.1804252 -0.3031336 -0.13300112 -0.08963371 -0.06431824 -0.049103566 -0.25640023 -0.31105158
-0.1830422 -0.18243036 -0.046096392 0.004403804 0.010006114 -0.11657931 -0.23791938 0.020842573
-0.16864954 0.006445298 0.017123802 -0.091718115 0.15148479 -0.001984173 -0.13517657 0.024573801
-0.038654983 -0.051598325 0.010864239 -0.05049098 -0.14409077 -0.058145747 -0.07613017 -0.06665676
-0.016493952 0.018259438 -0.0042478484 0.11055762 0.036508292 -0.1391567 -0.029672107 -0.007876938
00000000: e4e6 943d b9d7 043d d8fc ea3d 42df a93c
00000010: 2d13 cd3d 10b9 043c ef44 fb3d d84c a33d
00000020: 9d01 293e c303 f7bb 79fe e43c 595e f4bd
00000030: 5397 0f3e 3f4c e53c df31 933d fe12 ddbd
00000040: 8bf7 24bc b286 033e 8454 a4bc 4f7c ea3c
00000050: 8c67 e83d 8394 5d3d 7a42 9b3d 88ff b8bd
00000060: 3844 6bbd 82e4 a83c 12cc e83b ce44 a1bd
00000070: 8286 18be 8e46 053e c686 2fbd f91f ec3d
00000080: 2e66 87bd 6fdb aa3d a240 8fbd ecb8 ee3d
00000090: 0fe3 003e b521 c73d 701d 9ebd 9c56 82bd
000000a0: 3d2d e6bd 89db 72bd 7a57 2d3d 34c2 9d3d
000000b0: fb9b 8abd 4e06 9c3d 6f2e 0f3d 3eda 05bc
000000c0: 71aa 93bd 979d ac3d e263 ed3c 25a9 a93d
000000d0: b83d 103e 14b4 d53d 9eae c03d 4227 963c
000000e0: 0fc0 c03d 9c37 133e 0b9f 023e a8ef ff3d
000000f0: df7f febc e3a5 ca3c fe04 30bd 0c9d d93d
00000100: e02b 88ba efc5 cfbd 51d6 3bbd 44da b3bd
00000110: 8ff1 1d3d f4ff 053e 6499 bf3c 5d04 e3bc
00000120: 5ca2 7fbd bd3c f2bd 13e2 323d cfce 8c3d
00000130: 5c38 edbd 2374 803d f637 a63c 3124 0fbe
00000140: e580 7c3d 1c41 123d 38df 5ebd 5bbc dc3d
00000150: 71c7 89bd da99 843c a1bc 073e 4fad e53d
00000160: 3d00 c93d fe4c 23bd 91b8 4ebd e724 633d
00000170: 3743 a23c 17eb e43d 67cc fa3d 7a50 ee3d
00000180: c6a1 853d a3bb 94bd e80f bd3c acc4 533d
00000190: 231e 2a3c 3d0f 153c 96e8 823c d173 c1bd
000001a0: a41c 653c 9cf7 9bbd a465 193e 1b10 ffbc
000001b0: ca37 503d 2884 22bd deef abbd c478 1e3d
000001c0: 111e efbd d599 ac3d 17ab 7f3c ca14 5f3c
000001d0: 16d1 b03d 80f2 b83d 1b43 ec3d 8ea1 b73d
000001e0: 2214 a1bc a340 86bb e45b f1bd b2c2 203d
000001f0: 1bdf 0f3c f6ea d03d 20e2 e33d 540a e3bd
00000200: 32e5 4dbd ccd0 ff3d 4b7b 313d ee79 26bc
00000210: 323a 96bd 22f3 54be 0a15 a63d d1d3 8f3d
00000220: 4403 5c3d 41cc b73d d22f 70bd 7328 2e3e
00000230: 747f a73d 00eb 8f3d d878 8bbb ffe5 c9bd
00000240: 426a 903d 4d8e 7e3d 5f84 803d 06d9 943d
00000250: 8138 2cbd e0cf 063e de97 513d b090 c1bd
00000260: b246 9fbc adf8 57bd 77d3 bb3d 1c8c ebbd
00000270: 8b64 b0bd 0b1d 1abb 2c7c 09be e235 15be
00000280: b0e4 adbd 5bbb 583d 9de5 a2bd 3216 5fbc
00000290: 2ab0 e83d 7b06 e0bc 0e5a 0d3e 7406 92bd
000002a0: 731f ec39 447f d53a 1717 8cbd 1e76 043e
000002b0: 67a8 193d 3e06 b1bd 45f1 933d 47dc 1cbd
000002c0: 8fe0 5bbd 6ce5 ec3d 4c06 843d 44e8 94bc
000002d0: 83b6 2f3d 1d06 6c3d 538a 46bd 78aa 0e3e
000002e0: 87af 583e 1e35 f63d e566 6dbd 80c4 783d
000002f0: efb2 6a3c 0ad8 1d3e 2652 09be fc56 cd3c
00000300: 060f e43d b23f 83bd 09a6 00bd a477 0d3e
00000310: b289 583d b38c 393e eb90 d43d 99fc 0b3d
00000320: 7e77 53bd d429 17bd d02f c73d 3168 703c
00000330: 16fc 283e a53f 1e3e 6192 5f3d ba5a 273e
00000340: e851 95bc c578 9c3d 23b5 173e c3a8 8abd
00000350: 4727 773d 8b7d 903c 6822 cc3d 8092 c83d
00000360: 62c1 38be 5434 9bbe 7231 08be e191 b7bd
00000370: 48b9 83bd d220 49bd e446 83be 2742 9fbe
00000380: 6a6f 3bbe 06cf 3abe 92cf 3cbd c94d 903b
00000390: aff0 233c 22c1 eebd 23a1 73be 0bbe aa3c
000003a0: 77b2 2cbe 1433 d33b 3747 8c3c b5d6 bbbd
000003b0: d41e 1b3e e608 02bb ba6b 0abe ff4e c93c
000003c0: b054 1ebd c458 53bd ecff 313c a1cf 4ebd
000003d0: 888c 13be 3c2a 6ebd 22ea 9bbd 5783 88bd
000003e0: 531e 87bc d194 953c 8931 8bbb 096c e23d
000003f0: b889 153d 187f 0ebe eb12 f3bc 460e 01bc

importance_map.genmap.bias f4 [18]
0.039943114 0.14038008 0.050138332 0.008997357 -0.16867842 0.114340864 0.1364415 -0.0023517152
-0.046423987 0.18391904 0.10921953 -0.012788378 0.043940037 -0.059701744 0.067118704 -0.19136384
0.10538649 0.109105594
00000000: 649b 233d ccbf 0f3e da5d 4d3d a769 133c
00000010: 09ba 2cbe 8b2b ea3d 52b7 0b3e 3c1f 1abb
00000020: 1427 3ebd 4655 3c3e 7dae df3d 5886 51bc
00000030: 78fa 333d d189 74bd 8875 893d e2f4 43be
00000040: dfd4 d73d c172 df3d
