experiment/meta/model/model_7.pt (torch, 28984 bytes, 14 tensors)

feat_extraction.stage0.rbr_dense.conv.weight f4 [14, 3, 3, 3]
0	0x3e371dc9	0.17882456
1	0xbbbd663c	-0.0057800096
2	0x3d43235c	0.047641143
3	0x3e2e5096	0.17022929
4	0xbe0527b3	-0.13003425
5	0x3e26a558	0.16274011
6	0x3d090bd4	0.033458546
7	0x3e18b777	0.14913736
8	0x3d3c84d4	0.046025112
9	0x3d24b629	0.040212784
10	0x3df9eb3f	0.12203073
11	0x3db64ca4	0.08901337
12	0x3e0bf775	0.13668616
13	0xbd01ffcb	-0.031738084
14	0x3cdf6f80	0.027274847
15	0x3d2733b8	0.040820807
16	0x3d86d0c3	0.06582787
17	0x3c672572	0.014108049
18	0x3e3c3e37	0.18383108
19	0x3d9ab3be	0.07553814
20	0xbd25fb8b	-0.040523093
21	0xbdc079aa	-0.093982056
22	0xbd165273	-0.036699723
23	0xbdab5dbe	-0.08367489
24	0xbd256386	-0.040378116
25	0x3b863b23	0.004096405
26	0x3dc2d111	0.095125325
27	0x3ddfd42d	0.10929141
28	0xbe535eae	-0.20641586
29	0x3dc4890c	0.09596452
30	0x3d97a8f1	0.0740527
31	0x3e399457	0.18122993
32	0x3e058089	0.13037314
33	0xbe6e50ba	-0.23272982
34	0xbe70a5a4	-0.23500687
35	0xbe0b62bd	-0.13611884
36	0x3e29ff8d	0.16601391
37	0xbd46d5a0	-0.048543572
38	0x3d66582f	0.056236442
39	0xbd96db4a	-0.07366045
40	0x3e459855	0.19296391
41	0xbda08723	-0.07838275
42	0x3d9fedfe	0.07809065
43	0xbd553057	-0.052048054
44	0xbe198c51	-0.14994933
45	0x3e213eab	0.15746562
46	0xbd4b3b82	-0.049617298
47	0x3dc4abe6	0.096030995
48	0x3c8ea843	0.017414218
49	0x3d49d8b4	0.04927893
50	0xbdf83f7b	-0.12121483
51	0xbdca7838	-0.09886211
52	0x3de77662	0.113018766
53	0xbd1a09b3	-0.037606906
54	0x3e768da2	0.24077466
55	0x3e4c62d7	0.1995958
56	0x3cb59956	0.022167843
57	0xbd9cc264	-0.076542646
58	0x3e28b03a	0.16473475
59	0x3dd6a4aa	0.10480626
60	0xbda71ce9	-0.08159811
61	0x3e2c3c9d	0.16819997
62	0x3e1c77e4	0.1528011
63	0x3e4f0e27	0.20220242
64	0xbd95ee3b	-0.073208295
65	0xbbff5e84	-0.0077932496
66	0x3d00d917	0.031457033
67	0x3d868bdb	0.06569644
68	0xbddcc13c	-0.10779044
69	0xbde78f96	-0.11306684
70	0x3e09c3b2	0.13453558
71	0xbca801e8	-0.020508721
72	0x3e054fa2	0.13018659
73	0x3d52c34d	0.051455785
74	0x3db7a2e9	0.089666195
75	0x3da7cb20	0.0819304
76	0x3dea80cf	0.114503495
77	0x3e0bb3cd	0.13642807
78	0xbe1e9595	-0.15486749
79	0x3e02c580	0.12770653
80	0xbdeb6240	-0.11493349
81	0xbe164bb0	-0.1467731
82	0x3db86b4f	0.090048425
83	0xbc5a563f	-0.013326227
84	0x3dba7b66	0.09105568
85	0xbd885c45	-0.06658224
86	0xbe46e758	-0.19424188
87	0x3da9b43d	0.08286331
88	0xbcbf1d95	-0.023329535
89	0x3da0afb8	0.07846016
90	0x3d230f76	0.039809667
91	0xbda4997b	-0.080370866
92	0x3d1ce0b5	0.038300235
93	0x3ca559ee	0.020184483
94	0xbda3565b	-0.079754554
95	0xbdec4612	-0.11536802
96	0x3c5ba36a	0.01340566
97	0x3d3a5b28	0.04549709
98	0xbde3303e	-0.11093186
99	0xbd677c42	-0.056514986
100	0x3e752142	0.23938468
101	0xbc36cff1	-0.0111579755
102	0x3de611a3	0.11233833
103	0x3e0ec5a5	0.13942583
104	0xbdee8fa6	-0.116484925
105	0xbe40a84b	-0.18814199
106	0x3e4dd1b6	0.2009953
107	0x3b5949c5	0.0033155542
108	0x3e26baee	0.16282246
109	0x3d9629f7	0.07332223
110	0x3da8f58d	0.0824996
111	0x3e3b64fd	0.18300243
112	0x3e6613bc	0.22468466
113	0xbdd2baff	-0.10289573
114	0x3d497972	0.049188085
115	0x3e3a6f26	0.18206462
116	0x3e25b5a9	0.16182579
117	0x3e2395af	0.15975069
118	0xbdbfcafd	-0.09364889
119	0xbdd4ea37	-0.103962354
120	0xbd8af94d	-0.067858316
121	0x3da048d1	0.078263886
122	0x3e6c721b	0.23090403
123	0xbdb6b718	-0.08921641
124	0x3e19a932	0.15005949
125	0xbd962e6f	-0.07333075
126	0xbdfdfd96	-0.12401883
127	0x3c7796f7	0.015111676
128	0x3e17f4fa	0.14839545
129	0x3e79b67f	0.24386023
130	0xbd624128	-0.05523792
131	0x3dab5cd3	0.08367314
132	0x3e53a5d5	0.20668729
133	0x3e3610d3	0.17779855
134	0x3e190bfd	0.1494598
135	0x3e1e8647	0.1548091
136	0x3e14d08f	0.14532684
137	0x3d4f6c28	0.050640255
138	0xbdef047b	-0.116707765
139	0xbdcf1bc8	-0.10112721
140	0xbd9762e6	-0.0739191
141	0xbbaaef24	-0.005216496
142	0xbd7b2d4b	-0.06132249
143	0x3dc7cf52	0.0975634
144	0x3d996ad3	0.07491078
145	0xbc045d29	-0.008078852
146	0x3daca49e	0.08429836
147	0x3d8f3f8b	0.06994542
148	0x3e454ad8	0.19266832
149	0x3e2037b8	0.15646255
150	0xbd78be4e	-0.060728364
151	0x3e7f3d95	0.24925835
152	0x3b221dcd	0.0024737
153	0xbc90f7ac	-0.017696224
154	0xbe2d673c	-0.16933912
155	0xbe0f3394	-0.13984519
156	0xbe058be0	-0.1304164
157	0xbcf2a9c7	-0.029621972
158	0x3e0d34e2	0.13789704
159	0xbdb66c92	-0.08907427
160	0xbddb5c0e	-0.107109174
161	0x3d8f1819	0.06987018
162	0x3d290e56	0.041273437
163	0x3dea3daa	0.11437543
164	0xbe063ddc	-0.13109535
165	0x3d2246bd	0.039618243
166	0xbd3dc1c2	-0.04632736
167	0xbd7e0deb	-0.062024992
168	0xbe20f8b1	-0.15719868
169	0xbd871dcb	-0.065974794
170	0xbd68bfe8	-0.05682364
171	0x3d71dc31	0.05904788
172	0x3d25ceba	0.040480353
173	0x3cd87787	0.026424183
174	0x3e436548	0.19081604
175	0x3e6d25d2	0.23158959
176	0x3e018735	0.12649234
177	0xbc0ca4f3	-0.008584249
178	0xbde03fa0	-0.109496355
179	0x3e1662d5	0.14686139
180	0xbc426ac4	-0.011866275
181	0x3d290e3a	0.041273333
182	0xbe23e0f7	-0.16003786
183	0x3cc20593	0.023684299
184	0xbce85b28	-0.02836378
185	0x3e4d81c0	0.20069027
186	0xbe12a4ac	-0.1432063
187	0xbdcab4ca	-0.09897764
188	0xbaf72b9a	-0.0018857599
189	0xbe10c571	-0.14137818
190	0x3d2ccfff	0.042190548
191	0xbdfea391	-0.124335416
192	0xbdfa3598	-0.122172534
193	0x3c105129	0.008808413
194	0x3ddbdeb8	0.107358396
195	0xbe33fa0b	-0.17575853
196	0x3d99f43d	0.07517288
197	0x3dc0bb28	0.09410697
198	0x3e23a433	0.15980606
199	0xbe0fa178	-0.14026439
200	0x3c968137	0.018372161
201	0xbe25666e	-0.16152355
202	0x3e3e751f	0.18599366
203	0xbda7c0c2	-0.081910625
204	0x3dad9cb9	0.08477158
205	0x3c152f2b	0.009105484
206	0xbce50dda	-0.027960707
207	0x3cd8fecf	0.02648869
208	0x3db9195c	0.0903804
209	0x3ded7208	0.11594015
210	0x3d9ad69c	0.07560465
211	0x3e15348f	0.14570831
212	0xbdff0db4	-0.124537855
213	0x3e273072	0.16327074
214	0x3e67b0de	0.22626063
215	0x3e44a3f8	0.19203174
216	0x3e265d33	0.1624649
217	0xbdefd74e	-0.11710988
218	0xbcd7d122	-0.02634484
219	0x3e5f5585	0.21809967
220	0xbe090383	-0.13380246
221	0x3e4f78a4	0.20260864
222	0xbde789b6	-0.11305563
223	0xbdd670b0	-0.10470712
224	0x3dc16577	0.09443181
225	0xbdc3b4ec	-0.095559925
226	0xbca66cd2	-0.020315561
227	0x3e3efe25	0.18651636
228	0x3e5b02a9	0.21387734
229	0x3e4406b3	0.1914318
230	0xbc52c1a4	-0.01286355
231	0xbdbe2280	-0.09283924
232	0x3e6341d7	0.22193085
233	0xbd10fcbe	-0.035397284
234	0xbd782b0a	-0.06058792
235	0x3d499f88	0.049224406
236	0xbdae12ab	-0.084996544
237	0x3e0e2e39	0.1388482
238	0x3db506fe	0.08839224
239	0xbe1013fb	-0.14070122
240	0xbe098caf	-0.13432573
241	0xbc220284	-0.009888295
242	0x3da4e9f9	0.08052439
243	0xbd8501b2	-0.06494464
244	0xbe0bc827	-0.13650571
245	0xbd8c90f1	-0.06863583
246	0xbe79c4b2	-0.2439144
247	0xbe343af4	-0.17600614
248	0xbe3eb24f	-0.18622707
249	0x3d4c16f0	0.049826562
250	0x3d6ea3c0	0.058261633
251	0xbe0c7b92	-0.13719013
252	0xbd6cb4bc	-0.05778955
253	0x3d11fc03	0.035640728
254	0xbd8301e1	-0.06396843
255	0xbe0b25ab	-0.13588588

feat_extraction.stage0.rbr_1x1.conv.weight f4 [14, 3, 1, 1]
0	0x3eae7c03	0.34078988
1	0x3ded104e	0.115753755
2	0xbdec2e62	-0.11532284
3	0xbefb103d	-0.49035826
4	0x3ee657ce	0.44988865
5	0xbda0f9db	-0.07860156
6	0xbea6af8e	-0.32555813
7	0x3ed0c58d	0.4077572
8	0x3e7f9090	0.2495749
9	0x3e404145	0.18774898
10	0xbd85e369	-0.06537516
11	0xbdfe1d44	-0.12407926
12	0x3e0f8a51	0.14017607
13	0x3f0038eb	0.5008685
14	0x3e167cbc	0.1469602
15	0xbe599d6a	-0.21251455
16	0x3f261155	0.64870197
17	0x3d853445	0.0650411
18	0x3ef5d4a0	0.48013783
19	0x3e3d2af1	0.18473412
20	0x3f1cffad	0.6132763
21	0x3ea97c11	0.33102468
22	0xbe8b9a0a	-0.2726596
23	0x3efc3111	0.49256185
24	0x3c871b50	0.016492516
25	0xbee8763b	-0.45402703
26	0xbe1ce16c	-0.15320367
27	0xbf0fa4ce	-0.56110847
28	0xbeaae769	-0.33379677
29	0xbee4144d	-0.44546738
30	0x3ed4da7a	0.41572934
31	0xbd891704	-0.06693843
32	0xbda1fb31	-0.07909239
33	0x3e907218	0.28212047
34	0x3e88dd23	0.26731214
35	0xbeb09e9e	-0.34496015
36	0x3e21b598	0.15791929
37	0x3e5e7105	0.21722801
38	0xbef9f4e3	-0.48819646
39	0x3f0baa8a	0.54557097
40	0xbeb06a6a	-0.34456187
41	0xbe7a541f	-0.24446152

feat_extraction.stage1.rbr_identity.weight f4 [14]
0	0x3f52aa18	0.8229079
1	0x3f3f3010	0.7468271
2	0x3f7476cd	0.95493776
3	0x3f64fe3c	0.8945043
4	0x3f793c74	0.9735787
5	0x3f715b4f	0.9427995
6	0x3f684f96	0.9074644
7	0x3f6d58ce	0.9271363
8	0x3f709a77	0.93985695
9	0x3f6a90f0	0.9162741
10	0x3f47d157	0.780538
11	0x3f599ebc	0.85007834
12	0x3f73870a	0.9512793
13	0x3f4cc8cd	0.799939

feat_extraction.stage1.rbr_identity.bias f4 [14]
0	0x3d9315f0	0.071819186
1	0x3dd50c6a	0.104027584
2	0x3c8c606c	0.017135821
3	0x3e2cbe06	0.16869363
4	0x3d13488c	0.035957858
5	0x3d28e0a2	0.04122985
6	0x3d9a0af3	0.0752162
7	0x3d8956eb	0.067060314
8	0x3dfbb629	0.12290604
9	0x3d61c684	0.05512096
10	0x3df06526	0.117380425
11	0x3e56de1b	0.20983164
12	0x3d11d125	0.035599846
13	0x3ddfbf8b	0.10925206

feat_extraction.stage1.rbr_identity.running_mean f4 [14]
0	0x3f2cd56e	0.6751317
1	0x3c92066b	0.017825326
2	0x3f3fa0db	0.7485482
3	0x3c3a05bf	0.011353909
4	0x3f98507c	1.1899562
5	0x3ec8358c	0.39103353
6	0x3f2150f4	0.6301415
7	0x3efcc80d	0.49371377
8	0x3d3e53a0	0.04646647
9	0x330e8d4e	3.3190467e-08
10	0x3d30f1e0	0.04319942
11	0x3cd3c5a6	0.025851082
12	0x3384811e	6.170215e-08
13	0x3e41dd2e	0.1893203

feat_extraction.stage1.rbr_identity.running_var f4 [14]
0	0x3e19cabd	0.15018745
1	0x3b5969b0	0.0033174567
2	0x3e438f1d	0.19097562
3	0x3a9ac3e4	0.0011807648
4	0x3eef5ca2	0.4675036
5	0x3d634c95	0.055492956
6	0x3e11f0a9	0.14251961
7	0x3de6aaea	0.11263068
8	0x3b034f96	0.002003645
9	0x2dce2180	2.3434366e-11
10	0x3b7d5a81	0.003865868
11	0x3b06d95b	0.0020576331
12	0x2e9aa753	7.032832e-11
13	0x3cee669e	0.029101666

feat_extraction.stage1.rbr_dense.conv.weight f4 [14, 14, 3, 3]
0	0x3c8e8232	0.017396066
1	0x3e21d589	0.15804113
2	0x3dc3f3d8	0.09567994
3	0x3e202d06	0.15642175
4	0x3d918a18	0.071064174
5	0x3ded5957	0.11589306
6	0x3d37031d	0.044680703
7	0xbc2486ff	-0.010041951
8	0x3d8476c3	0.064679645
9	0xbcc0fd46	-0.02355827
10	0xbcae0297	-0.02124147
11	0xbd791940	-0.060815096
12	0xbb59ce06	-0.0033234372
13	0x3ca67711	0.020320447
14	0x3c4a4bb3	0.01234715
15	0xbddad296	-0.10684697
16	0x3cba0ae1	0.022710266
17	0xbc8db89f	-0.017299948
18	0x3de9ea00	0.11421585
19	0x3dda8b86	0.10671143
20	0xbc73a092	-0.014869826
21	0x3e0b6a67	0.13614808
22	0xbd6b8fee	-0.05751031
23	0x3db46091	0.08807481
24	0x3d4d92fb	0.050189
25	0x3d915fdd	0.070983626
26	0xbcd5c1c8	-0.026093379
27	0x3d2d148b	0.04225592
28	0xbd83c02a	-0.06433137
29	0xbdc1695a	-0.09443922
30	0xbd060985	-0.032723922
31	0x3e157311	0.14594676
32	0x3d95b9d6	0.07310836
33	0xbdfaab54	-0.122397095
34	0x3e289104	0.16461569
35	0x3cd3acd2	0.025839243
36	0x3c0b84ee	0.00851558
37	0xbcbc18e8	-0.022961095
38	0x3dced86d	0.10099874
39	0x3b3acc15	0.002850299
40	0x3da1caba	0.07899995
41	0xbd229bf8	-0.039699525
42	0x3dea647f	0.11444949
43	0x3d84212f	0.06451642
44	0x3cab8cab	0.0209411
45	0x3db576c9	0.08860547
46	0xbbce74a1	-0.0063005243
47	0x3d5fb7f7	0.054618802
48	0x3d5824a2	0.05276931
49	0xbc8ea56b	-0.017412862
50	0x3d092b07	0.0334883
51	0x3bea3a75	0.007148082
52	0x3de6fd0e	0.11278735
53	0x3de6b1f6	0.11264412
54	0x3df8d3d2	0.121497765
55	0x3df6b893	0.120469235
56	0xbc9dc889	-0.019260662
57	0x3d8f5de8	0.07000333
58	0x3d6998a7	0.057030346
59	0xbcce6a4f	-0.025197176
60	0x3d9e8712	0.07740606
61	0xbcc593fd	-0.024118418
62	0x3d0a19d6	0.033716045
63	0x3d287445	0.04112651
64	0x3dac4ee7	0.08413487
65	0xbcb01d31	-0.021498295
66	0xbd545d5d	-0.05184685
67	0x3da7ce93	0.08193698
68	0x3d37ff2c	0.044921085
69	0x3d8e68e9	0.06953604
70	0x3d245cda	0.040127613
71	0xbcdbaa51	-0.026814612
72	0x3e374cb4	0.17900354
73	0xbe2b9051	-0.16754271
74	0x3c80a2e5	0.015702674
75	0x3dfa850b	0.12232407
76	0x3da5b69e	0.08091472
77	0xbd8dccef	-0.069238536
78	0xbddf3a39	-0.10899777
79	0x3db07e7e	0.086178765
80	0xbd79e8cc	-0.061013028
81	0xbd8a16a5	-0.067426
82	0xbd9612d0	-0.07327807
83	0xbd441b28	-0.04787746
84	0xbca0082c	-0.019535147
85	0xbd5c169b	-0.053732496
86	0xbd10b494	-0.035328463
87	0xbdb373c2	-0.087623134
88	0x3d3e0a19	0.04639635
89	0xbcda5492	-0.026651654
90	0x3c3e9ee9	0.011634567
91	0x3dd06730	0.101759315
92	0x3d0a1658	0.033712715
93	0x3da3903a	0.079864934
94	0x3dafc3d9	0.08582277
95	0xbd3a2b4f	-0.04545146
96	0xbdf0d63e	-0.117596135
97	0xbd79013a	-0.060792185
98	0xbdc921a7	-0.09820872
99	0x3d5b13b5	0.05348559
100	0xbc5663f7	-0.013085357
101	0x3e03f0bd	0.12884803
102	0x3db0d9e3	0.086353086
103	0x3df94205	0.12170795
104	0x3dbf5e1b	0.09344121
105	0xbe0c23a8	-0.13685477
106	0x3d9d8d14	0.07692924
107	0x3d48d5af	0.04903191
108	0xbd1c4f7e	-0.038161747
109	0xbd6f9152	-0.058488198
110	0x3c805c65	0.015669057
111	0x3cbea586	0.023272287
112	0x3d1ebc85	0.038754005
113	0x3cd62ad6	0.026143473
114	0xbc719640	-0.014745295
115	0xbd8ecb59	-0.06972379
116	0x3d674af0	0.05646795
117	0x3d5bc9b8	0.05365917
118	0xbb33e747	-0.0027451084
119	0x3dfca088	0.123353064
120	0x3dacbde4	0.08434656
121	0xbd5bd3c6	-0.05366876
122	0xbcb8fa12	-0.02258018
123	0xbc65008f	-0.013977184
124	0xbcd3377a	-0.02578329
125	0x3dabdf68	0.08392221
126	0xbdaad5d2	-0.08341564
127	0x3d79d7bc	0.060996756
128	0xbd612860	-0.054970145
129	0x3d115f7e	0.03549146
130	0xbc5753c8	-0.013142534
131	0xbd576ee3	-0.052595984
132	0x3d404d7d	0.0469489
133	0xbda992a0	-0.082799196
134	0xbd609f3d	-0.05483936
135	0x3e007d7b	0.12547867
136	0x3e44409b	0.1916527
137	0x3dacb5f6	0.08433144
138	0x3d6b907e	0.057510845
139	0x3d8c20bf	0.06842183
140	0x3d9b8c86	0.07595162
141	0x3dd1c760	0.10243106
142	0x3e0a8710	0.13528085
143	0x3db39c56	0.08770053
144	0x3d6a8bb8	0.057262152
145	0x3ce67fc6	0.028137099
146	0xbccca55b	-0.024981191
147	0xbc8b2324	-0.01698453
148	0x3d6c7d92	0.05773694
149	0x3d241118	0.040055364
150	0x3dc5d825	0.09660367
151	0x3ccebd2e	0.025236692
152	0xbce1e981	-0.027577164
153	0xbac1128f	-0.0014730262
154	0xbb28e397	-0.002577042
155	0x3d9f427f	0.07776355
156	0x3df6d9ba	0.12053247
157	0xbc364718	-0.0111253485
158	0x3dda35d4	0.10654798
159	0x3dbf57d3	0.09342923
160	0x3c0ac300	0.008469343
161	0x3df4d38d	0.119544126
162	0xbbe8671f	-0.007092371
163	0x3dc6d0f1	0.09707821
164	0x3d2fd558	0.04292807
165	0xbd27137a	-0.04079006
166	0xbcf8f64b	-0.03039088
167	0x3da33e00	0.0797081
168	0x3d6b82a2	0.057497628
169	0x3db53e1e	0.088497385
170	0x3c975548	0.018473282
171	0x3dda8186	0.10669236
172	0x3da9a737	0.08283847
173	0x3d76abfd	0.060222615
174	0x3cd809c6	0.026371848
175	0x3e09c288	0.13453114
176	0x3d72b627	0.059255745
177	0x3c857b8a	0.01629426
178	0x3d3e2e1f	0.046430703
179	0x3e055ab8	0.13022888
180	0x3db6fd3c	0.089350194
181	0x3c8d45b9	0.01724516
182	0x3de61bbb	0.11235758
183	0x3d9c2ea6	0.07626085
184	0xbc7be360	-0.015374035
185	0xbd3fc8a9	-0.046822224
186	0x3daa7031	0.0832218
187	0x3df5fd93	0.12011256
188	0xbc16317d	-0.009167072
189	0x3dd41975	0.10356418
190	0x3d93b225	0.07211713
191	0x3d606747	0.054785993
192	0x3d22b733	0.039725494
193	0x3dc3075f	0.0952289
194	0x3dc9daca	0.09856184
195	0x3deb5024	0.11489895
196	0x3dce1175	0.100619234
197	0x3deb0bec	0.11476883
198	0xbd0491a7	-0.032365467
199	0xbb9352ac	-0.0044959392
200	0xbda2277c	-0.07917687
201	0xbdecda91	-0.11565126
202	0x3c029ba3	0.007971677
203	0xbe208758	-0.1567663
204	0x3c123b56	0.00892528
205	0xbcf0266f	-0.029315202
206	0xbe00968b	-0.12557428
207	0x3d7570c6	0.059922002
208	0xbc8d1cac	-0.017225586
209	0x3d8ec8dc	0.06971905
210	0x3da2f4ba	0.07956834
211	0xbcaa01e6	-0.020752858
212	0x3c21cd15	0.0098755555
213	0xbcd58d3f	-0.026068328
214	0xbcfa42b9	-0.030549394
215	0xbc3584ed	-0.011079055
216	0xbdd0fabd	-0.102040745
217	0xbe2198ab	-0.15780894
218	0xbe4ffb45	-0.20310695
219	0xbdbb073a	-0.09132238
220	0xbda5f936	-0.08104174
221	0xbde83211	-0.113376744
222	0x3d7ddcf6	0.061978303
223	0x3d502b41	0.0508225
224	0x3d1c2d6e	0.038129263
225	0x3cb65160	0.0222556
226	0xbdeba02d	-0.115051605
227	0x3d9b6d43	0.075891994
228	0xb97ef86e	-0.00024315875
229	0xbd067c75	-0.032833535
230	0xbc9a8383	-0.018861538
231	0x3def6cff	0.11690711
232	0xbd2d8849	-0.0423663
233	0x3d55bced	0.052182127
234	0xbd81d6c2	-0.0633979
235	0xbd7c13d7	-0.06154236
236	0xbd468ac9	-0.0484722
237	0x3daa04ff	0.08301734
238	0xbc4768ab	-0.012170951
239	0x3cb241e0	0.021759927
240	0xbdbd9461	-0.09256817
241	0x3d98f298	0.07468146
242	0xbcc91021	-0.024543824
243	0xbe82aa3c	-0.25520504
244	0xbdff48f1	-0.12465084
245	0xbe64d252	-0.22345856
246	0xbde706c9	-0.11280591
247	0xbe8b9535	-0.27262273
248	0xbe981db4	-0.29710162
249	0xbe74f28d	-0.23920651
250	0xbe1643dd	-0.14674325
251	0xbe4779c0	-0.19480038
252	0xbd8778b8	-0.06614822
253	0x3cab34a3	0.020899123
254	0x3bbbe729	0.0057343435
255	0x3d35eed4	0.044417217

feat_extraction.stage1.rbr_1x1.conv.weight f4 [14, 14, 1, 1]
0	0x3d7dd8f9	0.0619745
1	0xbe5c3966	-0.21506271
2	0x3c9f2353	0.019426024
3	0x3be3e7bc	0.006955115
4	0xbd4196b4	-0.047262862
5	0xbc7b4326	-0.015335834
6	0x3db53cfb	0.08849522
7	0xbd806a97	-0.062703304
8	0xbe2b6451	-0.16737486
9	0xbe09a4f1	-0.13441826
10	0xbe41cde3	-0.18926196
11	0xbdedb54d	-0.11606846
12	0x3e037321	0.12836887
13	0x3e29a799	0.1656784
14	0x3e3e3f2a	0.18578783
15	0x3e15f7e6	0.14645347
16	0xbd9185e9	-0.071056195
17	0xbe1b8872	-0.15188769
18	0x3e1bf5a4	0.15230423
19	0xbde725bd	-0.11286495
20	0x3e6d590e	0.23178503
21	0xbd9897b6	-0.074508116
22	0xbe9d05c6	-0.30668467
23	0xbe39a4be	-0.1812925
24	0x3e13b46d	0.14424296
25	0x3e4af113	0.19818525
26	0x3d77239a	0.060336687
27	0xbe52deec	-0.2059285
28	0x3e6a8ca1	0.22905208
29	0x3d94a097	0.072571926
30	0x3e25288b	0.16128747
31	0xbe0fcc23	-0.14042716
32	0x3d4d092e	0.050057583
33	0x3e7de975	0.24796088
34	0xbe4044c8	-0.18776238
35	0x3e9239f1	0.2855983
36	0xbe6941a9	-0.22778954
37	0xbda2aea8	-0.07943469
38	0xbd3675f4	-0.044546083
39	0x3d8deb1b	0.069296084
40	0x3da1c51b	0.07898923
41	0xbe36127e	-0.17780492
42	0x3df9d10b	0.12198075
43	0x3e6cded7	0.23131882
44	0xbbf548c3	-0.0074854805
45	0xbe0310e9	-0.1279942
46	0x3e8dbd1f	0.2768335
47	0xbe077743	-0.13229088
48	0xbdfdfeb0	-0.124020934
49	0x3e990849	0.29889134
50	0xbdefa533	-0.11701431
51	0x3e1f91cd	0.15582962
52	0x3e897092	0.26843697
53	0x3bb17bbf	0.005416363
54	0xbe6ac7e1	-0.2292781
55	0xbba4e260	-0.005031869
56	0x3dd2fa61	0.10301662
57	0x3e7d4ba0	0.2473588
58	0xbcc656e3	-0.024211353
59	0xbc890606	-0.016726505
60	0xbda0f674	-0.07859507
61	0xbe4347c3	-0.19070344
62	0x3e830297	0.25587913
63	0xbd047db6	-0.03234645
64	0xbd3b58ea	-0.045739092
65	0xbe3c8615	-0.18410523
66	0x3e69a846	0.22818097
67	0x3e071b98	0.1319412
68	0x3e2f3b92	0.17112568
69	0x3e0696f8	0.13143528
70	0xbd35a262	-0.044344313
71	0x3df91615	0.12162415
72	0x3d0e9a2e	0.034815006
73	0xbe0781f6	-0.1323317
74	0x3db5e502	0.088815704
75	0xbdf41293	-0.11917605
76	0xbe1b40ed	-0.15161486
77	0xbbf612cf	-0.0075095664
78	0xbe8069c5	-0.25080696
79	0x3ba5c7b1	0.0050592055
80	0x3d20ba45	0.03924014
81	0x3e47bfa0	0.19506693
82	0x3da09604	0.07841113
83	0xbd092048	-0.03347805
84	0xbe229286	-0.15876207
85	0xbd8a1026	-0.06741361
86	0x3c932079	0.01795982
87	0xbd717697	-0.058950987
88	0x3dd04143	0.10168698
89	0x3e78622b	0.24256198
90	0x3e5a62a5	0.21326692
91	0xbd1d2daa	-0.038373627
92	0xbd280350	-0.041018784
93	0x3e86a7d6	0.26299924
94	0xbd155a88	-0.03646329
95	0xbe3d7f93	-0.18505697
96	0xbb660273	-0.0035096675
97	0xbc952541	-0.01820624
98	0xbdc1de38	-0.09466213
99	0x3d35135c	0.044207916
100	0xbe2efeaa	-0.17089334
101	0x3dcefa1b	0.101062976
102	0xbe1d7687	-0.15377246
103	0x3e020037	0.12695394
104	0x3e800501	0.25003818
105	0xbdd08db0	-0.10183275
106	0xbd9e58a7	-0.07731753
107	0x3cb5750d	0.02215054
108	0x3d48cb6d	0.049022127
109	0x3e36fcba	0.17869845
110	0xbc9a5198	-0.018837735
111	0xbcfaec69	-0.030630307
112	0xbd28a53b	-0.0411732
113	0x3e661ba8	0.22471488
114	0x3da365b0	0.0797838
115	0x3dc5257b	0.096262895
116	0x3e1ad8e6	0.15121803
117	0xbd3d191a	-0.046166517
118	0x3e72d856	0.23715338
119	0xbe9a12b2	-0.30092388
120	0x3e3dd675	0.1853884
121	0x3e153c39	0.14573754
122	0x3e938db0	0.28819036
123	0x3e5e3bee	0.21702549
124	0xbdf9fe76	-0.12206738
125	0xbd1e5af6	-0.038660966
126	0xbe228f0a	-0.15874878
127	0x3ea14d46	0.31504267
128	0xbe3a38f0	-0.18185782
129	0xbcef1b4d	-0.029187823
130	0x3e3ff471	0.18745591
131	0x3e418aab	0.18900554
132	0xbe2fcea6	-0.17168674
133	0x3dc60c9f	0.09670376
134	0x3db56aa4	0.08858231
135	0x3e391fbb	0.1807851
136	0x3dcd91e5	0.10037593
137	0x3ea492ef	0.3214335
138	0xbd6597cd	-0.05605297
139	0x3ebaca9d	0.36482707
140	0x3d85415c	0.06506607
141	0xbe389be6	-0.1802822
142	0x3db4b866	0.08824234
143	0xbd64b724	-0.05583872
144	0x3dec2247	0.115299754
145	0x3e70cbae	0.23515198
146	0xbe237463	-0.15962367
147	0xbe5755e5	-0.2102886
148	0x3e992b85	0.29916015
149	0xbcf70f15	-0.030158559
150	0x3d8dcfad	0.06924377
151	0x3ec74594	0.3892027
152	0x3ddfa236	0.10919611
153	0x3e1db736	0.1540192
154	0x3daf464e	0.085583314
155	0x3da71226	0.081577584
156	0xbe1c555d	-0.15266939
157	0x3ead9944	0.33905995
158	0xbe1516ba	-0.14559451
159	0x3df19fc1	0.11798049
160	0x3e604a13	0.21903257
161	0xbe85d4cb	-0.2613891
162	0x3e46d0a9	0.19415535
163	0x3e86e46d	0.2634615
164	0x3e62505c	0.22100967
165	0x3e3b7801	0.18307497
166	0x3d33f1c8	0.043931752
167	0xbe08efb6	-0.13372692
168	0x3d88ae4e	0.06673871
169	0x3ebea57b	0.37235627
170	0x3e980e42	0.29698378
171	0x3db8dab3	0.090260886
172	0x3e12bdc2	0.143302
173	0xbb570443	-0.0032808937
174	0xbbbf58e7	-0.0058394554
175	0x3dad1608	0.08451468
176	0xbe756bea	-0.23966947
177	0x3d36f97c	0.04467152
178	0x3e2f0975	0.17093451
179	0xba67ef28	-0.0008847588
180	0xbda55889	-0.08073527
181	0xbe75733e	-0.23969743
182	0x3d9aa4ba	0.0755095
183	0x3d7b4692	0.061346598
184	0x3e829453	0.25503787
185	0xbe009e76	-0.12560448
186	0xbe548d50	-0.20757031
187	0xbb017315	-0.0019752432
188	0x3e7fbfc9	0.24975504
189	0xbbc32929	-0.0059558344
190	0x3e575047	0.21026717
191	0x3d584954	0.052804306
192	0x3d52e0f5	0.051484067
193	0x3e5356b9	0.20638551
194	0x3e40d961	0.18832923
195	0x3d1f146e	0.038837843

feat_extraction.stage2.rbr_dense.conv.weight f4 [12, 14, 3, 3]
0	0xbd8f5c34	-0.07000008
1	0xbdb1939e	-0.08670734
2	0xbcbfaa16	-0.023396533
3	0xbcfa39af	-0.030545084
4	0x3d424c61	0.04743612
5	0xbdbd7c99	-0.09252281
6	0x3d0ab5cc	0.03386478
7	0xbd928d4f	-0.07155859
8	0x3c06228a	0.008186946
9	0xbb553f0c	-0.00325388
10	0x3da70e87	0.08157068
11	0xbd44bae3	-0.04802979
12	0xbcc238f3	-0.023708796
13	0x3d7aaf16	0.06120213
14	0x3dc138b5	0.09434644
15	0xbc58a3d8	-0.013222657
16	0x3d80b267	0.062840275
17	0x3c316f46	0.010829752
18	0xbdcdfdd5	-0.1005818
19	0x3c583328	0.01319579
20	0xbc028efb	-0.0079686595
21	0x3d35f9d2	0.0444277
22	0x3d8bdcf9	0.068292566
23	0x3d9e642f	0.07733952
24	0x3d1dd179	0.038529847
25	0xbd947049	-0.07247979
26	0xbd93818f	-0.07202446
27	0xbd3d2f2b	-0.04618756
28	0x3d96f851	0.07371581
29	0xbce89bf8	-0.028394684
30	0xbd120a61	-0.03565443
31	0xbc82a5dd	-0.01594823
32	0xbc515b80	-0.012778163
33	0x3ca5731a	0.020196486
34	0x3db792bb	0.089635335
35	0xbc38c024	-0.011276279
36	0xbcaa5a79	-0.020795094
37	0x3d1afabd	0.03783678
38	0xbc5d7c96	-0.013518473
39	0x3d4a495c	0.049386367
40	0x3d8cabbf	0.068686955
41	0x3c85970c	0.016307376
42	0xbda4b3fe	-0.08042143
43	0x3d92d64c	0.0716978
44	0xbd291819	-0.041282747
45	0xbd4d6407	-0.05014422
46	0x3d8d1c87	0.06890207
47	0xbcf4e207	-0.029892934
48	0x3cd1c47e	0.02560639
49	0x3dc68a2d	0.09694324
50	0x3c022c0f	0.007945075
51	0xbd1533b8	-0.036426276
52	0x3da5918c	0.080844015
53	0x3cb106ed	0.021609748
54	0x3c952e53	0.018210566
55	0xbd1a834e	-0.03772288
56	0xbda5d853	-0.08097901
57	0x3c7c5af4	0.015402544
58	0xbd2a76f4	-0.04161735
59	0xbd18ab4e	-0.037272744
60	0xbdb29c8e	-0.08721267
61	0x3d8bb154	0.06820932
62	0xbd815b05	-0.06316189
63	0x3cafb42f	0.021448223
64	0x3d134644	0.035955682
65	0x3dae5140	0.08511591
66	0x3d217962	0.0394224
67	0xbd468784	-0.04846908
68	0x3d57502b	0.05256669
69	0xbd893ac6	-0.06700663
70	0xbbab15a6	-0.0052210866
71	0xbd073b68	-0.03301564
72	0x3d821989	0.06352527
73	0x3d84adac	0.06478438
74	0xbdf18f7a	-0.11794944
75	0x3d62185a	0.055199005
76	0xbd942b1d	-0.07234786
77	0x3ce43946	0.027859341
78	0xb98afdb9	-0.0002651045
79	0x3c736d51	0.014857606
80	0x3d4e9858	0.050438255
81	0xbd2beb46	-0.04197242
82	0x3d0ab0d3	0.03386004
83	0x3d251ecc	0.040312573
84	0x3db8927f	0.09012317
85	0x3d044587	0.03229287
86	0xba55c279	-0.0008154284
87	0xbd45475c	-0.048163757
88	0xbc67a264	-0.014137838
89	0x3d35676e	0.04428809
90	0xbde6b0d7	-0.11264198
91	0xbe04390b	-0.12912385
92	0xbb96a262	-0.0045969943
93	0xbc83b975	-0.016079644
94	0xbcb0fd04	-0.021605022
95	0xbd3e91e9	-0.04652587
96	0xbd57d41a	-0.05269251
97	0xbd991d58	-0.074763
98	0xbd63d50e	-0.055623107
99	0xbd8eb836	-0.06968729
100	0xbd226f57	-0.039656963
101	0x3d0b5583	0.034017097
102	0xbdaf0932	-0.08546676
103	0x3db0150c	0.085977644
104	0xbdab4388	-0.0836249
105	0x3c840692	0.016116414
106	0xbb92e50d	-0.0044828714
107	0xbe126ed4	-0.1430009
108	0x3cda75fa	0.026667584
109	0x3de2dd1a	0.11077328
110	0xbc6a2a1d	-0.014292267
111	0x3df171bf	0.117892735
112	0x3d1e3958	0.038628906
113	0x3c1bd92e	0.009512229
114	0x3d80c9fc	0.062885255
115	0x3dcc0aac	0.09962973
116	0x3dcd37a0	0.10020375
117	0x3db3c009	0.08776862
118	0xbd7b8bd0	-0.061412632
119	0xbbdd411d	-0.006752147
120	0x3cf68849	0.030094283
121	0xbd24f645	-0.040273923
122	0x3d3c2963	0.045937907
123	0xbd0dea64	-0.03464736
124	0xbdc37dfb	-0.09545513
125	0xbd0b2868	-0.03397408
126	0xbdcc4f15	-0.09976021
127	0xbcb05b1a	-0.021527816
128	0xbe1b9142	-0.1519213
129	0xbdaf1f77	-0.08550923
130	0xbd41f595	-0.047353346
131	0xbd819f4c	-0.063292116
132	0xbdd458be	-0.10368489
133	0x3c96a706	0.01839019
134	0xbe07bc0a	-0.13255325
135	0xbda516f7	-0.08061021
136	0x3dcc9a0e	0.09990321
137	0xbd5d381c	-0.05400859
138	0x3dbe264c	0.09284648
139	0x3e04be10	0.12963128
140	0x3c6b7260	0.014370531
141	0xbd721eaa	-0.059111275
142	0xbdc2470f	-0.094862096
143	0xbd496863	-0.049171817
144	0x3c9f8ebd	0.019477243
145	0xbd2989d1	-0.041391198
146	0xbc152282	-0.009102466
147	0xbd8cf22c	-0.06882128
148	0xbd837aa3	-0.064198755
149	0xbc26a4bb	-0.010171111
150	0x3da2905c	0.079376906
151	0xbd28cebf	-0.041212793
152	0x3d98d4c2	0.07462455
153	0xbe01d556	-0.12679037
154	0x3e379a4b	0.17929952
155	0xbbfe1cb5	-0.007754887
156	0xbe15a8c3	-0.14615159
157	0x3bdd06e7	0.0067452076
158	0xbcf554bb	-0.02994763
159	0xbd8b9a2d	-0.06816516
160	0x3df08cc2	0.117455974
161	0xbda5002e	-0.08056675
162	0xbd32ae0a	-0.043623008
163	0xbde28e7e	-0.110623345
164	0x3d76d2ad	0.06025951
165	0xbdd78eda	-0.10525294
166	0xbd45daf3	-0.04830451
167	0x3d3b9048	0.045791894
168	0x3c93ccd0	0.018041998
169	0xbe08ff6f	-0.1337869
170	0x3c879450	0.016550213
171	0xbca4e4b3	-0.020128584
172	0xbd8f82d6	-0.07007377
173	0xbc1eb552	-0.009686785
174	0x3d0ab2dd	0.033861984
175	0x3d39438b	0.04523043
176	0xbddc4eea	-0.10757239
177	0xbcfb1b61	-0.030652704
178	0xbcc31dcf	-0.023817925
179	0xbd0fa518	-0.035069555
180	0x3d500dec	0.050794527
181	0xbde214aa	-0.110390976
182	0xbe00ae80	-0.12566566
183	0xbd8885de	-0.06666158
184	0xbd8364fa	-0.06415744
185	0xbe378d5e	-0.17925021
186	0xbdc6e6f2	-0.09712018
187	0xbdd25931	-0.10270918
188	0xbda787be	-0.08180188
189	0x3d52c5db	0.05145822
190	0x3d68ad55	0.056805927
191	0x3da20fcc	0.07913169
192	0xbd61db93	-0.055141043
193	0x3c91394b	0.017727515
194	0x3c73aeb8	0.014873199
195	0xbd8a4a5c	-0.06752464
196	0xbdca8974	-0.09889498
197	0xbcf2a858	-0.029621288
198	0xbd80beee	-0.06286417
199	0x3c38de3d	0.0112834545
200	0xbd28f755	-0.0412515
201	0x3c4cb510	0.012494341
202	0xbc4999a2	-0.012304695
203	0xbd515d0c	-0.051114127
204	0x3dcd5fcd	0.10028038
205	0xbdff6123	-0.12469699
206	0xbc1e965a	-0.009679401
207	0x3d80c807	0.06288152
208	0x3e214269	0.1574799
209	0x3d69de8f	0.057097014
210	0xbc883719	-0.016627835
211	0x3db1406d	0.08654866
212	0x3dd09ccc	0.10186157
213	0x3d34752e	0.044057064
214	0xbbf70d59	-0.007539433
215	0x3cb117b7	0.021617753
216	0xbbbf3d5b	-0.0058361716
217	0x3d504e43	0.050855886
218	0xbaf3ef67	-0.0018610776
219	0x3d040d2c	0.032239124
220	0x3df89838	0.121384084
221	0x3d0756dc	0.03304182
222	0x3ce280a1	0.027649226
223	0x3d27c3d8	0.040958256
224	0x3c5a17d4	0.013311345
225	0xbd3399ff	-0.043848034
226	0x3d1f1ce5	0.038845915
227	0xbde5f0dd	-0.11227582
228	0x3d89c809	0.06727607
229	0x3e07ebe5	0.1327358
230	0x3c655ba8	0.013998903
231	0x3d6bede1	0.057599906
232	0x3d34f4dc	0.04417883
233	0xbd8b1266	-0.067906186
234	0xbd075b44	-0.033046022
235	0x3d26c0e1	0.040711287
236	0x3d5569a1	0.05210269
237	0xbc59881c	-0.01327708
238	0x3d16b5d9	0.036794517
239	0xbb59d3fa	-0.003323792
240	0xbb785930	-0.0037894957
241	0x3c026e21	0.007960827
242	0x3d15acf8	0.03654191
243	0x3b819d21	0.003955499
244	0xbbf07974	-0.007338697
245	0x3d645e46	0.05575397
246	0x3d4f0b1c	0.050547704
247	0xbb2f083b	-0.0026707787
248	0x3d83c2cb	0.06433638
249	0xbd6b68ee	-0.057473116
250	0x3d956321	0.07294298
251	0x3d20bf9d	0.039245237
252	0xb997cd6b	-0.00028954013
253	0x3ca21b49	0.019788401
254	0xbd3f286b	-0.046669405
255	0xbdb4181e	-0.087936625

feat_extraction.stage2.rbr_1x1.conv.weight f4 [12, 14, 1, 1]
0	0xbe09dd7b	-0.13463394
1	0xbd958dae	-0.07302414
2	0xbe5af59d	-0.21382757
3	0x3dc5c3bc	0.09656474
4	0xbcd24f24	-0.025672503
5	0x3d4e5fb9	0.050384257
6	0x3e8b1df3	0.27171287
7	0x3d66a8a6	0.05631318
8	0x3dccddf8	0.10003275
9	0x3d81fec1	0.063474186
10	0xbcc1f20a	-0.023674984
11	0x3e3973b8	0.1811055
12	0x3e04c8f4	0.12967283
13	0xbcfcbe9a	-0.030852605
14	0xbd42bf61	-0.047545794
15	0xbd1eca72	-0.038767286
16	0xbcea0c59	-0.028570341
17	0x3e49723f	0.19672488
18	0x3e49964c	0.1968624
19	0x3e64066f	0.22268079
20	0xbe47314f	-0.19452403
21	0xbbd857f0	-0.00660228
22	0x3ca8457b	0.020540943
23	0x3e835d79	0.2565725
24	0xbcaf7501	-0.021418096
25	0x3a91a7b4	0.0011112601
26	0x3e19d850	0.15023923
27	0xbdea1238	-0.11429256
28	0x3e80616c	0.25074327
29	0xbe11faa9	-0.14255776
30	0x3dd61c4b	0.10454615
31	0xbd831acf	-0.06401598
32	0xbe4aa087	-0.19787799
33	0xbe84042b	-0.2578443
34	0x3de07547	0.10959869
35	0xbdd19b8d	-0.10234747
36	0xbe0fd43c	-0.14045805
37	0x3e99dd5e	0.30051702
38	0x3e450259	0.19239177
39	0x3e9c734c	0.30556715
40	0xbdda7818	-0.10667437
41	0x3ccd03b3	0.025026178
42	0x3d0122e0	0.0315274
43	0xbc445b5d	-0.011984673
44	0x3de473f8	0.11154932
45	0x3d8f3f0b	0.06994446
46	0xbdb0a730	-0.086256385
47	0xbd29760a	-0.041372336
48	0xbe0ad1ee	-0.13556644
49	0xbe45ff25	-0.19335611
50	0x3dda43bb	0.1065745
51	0xbd869ce3	-0.065728925
52	0xbde48d39	-0.111597486
53	0xbe06b656	-0.13155493
54	0x3e2a71ce	0.16644976
55	0xbd8932ef	-0.06699168
56	0x3e463978	0.1935786
57	0x3dbee5bc	0.09321162
58	0xbdb53416	-0.08847825
59	0x3e81cd9e	0.25352186
60	0xbdb8b7af	-0.0901941
61	0xbe767017	-0.24066196
62	0x3e354a0b	0.17704026
63	0xbe231aad	-0.15928145
64	0x3e5ddc61	0.21666099
65	0x3e5d4e40	0.21611881
66	0xbd8811d4	-0.066440254
67	0xbd7d27d1	-0.06180555
68	0x3dea9086	0.11453347
69	0x3de0b2a3	0.10971572
70	0x3e513601	0.20430757
71	0x3daeb95b	0.085314475
72	0x3cfbc622	0.030734126
73	0x3e422d77	0.18962656
74	0x3d174de8	0.03693953
75	0xbe4c4797	-0.19949184
76	0xbd3828ea	-0.044960894
77	0xbccdba71	-0.025113316
78	0x39cfb6b6	0.00039618247
79	0xbe6bb799	-0.23019256
80	0xbe879765	-0.26482692
81	0xbdaa0738	-0.08302158
82	0x3da52362	0.08063389
83	0x3ddc257a	0.107493356
84	0xbe5ad68b	-0.21370904
85	0x3e01fb3e	0.12693498
86	0x3d2fd820	0.042930722
87	0x3e2e04e4	0.16994053
88	0xbe082cdc	-0.13298362
89	0xbd8bfa3c	-0.06834838
90	0x3df3ae1d	0.11898444
91	0xbe7735b3	-0.24141578
92	0x3db492ca	0.0881706
93	0xbdad7120	-0.084688425
94	0x3d896df5	0.06710426
95	0xbde4a9c9	-0.111651964
96	0x3e86a8c2	0.26300627
97	0x3d63b3d0	0.055591404
98	0x3cd87fa7	0.026428057
99	0xbdf8493a	-0.12123342
100	0xbe409c00	-0.1880951
101	0xbc827b58	-0.015927956
102	0xbe140cef	-0.14458059
103	0x3ca42a2b	0.020039639
104	0x3e83f969	0.25776222
105	0x3df54291	0.11975587
106	0xbdc124a3	-0.09430816
107	0xbd5b6c33	-0.053569984
108	0x3e07be88	0.13256276
109	0xbc986db4	-0.018606998
110	0xbe354bdf	-0.17704724
111	0xbc72b4b3	-0.01481359
112	0x3e0f669a	0.14003983
113	0xbdf4a2f6	-0.11945145
114	0xbd40ac1e	-0.047039144
115	0xbd8e3bbf	-0.069449894
116	0x3e0f0c25	0.13969477
117	0xbe010e2a	-0.1260306
118	0xbd8f119b	-0.0698578
119	0x3dcf5b7e	0.101248726
120	0xbdfc6b87	-0.12325197
121	0x3e83a323	0.257104
122	0xbe338299	-0.17530288
123	0xbe4546a4	-0.19265229
124	0xbbaab313	-0.0052093356
125	0xbe19f373	-0.15034275
126	0xbe857b5c	-0.26070678
127	0xbe1da35a	-0.15394345
128	0xbe6f7368	-0.23383868
129	0x3e7c2c50	0.24626279
130	0x3d1c8fc7	0.038223054
131	0xbdf96371	-0.1217717
132	0x3df655a3	0.12028053
133	0x3d152476	0.036411725
134	0xbdefa5c5	-0.1170154
135	0x3e5f122a	0.21784273
136	0xbe08444b	-0.13307302
137	0xbd5a6d5e	-0.053326957
138	0x3e6b63a1	0.22987224
139	0x3e2b1c01	0.16709901
140	0x3de6bf85	0.11266998
141	0x3de575fd	0.11204145
142	0xbdd06971	-0.10176361
143	0xbe81e853	-0.25372562
144	0xbc28c260	-0.010300249
145	0x3e0dab0f	0.13834785
146	0x3e405737	0.1878327
147	0xbd304026	-0.043029927
148	0xbdece4bd	-0.11567066
149	0x3cda4892	0.026645932
150	0x3e597a42	0.21238044
151	0x3d94a5c4	0.0725818
152	0x3e927039	0.28601244
153	0xbde64f4d	-0.11245594
154	0x3d80f04f	0.06295835
155	0xbe081f85	-0.13293274
156	0x3d07cef0	0.033156335
157	0x3e352ef3	0.17693691
158	0xbe55736c	-0.20844811
159	0x3e6edb9b	0.2332596
160	0x3e67e203	0.2264481
161	0x3e652bba	0.22379962
162	0xbd9c313e	-0.0762658
163	0x3e599dd9	0.2125162
164	0x3d8e802f	0.06958043
165	0xbdbd141f	-0.092323534
166	0x3e9b1818	0.3029182
167	0xbe67c80f	-0.2263491

importance_map.upscale.weight f4 [12, 6, 3, 3]
0	0x3d48ee87	0.049055602
1	0x3d0972ac	0.033556625
2	0x3d9d0dc0	0.07668638
3	0xbd0dc770	-0.034614027
4	0xbcf4cdfa	-0.029883374
5	0x3cf69ffc	0.030105583
6	0xbdefd3dc	-0.11710331
7	0xbd032b2a	-0.032023586
8	0xbca1514c	-0.019692086
9	0xbe19f7b0	-0.15035892
10	0xbc5b7881	-0.01339543
11	0x3de338de	0.11094831
12	0xbc75ffde	-0.015014617
13	0xbcefaf9b	-0.02925854
14	0x3c48664f	0.0122314235
15	0x3c8e2b2b	0.017354568
16	0x3d667127	0.056260254
17	0x3d4279b6	0.047479354
18	0xbd969d0d	-0.07354174
19	0xbe294517	-0.16530262
20	0x3d925fdf	0.07147192
21	0x3df9f885	0.122056045
22	0xbdde3ac9	-0.10851056
23	0x3e273ad3	0.16331033
24	0x3def677f	0.11689662
25	0x3d931633	0.071819685
26	0x3e16e70c	0.14736575
27	0x3d805178	0.06265539
28	0x3d95762f	0.07297932
29	0xbda0a78e	-0.078444585
30	0xbd273f18	-0.040831655
31	0xbcec8f8c	-0.028877042
32	0x3cf9bf2f	0.030486671
33	0x3cd71042	0.02625287
34	0x3d3c3c0f	0.045955714
35	0xbd83af33	-0.06429901
36	0x3da461c3	0.08026459
37	0xbd82b9da	-0.063831046
38	0xbd9f3887	-0.077744536
39	0x3e3aae2d	0.18230505
40	0x3e4ee0be	0.2020292
41	0x3e5aa771	0.21352936
42	0x3c8c14fe	0.017099854
43	0x3e3c119e	0.18366095
44	0x3d0d22f3	0.03445716
45	0xbe11d4d7	-0.14241348
46	0x3de0c32e	0.109747276
47	0xbd1e96df	-0.0387181
48	0xbddda01b	-0.10821553
49	0x3e374cb8	0.1790036
50	0x3c0a5b3b	0.008444603
51	0x3d3d35e6	0.04619398
52	0xbd103fb8	-0.035217017
53	0xbe0cef76	-0.13763222
54	0x3e04bd0a	0.12962738
55	0x3d75b49e	0.059986703
56	0x3d89d398	0.067298114
57	0x3db1a652	0.08674301
58	0x3e4630dd	0.19354577
59	0x3eac1a8a	0.33613998
60	0xbcf9d982	-0.030499224
61	0x3d72092b	0.059090775
62	0x3e691fdd	0.22766061
63	0x3d57cbfc	0.05268477
64	0x3e4884c1	0.19581892
65	0xbdb13c37	-0.08654063
66	0x3e062733	0.13100891
67	0xbb5ad18c	-0.003338906
68	0x3d2016a2	0.039084084
69	0x3d774e27	0.060377266
70	0x3dd4db38	0.10393375
71	0x3e6590cb	0.22418515
72	0xbe0bb3b9	-0.13642778
73	0xbe023dd3	-0.12718897
74	0xbdf17001	-0.11788941
75	0x3d6953ca	0.056964673
76	0x3d0070d4	0.0313576
77	0x3dda2b74	0.10652819
78	0xbbe07a21	-0.0068504964
79	0xbe6db410	-0.2321322
80	0xbcb75e14	-0.022383727
81	0x3c1efd24	0.009703908
82	0x3d4447b5	0.047919948
83	0x3dd7d098	0.10537833
84	0xbdaada32	-0.08342399
85	0x3d680811	0.056648318
86	0xbce02ea2	-0.027365986
87	0x3ab77d0f	0.0013999062
88	0xbc85f18e	-0.016350534
89	0x3dba937e	0.09110163
90	0x3de060b0	0.10955942
91	0x3cfc6095	0.030807773
92	0xbcfa6a37	-0.030568225
93	0xbd5fa7b7	-0.054603305
94	0xbc84060c	-0.016116165
95	0xbccad8f4	-0.024761654
96	0x3d5c9cc1	0.05386043
97	0xbd03e599	-0.032201383
98	0xbc8fc593	-0.017550265
99	0xbcd43dc2	-0.025908355
100	0x3ccc2a6c	0.024922572
101	0xbe6fd87c	-0.23422426
102	0xbdbe618d	-0.0929595
103	0x3e17325d	0.14765306
104	0xbdcf1f13	-0.10113349
105	0xbdcd3e28	-0.10021621
106	0x3d70dd53	0.05880482
107	0xbe6cd926	-0.2312971
108	0x3de6ecb7	0.112756185
109	0xbddce861	-0.1078651
110	0xbd3795ea	-0.044820704
111	0x3da8ea8a	0.0824786
112	0x3df712bb	0.120641194
113	0x3dce1c9e	0.10064052
114	0xbd43ff39	-0.04785082
115	0x3d864fb3	0.0655817
116	0x3d794fc3	0.060867082
117	0xbdcbf794	-0.09959331
118	0xbdb9c11f	-0.09070038
119	0x3c74ea58	0.01494845
120	0x3de62451	0.112373956
121	0xbd2edca0	-0.042690873
122	0x3d3bf6f8	0.045889825
123	0x3db28789	0.087172575
124	0x3daeafc0	0.085296154
125	0x3d6a4a4c	0.05719976
126	0xbd27f105	-0.04100134
127	0x3dc70029	0.097168274
128	0xbdfb3f77	-0.12267964
129	0x3c980952	0.018559132
130	0x3d6a9011	0.0572663
131	0xbc5fcec1	-0.013660134
132	0x3df18d2d	0.11794505
133	0xbdd7b47a	-0.1053247
134	0xbdab2674	-0.08356944
135	0x3e1c1785	0.15243347
136	0xbcd0b34f	-0.025476126
137	0x3d81e585	0.063426055
138	0x3d339d3d	0.043851126
139	0x3e068c6d	0.13139506
140	0x3d0561c5	0.032563943
141	0x3cb39fde	0.021926817
142	0xbd2d8cc4	-0.042370573
143	0x3ca9b23d	0.020714873
144	0xbdd0c3b4	-0.101935774
145	0x3d17f407	0.037097957
146	0xbc3b8115	-0.01144435
147	0xbdc4b1a2	-0.09604193
148	0xbd11831d	-0.03552543
149	0xbcd5c52c	-0.026094995
150	0x3cf12790	0.02943781
151	0xbddcbc37	-0.10778087
152	0x3dfcf454	0.123512894
153	0xbdfbb806	-0.12290959
154	0x3e151946	0.14560422
155	0x3b8277bc	0.0039815586
156	0x3da50cf1	0.08059109
157	0x3d4c679f	0.04990351
158	0xbdaf3065	-0.085541524
159	0xbdf2d4e6	-0.118570134
160	0x3d1abdaf	0.037778553
161	0xbca8a0d3	-0.0205845
162	0xbd3b62d3	-0.045748543
163	0xbdb1dddb	-0.08684894
164	0x3b2cfd97	0.0026396269
165	0x3d2a65ce	0.041600995
166	0xbdeefadb	-0.11668941
167	0xbdeeaa07	-0.11653524
168	0x3dc8789c	0.097886294
169	0x3af0fa3d	0.0018385124
170	0xbc410543	-0.01178104
171	0xbe3474dc	-0.17622703
172	0x3d7f68c2	0.062355764
173	0x3e4826f0	0.19546103
174	0xbd9dd502	-0.07706644
175	0x3d001598	0.031270593
176	0xbdfbaed0	-0.12289202
177	0x3dd67085	0.1047068
178	0x3ce14e4c	0.027503155
179	0xbda13bfc	-0.07872769
180	0x3cab493f	0.02090895
181	0xbe13a354	-0.14417773
182	0x3c720ef0	0.014774069
183	0x3be20c09	0.0068984074
184	0xbe1c893d	-0.15286727
185	0x3d947da6	0.07250528
186	0x3deb0ef9	0.11477465
187	0xbde71e31	-0.112850554
188	0x3dd27769	0.10276682
189	0xbdef57f3	-0.11686697
190	0xbd80868d	-0.062756635
191	0xbcb85317	-0.022500558
192	0xbc8f8faf	-0.017524568
193	0xbe013be4	-0.12620503
194	0xbd8a7e18	-0.06762332
195	0xbd0bc6ca	-0.034125127
196	0xbe3940af	-0.18091081
197	0xbd00c4e5	-0.031437773
198	0xbd06cadd	-0.03290831
199	0x3da44c25	0.08022336
200	0x3b9d4cb0	0.0048004016
201	0xbbdd061b	-0.0067451126
202	0xbd7512e2	-0.05983246
203	0xbde4774b	-0.11155566
204	0x3e08f45b	0.13374464
205	0xbde39f7a	-0.11114402
206	0x3e1a6efc	0.150814
207	0xbdef7ce4	-0.11693743
208	0x3e027770	0.12740874
209	0x3d9d6d58	0.07686871
210	0x3d901ebe	0.070371136
211	0x3ddb9cc0	0.10723257
212	0xbd8d2b24	-0.06892994
213	0xbe2634dd	-0.16231103
214	0x3ce41d0b	0.02784588
215	0xbe26487d	-0.1623859
216	0x3af41559	0.0018622085
217	0xbdfa4579	-0.12220282
218	0xbd06a89e	-0.03287565
219	0x3df308c6	0.11866908
220	0x3c29a848	0.010355063
221	0xbd452e0e	-0.048139624
222	0x3e25db29	0.16196884
223	0xbd3eeaed	-0.04661076
224	0xbdd92193	-0.10602107
225	0x3c15a3a7	0.009133256
226	0x3dc54dc0	0.0963397
227	0xbc8c654e	-0.01713815
228	0xbe0012f8	-0.12507236
229	0x3d80bf23	0.062864564
230	0x3a01df0a	0.0004954195
231	0xbd1d115a	-0.038346626
232	0xbd36e7a3	-0.0446545
233	0x3d70dbcf	0.058803376
234	0x3d8f0062	0.06982495
235	0xbd397f85	-0.045287628
236	0x3e08b333	0.13349609
237	0x3e125924	0.14291817
238	0x3cfb2f3f	0.030662177
239	0xbd9915d9	-0.0747487
240	0xbd6c8bb7	-0.05775043
241	0xbd69008f	-0.0568853
242	0x3c93827b	0.018006554
243	0xbd8fdf9e	-0.070250735
244	0xbe245ec5	-0.16051777
245	0xbd0cdb70	-0.03438896
246	0xbd23a2b0	-0.039950073
247	0x3ca86ec9	0.020560639
248	0xbd0411e0	-0.03224361
249	0x3d0afe3d	0.033933867
250	0x3d1c54ee	0.038166933
251	0x3dd1d8c1	0.10246421
252	0x3aba3776	0.0014207202
253	0x3d88faf2	0.06688489
254	0xbda0e629	-0.078563996
255	0x3d810d68	0.06301385

importance_map.upscale.bias f4 [6]
0	0x3dabfb89	0.08397586
1	0x3d3a875b	0.04553924
2	0xbe058b4b	-0.13041417
3	0xbcdf9711	-0.027293714
4	0xbdac31ff	-0.084079735
5	0x3d3be841	0.04587579

importance_map.genmap.weight f4 [18, 6, 3, 3]
0	0x3da7d504	0.081949264
1	0x3d30328c	0.043016955
2	0x3dfc990d	0.123338796
3	0x3cba0ae2	0.022710267
4	0x3dcaa890	0.09895432
5	0x3c2180a8	0.009857334
6	0x3e06c95d	0.13162751
7	0x3db760c0	0.089540005
8	0x3e309639	0.17244805
9	0xbbb6d54a	-0.0055796253
10	0x3d010c86	0.031506084
11	0xbdeb6c1f	-0.11495232
12	0x3e11e90a	0.14249054
13	0x3cee3372	0.029077265
14	0x3d95c732	0.07313384
15	0xbdd77582	-0.1052046
16	0xbbed57f6	-0.007243152
17	0x3e05d033	0.13067703
18	0xbc9404af	-0.01806864
19	0x3ccaa797	0.024738116
20	0x3de3931f	0.111120455
21	0x3d794eaf	0.060866054
22	0x3d9c9a41	0.07646609
23	0xbdb2675f	-0.08711123
24	0xbd6798e5	-0.056542296
25	0x3c50768b	0.012723575
26	0x3b32319a	0.002719021
27	0xbda0ea30	-0.07857168
28	0xbe1a076e	-0.15041897
29	0x3e06a852	0.13150147
30	0xbd148628	-0.036260754
31	0x3dfb328f	0.12265503
32	0xbd7b36c3	-0.06133152
33	0x3dace1f2	0.08441533
34	0xbd8fce2b	-0.07021745
35	0x3df07ff4	0.11743155
36	0x3e02d071	0.12774827
37	0x3dc360ba	0.095399335
38	0xbd9bd84a	-0.07609613
39	0xbd8a06db	-0.06739589
40	0xbe01714d	-0.12640877
41	0xbd924e03	-0.07143786
42	0x3d39aad1	0.04532892
43	0x3d98ce45	0.07461218
44	0xbd89324f	-0.06699049
45	0x3d8f4663	0.06995847
46	0x3d0747f6	0.03302761
47	0xbc82e156	-0.01597659
48	0xbd77b85c	-0.060478553
49	0x3dcfb58f	0.101420514
50	0x3d2003f3	0.039066266
51	0x3d9b5604	0.075847656
52	0x3e0b000b	0.13574235
53	0x3dc3c132	0.095583335
54	0x3dc7266a	0.09724124
55	0x3ca40c6e	0.020025458
56	0x3dc268a8	0.09492618
57	0x3e16d783	0.14730649
58	0x3e01317d	0.12616535
59	0x3e019e13	0.12657957
60	0xbce04d0f	-0.027380494
61	0x3cd536ad	0.026027048
62	0xbd2d1988	-0.042260677
63	0x3df09339	0.117468305
64	0x3a7fc0d0	0.00097562093
65	0xbdbe15b9	-0.09281487
66	0xbd27df0a	-0.04098419
67	0xbdb2f284	-0.087376624
68	0x3d297034	0.04136677
69	0x3e0dfba5	0.13865526
70	0x3ccabde2	0.024748746
71	0xbcbbbcd7	-0.022917194
72	0xbd80f8e5	-0.06297473
73	0xbde7c5c3	-0.11317017
74	0x3d315e95	0.04330309
75	0x3d920526	0.07129888
76	0xbde886b3	-0.11353817
77	0x3d6996d3	0.057028603
78	0x3ca5dad8	0.020245954
79	0xbe08a6f8	-0.13344944
80	0x3d7ab547	0.061208036
81	0x3d3a5d2e	0.04549902
82	0xbd44e8b5	-0.04807349
83	0x3deb56cb	0.11491164
84	0xbd7f1a07	-0.06228068
85	0x3c9b2223	0.018937176
86	0x3e0adde6	0.1356121
87	0x3df6e132	0.12054671
88	0x3dd7b942	0.10533382
89	0xbd0fd87f	-0.035118576
90	0xbd25cf60	-0.04048097
91	0x3d6fedad	0.058576275
92	0x3ce42b51	0.027852686
93	0x3df130dd	0.11776898
94	0x3dfdaa2f	0.123859756
95	0x3dfa2f24	0.122160226
96	0x3d958dfd	0.07302473
97	0xbd8b0d0d	-0.067895986
98	0x3ce90cf1	0.028448554
99	0x3d481bcb	0.04885463
100	0x3c891338	0.016732797
101	0x3bed1351	0.0072349687
102	0x3c1b792d	0.00948934
103	0xbdbda6a1	-0.092602976
104	0x3c582549	0.013192483
105	0xbd9db9c8	-0.077014506
106	0x3e1e4729	0.15456833
107	0xbcf034ba	-0.029322017
108	0x3d54e38e	0.051974826
109	0xbd20158c	-0.03908305
110	0xbdaac576	-0.08338444
111	0x3d30789e	0.04308378
112	0xbde7d945	-0.11320738
113	0x3db2e7d9	0.08735628
114	0x3c8fb17d	0.017540688
115	0x3c7d23ed	0.01545046
116	0x3db2e661	0.087353475
117	0x3db8f386	0.090308234
118	0x3df2978e	0.11845313
119	0x3db987cb	0.090591036
120	0xbc9b6519	-0.018969106
121	0xbb28133b	-0.0025646228
122	0xbdefec61	-0.117150076
123	0x3d2cda40	0.042200327
124	0x3c408e56	0.0117526855
125	0x3dd384f6	0.10328095
126	0x3ddb44c5	0.10706476
127	0xbdf5fe9c	-0.120114535
128	0xbd5a922e	-0.053362064
129	0x3dfb2c49	0.12264306
130	0x3d2e6140	0.042573214
131	0xbbf60de0	-0.0075089782
132	0xbd9ee1ab	-0.077578865
133	0xbe5b5c8d	-0.21422024
134	0x3da039f8	0.07823557
135	0x3d91472a	0.070936516
136	0x3d5d0ffb	0.05397032
137	0x3dba7b2c	0.091055244
138	0xbd6e1959	-0.058129642
139	0x3e2df0a0	0.16986322
140	0x3da69d1b	0.08135434
141	0x3d949bc4	0.072562724
142	0xbb568450	-0.0032732673
143	0xbdc69ccc	-0.096978754
144	0x3d95a8a1	0.07307554
145	0x3d8a61f1	0.06756962
146	0x3d8377b4	0.06419316
147	0x3d932181	0.07184125
148	0xbd23d8ea	-0.040001787
149	0x3e0463c8	0.12928689
150	0x3d64afa4	0.055831566
151	0xbdb7a48e	-0.08966933
152	0xbc8680e7	-0.016418887
153	0xbd58b215	-0.052904207
154	0x3db973aa	0.09055264
155	0xbde5336f	-0.11191451
156	0xbdac91c5	-0.08426241
157	0xbb08c9a7	-0.0020872147
158	0xbe06151c	-0.1309399
159	0xbe19f86d	-0.15036173
160	0xbdaecf3d	-0.08535621
161	0x3d5c27ef	0.05374902
162	0xbd9f635b	-0.077826224
163	0xbc45fb4d	-0.012083841
164	0x3df4625f	0.11932825
165	0xbcd44e88	-0.025916353
166	0x3e145309	0.144848
167	0xbd832cb2	-0.06405009
168	0x3a738ff7	0.0009291167
169	0x3aa00ceb	0.0012210881
170	0xbd816ede	-0.06319974
171	0x3e07682e	0.13223335
172	0x3d41ff4f	0.047362622
173	0xbda6d999	-0.08146972
174	0x3d91d27e	0.07120226
175	0xbd11bf30	-0.03558272
176	0xbd5b3c1c	-0.05352412
177	0x3deff224	0.117161065
178	0x3d8d07ff	0.06886291
179	0xbc716da1	-0.01473561
180	0x3d2c0d6c	0.042004988
181	0x3d411bc3	0.047145616
182	0xbd57fcc3	-0.052731287
183	0x3e10240d	0.14076252
184	0x3e51bcf6	0.20482239
185	0x3df95870	0.12175071
186	0xbd836adc	-0.06416866
187	0x3d3b720e	0.045763068
188	0x3b17acc8	0.0023143757
189	0x3e261751	0.16219832
190	0xbe0e6031	-0.13903882
191	0x3d1f80d3	0.038941216
192	0x3df34ec1	0.118802555
193	0xbd881cd0	-0.066461205
194	0xbbafd11e	-0.005365505
195	0x3e1390fe	0.14410779
196	0x3d393a45	0.045221586
197	0x3e43f80f	0.19137596
198	0x3ddc5b6d	0.107596256
199	0x3ce52358	0.027970955
200	0xbd19736a	-0.037463583
201	0xbd33de16	-0.04391297
202	0x3dc83baa	0.09777005
203	0x3c515fb0	0.012779161
204	0x3e274a66	0.16336975
205	0x3e13ab12	0.14420727
206	0x3d82f2cf	0.06393968
207	0x3e25d0a2	0.16192868
208	0xbc68b53b	-0.014203365
209	0x3da77d93	0.08178248
210	0x3e187f35	0.14892276
211	0xbd9353d3	-0.071937226
212	0x3d7e126e	0.062029295
213	0x3c81939c	0.015817456
214	0x3dc2820a	0.09497459
215	0x3dce90f1	0.10086239
216	0xbe403595	-0.1877044
217	0xbea793e0	-0.32730007
218	0xbe23901e	-0.15972945
219	0xbd9d180a	-0.07670601
220	0xbdc7c9a6	-0.09755258
221	0xbd59c074	-0.053162053
222	0xbe85d84a	-0.26141578
223	0xbeb08ffd	-0.34484854
224	0xbe54f0dc	-0.20795006
225	0xbe2eaad8	-0.17057359
226	0xbd0c88fc	-0.034310326
227	0x3bd8a765	0.006611752
228	0x3b6bbb0a	0.0035969638
229	0xbdfc482d	-0.12318454
230	0xbe7fd18f	-0.24982284
231	0x3ce0e058	0.027450725
232	0xbe2a9eaf	-0.16662095
233	0xbb505a45	-0.0031792086
234	0x3c29f94c	0.010374378
235	0xbde44572	-0.11146058
236	0x3e15cba8	0.1462847
237	0x3abc04fc	0.0014344747
238	0xbe2c51e8	-0.1682812
239	0x3c9d8d84	0.019232519
240	0xbd2246ea	-0.03961841
241	0xbd8b8f33	-0.068144225
242	0x3c3f2d37	0.011668495
243	0x3b8c56c6	0.004282805
244	0xbdd1fa09	-0.102527685
245	0xbc5239ba	-0.012831146
246	0xbde64f8d	-0.11245642
247	0xbd4b0f9b	-0.04957543
248	0xbd86c78c	-0.06581029
249	0x3d8ed138	0.06973499
250	0x3cd20f72	0.02564213
251	0x3e16d60c	0.1473009
252	0x3d878c7a	0.06618591
253	0xbe22daca	-0.15903774
254	0xbc5b2f72	-0.013378011
255	0xbc5df653	-0.013547498

importance_map.genmap.bias f4 [18]
0	0x3d36a169	0.044587526
1	0x3e102488	0.14076436
2	0x3d648e23	0.055799615
3	0x3c918385	0.017762909
4	0xbe264ae1	-0.16239502
5	0x3def78d5	0.11692969
6	0x3e0a4901	0.13504411
7	0x3c1d74d7	0.009610376
8	0xbd4b2ef1	-0.049605314
9	0x3e5e3d06	0.21702966
10	0x3def9a7a	0.11699386
11	0xba372b8b	-0.00069873844
12	0x3d3c9f59	0.046050403
13	0xbd622adc	-0.055216655
14	0x3d9310ef	0.07180964
15	0xbe5fed21	-0.21867801
16	0x3e00906b	0.12555091
17	0x3de456d1	0.111493714
