experiment/meta/model/model_10.pt (torch, 28984 bytes, 14 tensors)

feat_extraction.stage0.rbr_dense.conv.weight f4 [14, 3, 3, 3]
00000000: cea2 3d3e f960 8c3b 1420 5a3d 0864 353e
00000010: c00d fdbd 0bb6 2b3e a990 203d ccf1 1f3e
00000020: 949f 3c3d 7a77 3b3d ec17 083e 367a c93d
00000030: 15ad 103e 4824 d9bc 9a94 033d fbb2 303d
00000040: 8e1e 8d3d 3ee5 553c dd7a 3a3e 90a4 9d3d
00000050: 6962 17bd 90fb c4bd 06f8 25bd e89a acbd
00000060: fd05 29bd 7656 e03a e1fa bc3d 0d70 eb3d
00000070: 145b 55be d72e a73d 9f79 b23d 6d7d 3d3e
00000080: dee9 fa3d 7a5d 71be 5bd9 75be f8cf 19be
00000090: e120 213e c5ab 6ebd 7b91 0a3d d47b 90bd
000000a0: 826a 473e c7d7 b8bd 98fc 853d c8df 7ebd
000000b0: 47d4 2ebe ef65 263e 71a9 31bd 0521 b83d
000000c0: 9dab 073d 1eb7 873d 23a4 f2bd 90ac cabd
000000d0: 2c40 ee3d cb99 3dbd 9c8e 793e 904f 4f3e
000000e0: 740e b33c b209 96bd c123 2d3e 5685 de3d
000000f0: dcef a5bd 1410 303e 6c96 1e3e b9fb 4a3e
00000100: 2859 96bd 96b5 1fbc c458 ee3c 578b 8b3d
00000110: bbab d6bd ac9e f4bd ce7c 093e e78d b3bc
00000120: a058 043e 93ec 5f3d 2af1 b43d b4b0 a93d
00000130: 7db5 f73d 0e5d 0f3e 92eb 24be 185e 023e
00000140: 1e7b f6bd 3a98 0ebe 5ffd dd3d 92f4 64bb
00000150: 1c36 b73d 76e4 89bd 725d 4dbe aa25 a23d
00000160: c3d4 ebbc b474 983d c67a 183d db02 8abd
00000170: f65e 243d 69c4 863c ba8d 9ebd 7565 f9bd
00000180: c7ea 3c3c 505b 363d be60 e6bd 6e66 7bbd
00000190: 8b1e 7c3e 164c 2ebc a651 e03d 0fb8 103e
000001a0: 085a f6bd b9fe 46be e1d2 463e 0aba 88bb
000001b0: fc91 233e a8d5 913d 9070 a23d 45e1 393e
000001c0: a443 653e 18f3 dabd 2d66 373d 3114 3a3e
000001d0: 6a0e 213e 6161 233e 73b4 bbbd 4943 d1bd
000001e0: 2a6b 87bd 03e1 a73d cf47 6e3e 1def b8bd
000001f0: a9a6 1d3e 30f6 94bd fdaa f1bd dee5 ad3c
00000200: 874a 1a3e b75c 813e 48d1 3dbd bd20 b23d
00000210: 9515 563e 2967 3c3e 8a0e 193e 800a 263e
00000220: c0a3 183e afc6 703d 7952 debd 41d6 babd
00000230: 45df 8bbd bcd9 c13b 8949 55bd 60e1 d93d
00000240: 6507 9f3d 0f3f bebb 38c2 b83d 1994 973d
00000250: 17aa 503e 34a8 263e cedc 61bd 8dbc 833e
00000260: 33d4 023c cc32 f6bc f306 39be 51af 19be
00000270: d61c 0fbe 83c7 e7bc c55a 063e ba17 cabd
00000280: 6eb1 e1bd 3d30 7c3d 291e 2f3d 4118 e93d
00000290: a4d6 02be 9d8f 2b3d c05e 36bd e326 85bd
000002a0: 3312 1bbe 6488 81bd e1ff 58bd e7af 4c3d
000002b0: acd2 133d 516b c13c b3af 3e3e e3b7 6f3e
000002c0: 2c73 f93d cfdf 41bc 1152 e2bd e313 133e
000002d0: 7634 2bbc a4cc 3b3d 27e2 28be 2f16 073d
000002e0: 1e39 64bc af30 4a3e e9b2 11be 59b9 c7bd
000002f0: 6e23 2cbc 2ab6 0fbe ca4c 2c3d cc17 fdbd
00000300: 548a f8bd 1979 373c 9e08 dc3d ffa6 32be
00000310: ab9e 9b3d d6f3 c53d f81b 213e a032 10be
00000320: 0977 993c e55f 25be 1be5 423e 0d1e a4bd
00000330: cc06 ae3d d35f 363c 31a9 cfbc 9a96 013d
00000340: 07aa c83d a6ed f53d bd7e af3d b493 243e
00000350: bbe5 efbd d5f9 2d3e a029 703e 10e2 483e
00000360: 6491 233e 9a6f efbd f57a d2bc 97d8 683e
00000370: 8d0f 0dbe 17b9 533e 091f dcbd 1b15 c7bd
00000380: 52de ac3d a603 bcbd 0bba 95bc 3f03 413e
00000390: 0431 663e 861a 3e3e 7a9b c9bb 37ac b2bd
000003a0: bdc7 663e 44fc 31bd a06b 66bd 851d 553d
000003b0: 0583 96bd 7f65 123e dab5 a13d 0a35 01be
000003c0: e152 09be ab64 e3bb bef4 9d3d 9dc7 91bd
000003d0: c1b0 0cbe e5a5 96bd 903c 7ebe a463 35be
000003e0: d835 40be 6a65 fc3c 67b1 0f3d 9db8 0fbe
000003f0: 45c7 82bd 50aa 073d 1ec6 90bd cd9e 0cbe
0.18519136 0.004284021 0.05325325 0.1771394 -0.12356138 0.16768663 0.03920046 0.15619582
0.046050623 0.04576824 0.13290375 0.09837763 0.14128526 -0.026506558 0.03212414 0.04313944
0.068905935 0.013055144 0.18210931 0.076974034 -0.036959086 -0.09618294 -0.040519737 -0.084279835
-0.041265476 0.0017115611 0.09227539 0.11495981 -0.20835525 0.08163231 0.08714604 0.18504877
0.12251638 -0.23570815 -0.24008696 -0.1502074 0.15735199 -0.05826928 0.033830147 -0.07054868
0.19474223 -0.09025531 0.06542319 -0.062225133 -0.17073165 0.16249822 -0.043374483 0.08990673
0.033122648 0.06626724 -0.11847713 -0.09896195 0.116333336 -0.046289247 0.24370807 0.20245194
0.021857478 -0.07326068 0.1690817 0.108652756 -0.0810239 0.17193633 0.15487069 0.19822587
-0.07341224 -0.009747883 0.029095061 0.06813686 -0.10481974 -0.11944327 0.13426515 -0.02191825
0.12924433 0.054668974 0.08835061 0.082856566 0.12095163 0.14000341 -0.16105488 0.12731206
-0.120352015 -0.13925257 0.10839342 -0.0034935814 0.089458674 -0.067330286 -0.20055178 0.0791734
-0.028787976 0.07444134 0.03722646 -0.06738826 0.040129624 0.016451078 -0.07741876 -0.121775545
0.011530585 0.044520676 -0.11248921 -0.06137698 0.24621026 -0.0106382575 0.10953073 0.14132713
-0.12028891 -0.19433106 0.19416381 -0.004172568 0.15973657 0.0712083 0.07931626 0.1815234
0.22389084 -0.10690898 0.044775177 0.18171765 0.15728155 0.15955116 -0.09165277 -0.10217912
-0.06612237 0.081972145 0.2326958 -0.09029982 0.15395607 -0.07273519 -0.118001916 0.021227773
0.15067492 0.25266048 -0.046342164 0.086976506 0.2090667 0.18398727 0.14946952 0.16214943
0.14906216 0.05878323 -0.10855574 -0.09122897 -0.06829695 0.0059158485 -0.05207208 0.1063869
0.07765082 -0.005805857 0.09021419 0.07401294 0.20377384 0.16275102 -0.055142216 0.2572979
0.007985163 -0.030053519 -0.18069057 -0.15008284 -0.13975844 -0.028293377 0.13120563 -0.09867807
-0.1102017 0.06156944 0.042753372 0.11381579 -0.12777191 0.041885007 -0.044523954 -0.06501558
-0.15143661 -0.063248426 -0.0529784 0.04997244 0.036089584 0.023610743 0.18621711 0.23409991
0.121801704 -0.011833145 -0.11050809 0.14363055 -0.010449519 0.045849457 -0.1649252 0.03298014
-0.013929633 0.19745134 -0.14228405 -0.09752149 -0.010506494 -0.14034334 0.04206542 -0.123580545
-0.12135759 0.0111983055 0.10743831 -0.17446516 0.07598623 0.09665649 0.15733325 -0.14081812
0.018733518 -0.16149862 0.1903271 -0.08013544 0.0849739 0.011131245 -0.025349231 0.031637765
0.09798055 0.120082185 0.08569095 0.1607197 -0.117137395 0.16989835 0.23453379 0.19617486
0.15973431 -0.11691208 -0.025693396 0.22738872 -0.13775463 0.20676075 -0.10748107 -0.097208224
0.08440842 -0.091803834 -0.018277189 0.18848895 0.22479635 0.18564805 -0.0061525675 -0.087242536
0.22537132 -0.04345347 -0.056254983 0.052030105 -0.07349209 0.1429653 0.078960136 -0.12617889
-0.13410522 -0.006939491 0.077126965 -0.07118151 -0.13739301 -0.073558606 -0.2482779 -0.17713791
-0.1877054 0.030810077 0.035081293 -0.14035268 -0.06385664 0.033121407 -0.07069038 -0.13732453

feat_extraction.stage0.rbr_1x1.conv.weight f4 [14, 3, 1, 1]
00000000: 8fcc b13e 36c7 f73d 3801 f4bd d51b f9be
00000010: e640 e73e 375e 7cbd b975 a4be 8305 d23e
00000020: 5715 833e 157d 3f3e c71a 81bd 8e38 fabd
00000030: 38ba 0e3e de2b 013f d198 1f3e 9e7a 4fbe
00000040: 36e9 283f b8ec 873d f8c0 f63e 02bd 3f3e
00000050: b4b1 203f 61b5 aa3e f861 89be 39f0 013f
00000060: 5575 4d3c 496c ebbe 178a 26be deee 0fbf
00000070: a943 abbe dda8 e4be 5638 d73e 6770 80bd
00000080: 462a 94bd 120a 923e d1bc 8a3e 5a47 aebe
00000090: 802e 203e 3cb4 5c3e c2b8 fabe 9286 0e3f
000000a0: 5b51 afbe 5ae2 7abe
0.34726378 0.12098543 -0.11914295 -0.48654047 0.451667 -0.061613288 -0.32121065 0.4101983
0.25602219 0.18700059 -0.063039355 -0.12217818 0.13938224 0.5045756 0.15585639 -0.20261618
0.6598085 0.066369474 0.48194098 0.18724445 0.62771153 0.33341506 -0.26832557 0.50757176
0.012540181 -0.45981053 -0.16263615 -0.5622386 -0.33450058 -0.44660082 0.42035168 -0.06271439
-0.072346255 0.28523308 0.2709718 -0.34038812 0.15642738 0.21553129 -0.48969084 0.5567409
-0.34241757 -0.24500409

feat_extraction.stage1.rbr_identity.weight f4 [14]
00000000: db43 493f bdb5 213f 0544 723f a339 523f
00000010: 0327 753f 1d1c 6d3f b9f4 5d3f bc49 623f
00000020: fc36 6e3f 157b 643f 053d 303f 6e7e 3e3f
00000030: 3199 713f de47 3b3f
0.78619164 0.63167936 0.9463504 0.82119197 0.9576265 0.9262102 0.8670154 0.8839376
0.9305265 0.8925031 0.6884311 0.74411666 0.94374377 0.73156536

feat_extraction.stage1.rbr_identity.bias f4 [14]
00000000: dbc2 7c3d 6bc7 0f3e b936 d73c 03d7 553e
00000010: 27ea 433d 7d7b 5f3d c625 b03d a670 9e3d
00000020: a121 4e3e b858 b03d c53e 053e 312a 7b3e
00000030: 80a6 643d 5935 0d3e
0.061709266 0.14040916 0.026271211 0.20882802 0.047830727 0.054561127 0.08600955 0.0773633
0.20130016 0.08610672 0.13012226 0.24527813 0.05582285 0.13789882

feat_extraction.stage1.rbr_identity.running_mean f4 [14]
00000000: 9fac 383f 960a 913c f1fd 433f ac25 4c3c
00000010: 65bc 9b3f b362 d73e e5b5 233f bcea 0b3f
00000020: a3de 803d 1f8c ab31 b6d3 253d 88ea dd3c
00000030: 0b1b 8531 75f2 773e
0.721384 0.017705243 0.7655936 0.012460154 1.2166868 0.4206749 0.63949424 0.5465505
0.062924646 4.992685e-09 0.040485106 0.027089372 3.873884e-09 0.24213584

feat_extraction.stage1.rbr_identity.running_var f4 [14]
00000000: e369 343e 7584 5f3b dd34 523e db4d b33a
00000010: d9e0 003f 9c25 873d 111f 1c3e bade 123e
00000020: b6df 3c3b cd45 b82b 0a83 803b 97fd 1c3b
00000030: abca c12b 9ee5 2b3d
0.17618518 0.003410605 0.20527978 0.0013679819 0.5034309 0.0659897 0.15246226 0.14342776
0.0028819866 1.309336e-12 0.003921871 0.0023954862 1.3769726e-12 0.041967027

feat_extraction.stage1.rbr_dense.conv.weight f4 [14, 14, 3, 3]
00000000: b912 b43c 8e3b 263e 1dc8 cb3d 6226 253e
00000010: 2e91 9a3d a16f f63d 1cf2 393d 35b7 2dbc
00000020: 847a 7d3d bbb8 fbbc a3b7 05bd f53c 87bd
00000030: b5ef bbbb 5434 6d3c 3c8f 6f3c 44fb f6bd
00000040: 286e 113c 8a92 bdbc 092d ea3d 8124 dd3d
00000050: 0e71 3dbc 42b1 0a3e f1b3 75bd bf5c b33d
00000060: 64ed 453d a4a1 8a3d c80e f9bc e254 dcba
00000070: 0f89 7ebd 2a63 85bd d7ee 52bd 4d83 2c3e
00000080: 50f0 b23d 05b9 23be 4d98 343e aa6a 943c
00000090: 5590 053c c1ae b6bc c3a3 d03d 7be3 683b
000000a0: e6e2 a03d 30ee 25bd b007 e83d a4dc 7f3d
000000b0: b5bc 8f3c de77 b93d 5650 2a3a d186 773d
000000c0: 4343 5f3d 7f37 8cbc 7f75 103d fb98 9b3b
000000d0: ee29 dd3d 3426 dc3d 7d0c fa3d 0040 003e
000000e0: 0e7c 44bc a54d 893d b3eb 573d 31ac d0bc
000000f0: a232 9f3d 5822 d8bc c8bf f93c d407 0a3d
00000100: 5a03 a03d 608e bebc 2e39 67bd 9263 983d
00000110: f1eb 273d c356 883d 133c 0c3d 6a91 03bd
00000120: eac2 3c3e 9e42 3bbe 6fa1 803c c46e 073e
00000130: 09a2 983d a0d8 9abd d6e7 e2bd 8379 a43d
00000140: 6d4d 9cbd 310d 8abd 3114 96bd b827 42bd
00000150: 2c08 a0bc 9b16 5cbd 3d99 10bd 836c b3bd
00000160: dc29 3e3d b27d dabc 37eb ab3c 43b1 183e
00000170: 5623 ab3d ad09 143d 25de 9e3d 04a0 4dbd
00000180: d823 17be 1cab 55bd f143 eabd 3706 f63c
00000190: bd88 103c 3a91 203e a36c ba3d d7f8 353e
000001a0: 0877 ff3d 4857 3fbe 88b5 a63d 55bb 1c3d
000001b0: b040 1cbd 8d4c 6fbd 09be 803c 86a5 be3c
000001c0: 94bc 1e3d d759 d63c cd93 71bc f2c5 8ebd
000001d0: ca51 673d 3c9d 803d a6d8 bcbb 5384 e03d
000001e0: 2639 c03d e993 65bd ccaa c7bc aff3 1bbc
000001f0: ecaf cdbc e9de ab3d e4b0 b2bd 199c 643d
00000200: d991 73bd 803b fc3c e391 9ebc 52a1 6ebd
00000210: bd80 353d a5f2 b2bd 4ad7 6abd 9c94 1f3e
00000220: 50f8 703e 0df7 003e e421 b03d 74fc e43d
00000230: daf8 e13d a01a 0d3e eb38 3a3e 3e27 023e
00000240: 0718 653d 7b05 e23c 369d d0bc 864a 91bc
00000250: b908 753d fcd1 233d c5a0 c73d 2ba1 e23c
00000260: cdab cfbc d19c 1d3c bc9e 213c 56ca b23d
00000270: 73ef 003e df02 b5bb 7132 f53d af5f e93d
00000280: c8e0 273c 7e75 173e 0c2b 06bc cae4 c23d
00000290: fe38 283d f427 27bd 95d6 fdbc 8c5a a13d
000002a0: a9c7 683d bf64 b23d 939c 8f3c 71c7 ed3d
000002b0: 36ef b73d 8aa9 863d 5f60 173d 9c56 143e
000002c0: 4332 873d f26a bb3c a3bc 5e3d f6e6 0b3e
000002d0: 36f9 b93d 1fab 8a3c 8d13 e63d cd7c a63d
000002e0: 26ba 35bc 6133 35bd e75e b03d 9c6c 003e
000002f0: 2ddd aebb a130 d43d a5e9 963d 52ff 693d
00000300: 7dd6 253d e7b1 cc3d aaa5 d13d afb3 e83d
00000310: b004 d63d 8d55 ef3d 1f1a 10bd 3b64 893b
00000320: aa4e adbd 1b75 f2bd 4b0e f53b b4df 25be
00000330: 0916 973c 99cd 25bd 3789 eabd dee1 743d
00000340: abe6 85bc 3f46 903d 8dd2 a33d 6f8c a6bc
00000350: 8bb1 293c e3a0 ccbc f236 f9bc 4d3e 28bc
00000360: 546b d1bd b96f 2fbe 4846 4fbe 49bb 93bd
00000370: 5950 a2bd 725c debd bed2 b63d 77b1 8b3d
00000380: bed6 803d 5046 2f3d 1b4b cabd 1e72 cd3d
00000390: c4d8 323d abe7 033b 2d5e 193d 17cd 163e
000003a0: fd72 74bb 129c d43d f9c8 81bd c5d4 7bbd
000003b0: 1f1c 46bd e334 aa3d 900d 46bc 7691 b33c
000003c0: a7fc bcbd 685b 993d 35f1 c7bc 1007 8bbe
000003d0: 9005 1abe 9aa1 7ebe 4e8e 07be c7b5 9bbe
000003e0: 835e a5be bb92 84be 39a2 35be 5b0c 5ebe
000003f0: 4971 86bd 7cf8 9f3c d965 cd3b 80b6 313d
0.021981584 0.16233656 0.09950278 0.16127923 0.07547222 0.1203301 0.04539691 -0.010602762
0.061884418 -0.030727735 -0.032645833 -0.066034235 -0.0057353624 0.014477808 0.014621552 -0.12059644
0.008876361 -0.023141164 0.11434371 0.10797978 -0.011562599 0.13544181 -0.05998606 0.08757924
0.048322096 0.06769112 -0.030402556 -0.0016809965 -0.062142428 -0.06513055 -0.051497307 0.16846962
0.08737242 -0.15988548 0.17636223 0.018117268 0.008152087 -0.022300126 0.10187485 0.003553598
0.078557774 -0.040510356 0.11329591 0.06246628 0.017546037 0.09056066 0.00064969563 0.060431305
0.054507505 -0.017116306 0.035268303 0.0047484613 0.10799013 0.10749474 0.12209413 0.12524414
-0.011992468 0.06704263 0.052715015 -0.025472732 0.07773329 -0.026383564 0.030486956 0.03369887
0.07813139 -0.023261249 -0.056451015 0.074408665 0.040996496 0.066571735 0.03423698 -0.0321211
0.18433729 -0.18287131 0.015701978 0.13225847 0.07452781 -0.07560849 -0.110793754 0.08030989
-0.07631955 -0.06740797 -0.0732807 -0.04740116 -0.019535147 -0.053732496 -0.03530239 -0.08760931
0.04642664 -0.026671264 0.020986183 0.1491137 0.08356349 0.03614204 0.077572145 -0.05020143
-0.14759767 -0.052165136 -0.1143874 0.03003226 0.008821663 0.156804 0.09102752 0.17770706
0.12473875 -0.18685639 0.08140093 0.03826459 -0.03814763 -0.058422614 0.015715616 0.023272287
0.03875406 0.026165886 -0.014744711 -0.06971349 0.056474485 0.0627999 -0.005763131 0.10962739
0.093859 -0.05604926 -0.024373434 -0.009518548 -0.0251083 0.08392126 -0.087251455 0.05581293
-0.059465263 0.03079009 -0.019356674 -0.058259316 0.044312228 -0.08737687 -0.057334222 0.15584034
0.23532224 0.12594242 0.08600214 0.11180964 0.11033793 0.13779688 0.18185775 0.12710282
0.055931117 0.027590504 -0.025465589 -0.01773573 0.05982277 0.03999518 0.09747461 0.027664742
-0.025350476 0.0096199075 0.009864505 0.08729999 0.12591343 -0.005524024 0.119725116 0.11395203
0.010246463 0.14790913 -0.008188974 0.09516294 0.041069977 -0.040809587 -0.03098611 0.078785986
0.056831036 0.08710622 0.017530715 0.11610306 0.08981173 0.06575306 0.03695714 0.14486164
0.066013835 0.022878144 0.054379117 0.13662323 0.09080736 0.0169273 0.11234198 0.081292726
-0.0110917445 -0.044238452 0.08611851 0.12541431 -0.005336425 0.10360838 0.07368783 0.057128258
0.040487755 0.0999487 0.10236676 0.11362397 0.10450113 0.116862394 -0.03518116 0.0041928566
-0.084622696 -0.11838742 0.0074785105 -0.16198617 0.018443124 -0.040479276 -0.11451953 0.059785716
-0.016345343 0.070446484 0.07999144 -0.020330636 0.010357271 -0.02497906 -0.030421708 -0.01026876
-0.10225549 -0.17132463 -0.20241654 -0.07213456 -0.07925481 -0.10857476 0.08926915 0.06820958
0.06290959 0.042791665 -0.098776065 0.10031532 0.043663755 0.0020127099 0.03744333 0.14726673
-0.0037299984 0.103813305 -0.063371606 -0.06148221 -0.048366662 0.083108686 -0.0120881945 0.021919947
-0.09227877 0.074881375 -0.024407009 -0.27153826 -0.15041184 -0.24866334 -0.13237879 -0.30412123
-0.3229867 -0.25893196 -0.17737664 -0.216844 -0.06564576 0.019527666 0.0062682447 0.043386936

feat_extraction.stage1.rbr_1x1.conv.weight f4 [14, 14, 1, 1]
00000000: 93f3 873d 2335 62be 69db 8a3c 887b f13c
00000010: 2c66 43bd 8767 76bc 8b66 ac3d 98d5 8fbd
00000020: adee 31be f1a4 09be c240 4abe aa0b 76bd
00000030: 2173 033e 9437 273e 44e2 373e b965 423e
00000040: 6140 8dbd 18cc 15be a059 1b3e aafd d1bd
00000050: 9dbb 713e 2fed 8ebd 6246 9dbe 2736 39be
00000060: d488 153e d19f 6e3e 347a 773d 3620 73be
00000070: 486b 683e 8f7f 953d 1b14 273e e7cb 0fbe
00000080: bf36 533d 841b 813e 8118 3dbe 10b6 943e
00000090: 0fdb 6bbe a8ae a2bd e01f 1dbd aed1 d23d
000000a0: 1bc5 a13d b8dd 3abe 309d f23d 20c8 813e
000000b0: 5742 c0bb 8608 9fbd 2b7c 8e3e 8074 16be
000000c0: be96 ffbd 9ecf 9e3e 8e05 fcbd 74fa 1e3e
000000d0: ae29 893e 71c3 313c 989b 6abe 52e1 113c
000000e0: 4fc4 dc3d 578a 873e 9c13 c7bc 5d4b 37bc
000000f0: e7cb 9ebd 0249 42be 683a 823e 5810 17bd
00000100: a791 a7bc 1586 3cbe 4b75 6b3e 1d3c f83d
00000110: 923b 2f3e 89b9 1c3e 839f 45bd 536a 0d3e
00000120: f9b6 253d a7ef 5abe 0b91 bf3d 4af8 efbd
00000130: 9102 14be fc6c 033c 1c07 8bbe b1c7 a53b
00000140: cad0 b93c a48d 293e 0496 a03d ed27 31bd
00000150: b015 1fbe f0a8 9abd dd6f ce3c 4aff efbc
00000160: 99c2 db3d 736c 7c3e a494 633e 0fb7 f2bc
00000170: 8101 2bbd d6a7 863e eb1e f3bc 94af 4cbe
00000180: 7302 66bb 7869 92bc 4721 c4bd 6d89 c33c
00000190: 8cea 28be 67b8 d33d 169b 18be df5e 043e
000001a0: 77de 873e cc7e bbbd 3237 c3bd 0d75 b53c
000001b0: 0d5c 0c3e cf00 353e 9851 9abc eef1 08bd
000001c0: a156 16bd d919 753e 743c b33d a5c5 0b3e
000001d0: 9d21 213e 8cbb 3cbd a9a1 743e d6c2 96be
000001e0: 4974 783e 235f 153e 4214 903e 2cf2 633e
000001f0: 49da f9bd 5d54 28bd 0643 1ebe 8316 983e
00000200: 74e6 36be 722b 30bc 9064 443e 5e5d 473e
00000210: 5bb3 29be d804 cb3d 0004 c73d 02b7 293e
00000220: d8eb f53d d9a1 b43e 6422 7abd f687 c53e
00000230: e1eb 983d 3918 50be 96e6 b53d bfb5 70bd
00000240: 4595 ef3d 6ba8 763e b043 20be b13a 61be
00000250: f31a a13e 3de7 fdbc 0c2b bf3d 73ce cf3e
00000260: 4559 dd3d 6e7b 3a3e 2dc7 b73d 0ebd b23d
00000270: d17a 1dbe 89ad b13e 8e93 14be 5b89 0a3e
00000280: 7beb 633e 3320 8bbe bcbb 5d3e b509 853e
00000290: 8e82 703e 2a2b 783e 6ecb 303d 5867 03be
000002a0: 6f48 813d ea14 c93e ac44 9b3e a8f7 023e
000002b0: b019 163e 5417 95bb 2f97 323b c34c c73d
000002c0: d343 83be a467 053d 4daa 363e 5488 623b
000002d0: 1dbf abbd 3570 84be 6fd3 9f3d 20fe a23d
000002e0: 77a8 813e 5ea7 3ebd 6d28 54be 75f9 49bc
000002f0: e47f 7d3e 882c fbbb 5024 613e 5449 583d
00000300: 9744 963d a513 6a3e 42db 403e 7121 9d3d
0.06638255 -0.22090583 0.016950326 0.02947785 -0.04770486 -0.015039331 0.08417996 -0.07023162
-0.17376204 -0.13441826 -0.19751266 -0.060069717 0.12836887 0.16329795 0.17957407 0.18984117
-0.06897045 -0.14628637 0.15170908 -0.10253461 0.23606725 -0.06978833 -0.3071776 -0.18087064
0.14602977 0.23303153 0.060419276 -0.23742756 0.22697175 0.072997205 0.16316263 -0.14042626
0.05156588 0.25216305 -0.18466379 0.29045153 -0.23032783 -0.07943469 -0.038360476 0.102938995
0.07898923 -0.18248641 0.118463874 0.25347996 -0.0058672833 -0.077652976 0.27829108 -0.14692879
-0.12479924 0.31017774 -0.12305747 0.15525228 0.26789612 0.0108498195 -0.22910917 0.008903818
0.107796304 0.26472732 -0.024301343 -0.011187402 -0.07753735 -0.18973163 0.25435185 -0.03688082
-0.020455195 -0.18410523 0.22993962 0.12120841 0.17112568 0.15305151 -0.048247825 0.1381009
0.0404577 -0.21380483 0.093538366 -0.11717279 -0.14454104 0.008021589 -0.27153862 0.0050592055
0.022682566 0.16557938 0.07841113 -0.043250967 -0.15535617 -0.075517535 0.025199825 -0.029296536
0.10730476 0.24650745 0.2222467 -0.029628305 -0.04174948 0.26299924 -0.029677829 -0.19988853
-0.0035096675 -0.017872557 -0.0957666 0.02386924 -0.16495723 0.10337906 -0.1490291 0.12926815
0.26536915 -0.09155044 -0.09532012 0.02215054 0.1370699 0.1767609 -0.018837735 -0.033433847
-0.03670371 0.23935641 0.08751765 0.13649614 0.15735479 -0.046077296 0.23889793 -0.29445523
0.2426311 0.14587073 0.28140455 0.2226035 -0.12199838 -0.04109608 -0.15455255 0.29704675
-0.17861348 -0.010752546 0.19178987 0.1946921 -0.16572325 0.09913033 0.0971756 0.16573718
0.12007874 0.3527973 -0.061067954 0.38580292 0.07466865 -0.2032174 0.088818714 -0.058767077
0.11698393 0.24087684 -0.1565082 -0.21995045 0.31465873 -0.030994052 0.093343824 0.40587196
0.108080424 0.18211147 0.08973537 0.087274656 -0.15378882 0.3470271 -0.14509413 0.1352896
0.22257797 -0.27173004 0.21653646 0.25983968 0.23487303 0.24235216 0.043162756 -0.12832391
0.06312644 0.3927377 0.3032583 0.12789786 0.14658237 -0.0045499 0.0027250757 0.09731438
-0.25637683 0.032569543 0.17838402 0.0034566121 -0.08386061 -0.25866857 0.07804 0.07958627
0.2532384 -0.046546333 -0.20718546 -0.012327542 0.24755818 -0.0076652206 0.21986508 0.052804306
0.07337301 0.22859056 0.1883364 0.07672394

feat_extraction.stage2.rbr_dense.conv.weight f4 [12, 14, 3, 3]
00000000: 67ce 84bd f9c7 afbd 0abe 86bc 6b2c fbbc
00000010: 4ae7 2b3d dd9b bdbd d75b 233d b154 8fbd
00000020: 8645 5e3c fa51 0bbc d187 ab3d 471d 49bd
00000030: f99c c9bc 1a9a 863d 0ef3 bd3d 7725 78bc
00000040: 8726 7d3d 6f95 b83b bf7c dcbd 6a1b 1d3c
00000050: ce83 9fbb 9786 2d3d 81a2 883d d675 a33d
00000060: fbf5 2b3d f71f 93bd e68d 89bd 2f0c 34bd
00000070: 97ba 873d 6600 fabc 3015 3dbd 1ff4 eebc
00000080: 15a2 36bc 5fed b43c fa7e b03d 9794 d6bb
00000090: 5230 c0bc 112b 183d a748 b8bb 82a3 3c3d
000000a0: f44c 823d cd76 7d3c 91ca 9bbd 6b89 953d
000000b0: 6bbf 11bd a8cc 6bbd acc6 8f3d 7cd6 bebc
000000c0: 64f1 c73c db28 cd3d 7e11 403c 84a6 25bd
000000d0: 7789 9f3d 0da5 ba3c 1cb8 3a3c a584 3fbd
000000e0: 0415 aebd 7729 603c 6b9e 3cbd df5f 26bd
000000f0: b154 b7bd 1820 7c3d 9453 89bd 6fdc 0d3c
00000100: 3b2d d53c 13f6 a43d a2b4 023d d7f3 5abd
00000110: 3dcc 423d 3dd1 92bd 8dda 4abc 830d 1ebd
00000120: 6b29 bd3d 075f d73d 52c1 b5bd f2b9 6f3d
00000130: a3a0 8ebd 3486 143d 884c 8e3c f524 2d3d
00000140: d5a3 803d 842d 24bd a335 0c3d fd23 263d
00000150: 0eb9 bd3d e249 063d 62d5 b0ba 08a5 40bd
00000160: 0de7 7ebc 7860 2e3d f623 dfbd b11b 0cbe
00000170: 9934 b3bb 33af 57bc a2d1 fabc 566d 51bd
00000180: 7d94 46bd 55e7 a8bd 433b 65bd 8939 8abd
00000190: 8f3b 4fbd f523 313d 4329 abbd b604 ab3d
000001a0: 2ff5 91bd 0f53 d23c 66f4 2abc 4b73 06be
000001b0: a845 003d f7e2 ed3d 96eb 26bc 2c27 023e
000001c0: 6ec2 423d 51d3 813c da05 913d e4e8 d83d
000001d0: b0c6 d53d 8024 d43d 8c22 45bd 5d08 5e3c
000001e0: e8d2 f83c e6ae 41bd 22eb 3b3d 4d6d cdbc
000001f0: 72a8 b3bd c42a 85bc d964 9ebd a21a 48bc
00000200: efee febd d900 8dbd f42a 52bd 07a5 76bd
00000210: 3c5a a9bd 4014 a53c 251a 04be 43b3 a3bd
00000220: d44c e63d 9caf 5fbd 2c18 b13d d6e4 113e
00000230: cdc1 1d3c 564f 83bd ca19 c2bd c0e9 71bd
00000240: 3616 e93c ba8b 7ebd 66d2 853d 94e5 61bd
00000250: 32b8 b4bd cd50 a43c 39cf 0d3e 4a5d 2cbd
00000260: d955 083e 2f4f ecbd f106 383e ec64 7dbc
00000270: fa03 0fbe fd5d f53a f098 20bd 8621 9dbd
00000280: 933b e63d 05b4 c2bd 6553 63bd 14eb f5bd
00000290: 2b89 ae3d ed1a e0bd 2931 5fbd 2a1e 6b3d
000002a0: 9e66 fd3c de0e 0cbe c3ec b83c 5273 34bd
000002b0: c464 b1bd ab8d e23c 3cf3 7e3c f5b0 093d
000002c0: c54b c6bd f294 60bc 0e53 efbc 502d f1bc
000002d0: f9d0 5f3d 2cec ffbd a9d9 e2bd aec2 97bd
000002e0: ee1f a1bd 8d1e 40be 8571 b2bd dabd e6bd
000002f0: 70b4 b5bd 66c8 633d 75f7 2e3d 6e97 eb3d
00000300: 78c3 5dbd cf6c 453c 559e 2a3d ee3b 32bd
00000310: 7db0 d6bd 9e23 e0bb a708 8cbd 1a15 823c
00000320: a7af 1fbd 69d7 9c3c 582a a6bc c41b 61bd
00000330: 8677 b63d a872 ecbd 7070 6abc 9480 7c3d
00000340: 1eae 323e a365 883d c6d4 45bc d3c9 e23d
00000350: 3bf0 ea3d 3e44 113d f871 bd39 7b33 9d3c
00000360: ccd9 a4bc 8d7a 2f3d 5139 19bc d181 9e3c
00000370: 5a48 003e 6a06 fc3c 428a 833c c0e0 103d
00000380: e5ee 353b 3e37 73bd 2484 813d 8f2d 02be
00000390: 0c50 463d 11fe 243e 01f2 053c 462a 293d
000003a0: 188e 8f3d 58f0 b2bd b320 26bd 0b2b 3f3d
000003b0: 8a74 323d fe53 a6bc d99a 3d3d b9b9 44bc
000003c0: bbf2 a2bc d289 e63b dfea 9a3c a419 63bc
000003d0: 057e 16bb 5c12 803d 4323 353d a1ed 4e3c
000003e0: 3de9 933d 9e6b 93bd e121 983d 5975 083d
000003f0: 58d9 7338 b603 a83c cc4b 42bd b5b7 b5bd
-0.064846806 -0.08583064 -0.01644804 -0.030660829 0.04196862 -0.09258244 0.039882507 -0.069985755
0.01356638 -0.008503431 0.08375514 -0.049100187 -0.024610983 0.06572361 0.09274875 -0.015145651
0.06180432 0.0056330482 -0.10765981 0.009589056 -0.0048680073 0.042364683 0.0667162 0.0798146
0.041982632 -0.07183831 -0.06716518 -0.04395693 0.06627386 -0.030517768 -0.046162784 -0.02916914
-0.011147042 0.022085844 0.08617969 -0.006548475 -0.02346054 0.037150446 -0.005623895 0.04605437
0.06362334 0.015470219 -0.07606996 0.07301601 -0.03558294 -0.057568222 0.070203155 -0.023295633
0.024407096 0.10017558 0.01172292 -0.040442005 0.07789891 0.02278378 0.011396434 -0.04675736
-0.08500102 0.013681761 -0.046049517 -0.040618774 -0.089517005 0.061554044 -0.067053944 0.0086585125
0.026022544 0.080547474 0.031910546 -0.0534552 0.047558058 -0.07168815 -0.012381208 -0.038587105
0.092364155 0.10516172 -0.088747635 0.05852694 -0.06964233 0.0362608 0.017370477 0.042271573
0.062812485 -0.04008247 0.03423084 0.040561665 0.09263812 0.032785304 -0.0013491327 -0.047032386
-0.0155580165 0.04257247 -0.10895531 -0.13682438 -0.0054689166 -0.013164329 -0.030617539 -0.05112966
-0.048481453 -0.08247248 -0.05596472 -0.06749255 -0.05059391 0.043247182 -0.083574794 0.08350508
-0.07126843 0.025674371 -0.010434246 -0.13129918 0.03131643 0.11615556 -0.010188004 0.12710255
0.047548704 0.015847834 0.07081194 0.10591295 0.10438287 0.10358524 -0.04812865 0.013551799
0.030374005 -0.047285937 0.045878537 -0.025076533 -0.08772363 -0.016255744 -0.07734079 -0.012213381
-0.12447917 -0.06884927 -0.051310495 -0.060215976 -0.08269164 0.020151258 -0.12900598 -0.07993176
0.112451226 -0.054610834 0.086471885 0.1424745 0.009628725 -0.064116165 -0.09477575 -0.059060812
0.028452974 -0.062144972 0.06534271 -0.055150583 -0.08824195 0.02005806 0.1384858 -0.042081155
0.13313998 -0.115385406 0.17971398 -0.015465956 -0.1396636 0.0018720027 -0.039208353 -0.0767241
0.11241832 -0.09506992 -0.055499453 -0.12007728 0.085222565 -0.10942636 -0.054490242 0.057401814
0.03093272 -0.13677546 0.022573834 -0.04405529 -0.08661798 0.027655443 0.015560921 0.033616025
-0.09682421 -0.013707386 -0.029214408 -0.029440552 0.05464265 -0.12496218 -0.11076672 -0.07410179
-0.07867418 -0.18761654 -0.087130584 -0.1126668 -0.08872306 0.055611037 0.042716462 0.11503492
-0.05414149 0.012049868 0.041654903 -0.043514185 -0.10482881 -0.0068401834 -0.06837588 0.015879203
-0.038985875 0.019145684 -0.020283863 -0.05495812 0.08909516 -0.115453064 -0.014309034 0.06164606
0.17449233 0.06660011 -0.012074655 0.11073651 0.114716016 0.03546547 0.00036133802 0.019189587
-0.020123385 0.042841483 -0.009352044 0.01934901 0.125276 0.030764777 0.016057137 0.03537059
0.00277608 -0.059378855 0.06324032 -0.12712692 0.048416182 0.16112544 0.008175374 0.04130008
0.07009524 -0.08737248 -0.04055853 0.04667191 0.04356817 -0.020303722 0.046290252 -0.01200717
-0.019891134 0.0070354724 0.018910823 -0.013861094 -0.0022963297 0.06253502 0.04422308 0.012629897
0.07222221 -0.07198261 0.07428337 0.033315036 5.8138132e-05 0.020509582 -0.047435567 -0.0887293

feat_extraction.stage2.rbr_1x1.conv.weight f4 [12, 14, 1, 1]
00000000: ad76 0fbe 0f4b 8cbd dc92 5cbe 26b0 aa3d
00000010: 2dca fbbc 239d 5b3d 26d9 883e 553c 523d
00000020: 7268 d23d e700 833d 50e3 05bd a1eb 363e
00000030: 4aeb 0d3e ea17 1bbd bdf4 52bd 2f5e d4bc
00000040: 3e81 57bd d074 443e da40 433e c921 583e
00000050: b10e 56be aa31 49bc dbcf 4d3c d3bf 8f3e
00000060: 4293 8fbc f7aa f13c 8f91 233e 32bc cabd
00000070: c4be 7f3e 8225 16be e9e2 c43d 09e5 85bd
00000080: 5783 48be 33e8 86be e938 d93d 5fd8 d7bd
00000090: f543 11be d821 9c3e e37c 473e cc55 a13e
000000a0: f431 e8bd 6f6c fe3c 42d6 fa3c d5b2 4abc
000000b0: 6a9d de3d 1cd2 933d 76d1 bcbd 9e0f 2abd
000000c0: cdbb 0abe d028 4dbe 471c d83d fa97 86bd
000000d0: 0c2b e7bd 3c14 02be f586 2d3e d167 8ebd
000000e0: 726d 423e eeac be3d 8518 aebd e268 813e
000000f0: e4b1 c0bd 2e4f 71be 044f 333e 4742 20be
00000100: 3187 5a3e 40dd 593e 7771 7abd a56a 82bd
00000110: 6aaa f03d 2ffb d43d e352 4f3e 6804 b43d
00000120: 28a7 0b3d a805 3f3e cd28 163d 3552 47be
00000130: 4311 36bd 06e4 cabc 88e3 f339 fd5e 6dbe
00000140: 8c00 8abe fc06 95bd 8b6b ab3d 715f d53d
00000150: a89b 5abe 3bb5 053e 5914 473d 4817 303e
00000160: 3162 05be a9cd 7ebd 71c6 f73d 726c 74be
00000170: 3147 ac3d 8b1e b0bd 7b2a 8a3d 95bd eabd
00000180: e7fb 893e ecd3 4d3d 36b8 cd3c cfd7 f4bd
00000190: 661b 48be 04b9 5fbc d2e6 12be 3c0a 2b3c
000001a0: 43ad 823e 1e35 f03d 7bcc d2bd 7e21 4abd
000001b0: 3a33 083e 6421 bdbc 6171 36be a87f 30bc
000001c0: 3a88 0a3e b72e f1bd 71f0 52bd 7f24 9bbd
000001d0: 5c89 073e 7b7a 13be b6f9 a3bd 3b97 c13d
000001e0: 280d e4bd bff1 803e 7b58 3abe 8468 4fbe
000001f0: 92a9 40bc cc46 21be 0916 86be 85dd 1abe
00000200: f9b0 6fbe ff09 7f3e 1a0b 1b3d 3cf4 fdbd
00000210: 7c28 f53d 74db 293d 6605 efbd 7cd8 623e
00000220: a2c6 04be 571f 5fbd 3983 6c3e dc75 293e
00000230: b136 e63d b7f0 e73d 68f4 c7bd d2b2 83be
00000240: 921e 2cbc 3479 0f3e 6096 3f3e f3a2 27bd
00000250: f759 e9bd 804e e43c 101f 583e 254c 963d
00000260: 719b 953e 9485 e8bd 658c 7d3d e7a3 04be
00000270: 18e5 1a3d 1304 2c3e 1cda 55be 0d09 733e
00000280: fe1f 683e e8c4 683e cf75 9dbd d1d5 583e
00000290: 9ed5 8c3d ec19 c7bd d0ab 9d3e a5b3 6abe
-0.14010115 -0.06850254 -0.21540397 0.08334379 -0.030736053 0.053616654 0.2672817 0.05132707
0.102738276 0.063966565 -0.032687485 0.17863323 0.13859287 -0.037864603 -0.051502932 -0.025923816
-0.05261349 0.19185185 0.19067708 0.21106638 -0.20904042 -0.012279907 0.012561764 0.28076038
-0.017526273 0.029500468 0.15973495 -0.09899177 0.24975115 -0.14662746 0.09613592 -0.065378256
-0.19581352 -0.2634903 0.10606558 -0.105393164 -0.1418608 0.3049457 0.19481234 0.3151077
-0.11337653 0.031057565 0.030619744 -0.012371738 0.10869868 0.072178096 -0.09219639 -0.0415188
-0.13548203 -0.200351 0.105522685 -0.06571956 -0.112875074 -0.12703031 0.16946013 -0.06953395
0.18987063 0.093103275 -0.085007705 0.25275332 -0.0940893 -0.23565361 0.17510611 -0.15650283
0.21340634 0.21275806 -0.061143365 -0.06367997 0.11751254 0.10399472 0.20246463 0.08789903
0.03409496 0.18654501 0.036660004 -0.19464953 -0.044450056 -0.024766933 0.00046518096 -0.23180766
-0.26953542 -0.07276723 0.083701216 0.10418595 -0.2134844 0.13057415 0.04860339 0.17196381
-0.13025738 -0.06220785 0.120983966 -0.23869494 0.08412016 -0.085995756 0.06746384 -0.11461941
0.2695 0.050250933 0.025112253 -0.11955225 -0.19541702 -0.013654951 -0.14345863 0.010439452
0.25522813 0.11728881 -0.10292908 -0.049348347 0.13300791 -0.023087211 -0.17816688 -0.010772623
0.13528529 -0.11776488 -0.051498834 -0.075753205 0.13235992 -0.14402191 -0.08006613 0.09452673
-0.11135322 0.25184438 -0.18197815 -0.20254713 -0.011759179 -0.15749663 -0.26188686 -0.15123565
-0.23407353 0.24906157 0.037852384 -0.124001 0.119706124 0.041469052 -0.116709515 0.22152895
-0.12966397 -0.054473247 0.23096932 0.16548866 0.112409 0.113252096 -0.09763414 -0.25722367
-0.010505335 0.14011079 0.18709707 -0.040926885 -0.113941126 0.027869463 0.211056 0.07338742
0.29220155 -0.11353603 0.06190147 -0.12953149 0.037816137 0.16798429 -0.20883983 0.23733921
0.22668454 0.22731364 -0.07688486 0.21175314 0.06876682 -0.09721741 0.30795145 -0.22920091

importance_map.upscale.weight f4 [12, 6, 3, 3]
00000000: 82dd 883d 5fe0 da3c c04d bd3d 38b8 30bd
00000010: 5275 bfbc 0adf f63c e7aa bfbd 860f 04bd
00000020: 4a6e 32bb 73fe 0abe f075 2bbc 53aa ed3d
00000030: 2403 dbbc 4b23 0cbd e4f4 5cbb 650a 103d
00000040: ca47 8d3d 0752 523d 8a3c bcbd b0ac 3cbe
00000050: 935f 723d 1864 cc3d 2dd0 f3bd 0e38 1a3e
00000060: 7265 ec3d 75a1 4c3d 88b5 133e b521 783d
00000070: abc6 a43d 0dd9 b0bd bf2d ffbc 3d65 9dbc
00000080: b64c e23c a71f c13c 868a 6a3d 49f8 96bd
00000090: 4499 a33d 2de9 9bbd 11bd 99bd b5ec 473e
000000a0: d2e3 5e3e 4703 733e c339 bd3c 0ec7 2d3e
000000b0: ea84 253d 1249 1abe d95a b73d c585 4abd
000000c0: e367 f0bd cc24 403e 51ec eebb 770b 2a3d
000000d0: 7123 3dbd 44d6 17be b7eb e53d 9984 213d
000000e0: 59a5 953d 9db7 9e3d 1b7f 413e 9c24 b93e
000000f0: 20c9 28bd 6c3b 693d bbe0 7b3e 7353 583d
00000100: 2626 443e f5f3 c2bd a131 db3d 547f 98bb
00000110: 14c7 273d 8754 723d e18d fa3d d4b9 5c3e
00000120: 25a6 06be 2d73 06be d73d 0abe 2702 7a3d
00000130: 8cc5 ca3c 4a48 da3d 3f10 2dbc b936 75be
00000140: 8986 38bd 1727 783c 83d1 163d b9d7 e43d
00000150: 0a18 aabd daf5 6f3d 88dc dabc 2840 a13c
00000160: e420 cabc 55f6 e33d 88c1 0f3e e6df 113d
00000170: 7e64 78bb 6075 58bd 31fd f9bb 02c6 d1bc
00000180: d98c 923d dce0 f8bc af24 38bb 7878 31bd
00000190: f7de 2e3d 43d8 80be 523b b4bd 2f41 123e
000001a0: 16ff d6bd 155c eabd 112f 963d b8a6 7abe
000001b0: 1159 e33d 793e d8bd 9021 3dbd 9830 a73d
000001c0: e304 f43d f8ba c83d 75f9 49bd 8847 873d
000001d0: e410 723d 0579 c6bd 8ce5 bebd 0f6e 813c
000001e0: 640c e53d a45d 3bbd 47b5 393d 8c92 b33d
000001f0: df8d a83d 1e71 623d faae 2cbd d913 d03d
00000200: aee2 fdbd 7921 8f3c c09a 8b3d e87d 88bc
00000210: ecb8 e73d fb4d cbbd 71e6 b2bd 01f9 203e
00000220: 7fa8 d8bc d836 8c3d 24f8 423d eb0e 093e
00000230: a111 0e3d 783f e83c 6ad4 35bd 4b7f dc3c
00000240: aaee d5bd a886 093d 0845 87bc bab0 d3bd
00000250: cb38 26bd 776b 0cbd 7749 c83c 33c9 e5bd
00000260: 7d50 ee3d 14e3 efbd 11aa 183e 3741 de3b
00000270: 3035 b33d f412 423d 5d6e a5bd be93 e7bd
00000280: e3eb 2d3d 5160 94bc 4f87 68bd 12ea c2bd
00000290: ed5a 923a bac4 293d 7972 ddbd 427f 04be
000002a0: 83c3 c03d 3beb 80bc 57bd b1bc d66f 36be
000002b0: 4afc 993d 7a02 5a3e b9ba 95bd 39c3 a13c
000002c0: 4923 01be 7235 e93d 2c3c e33c 3bba a2bd
000002d0: 4a2f 053c 0a6e 0bbe c7aa a33c e854 fb3b
000002e0: 9d09 0dbe d581 9b3d b8be d53d ed36 e2bd
000002f0: 3950 b53d 3d9d eebd d5e1 8abd 0395 91bc
00000300: 1ebe 13bc a54a 02be 5560 48bd f098 a4bc
00000310: 573b 46be c2f3 6bbc 4352 fbbc 8bfa 9f3d
00000320: 261a 9a3c 5fd0 34bc abb7 6cbd 8ff9 ebbd
00000330: 895a 143e 70d0 d8bd 312d 243e 5510 ebbd
00000340: 4845 f13d 0281 a83d bd0e ae3d 4388 fe3d
00000350: 71aa 70bd ca48 1fbe 13a7 033c a0fa 28be
00000360: a779 63bc 6f4d 02be dbc7 23bd 100c eb3d
00000370: 0d9b e8bc 816b 7bbd eb97 2e3e 460f 33bd
00000380: b6b4 cfbd d152 933b 16de c43d b69f bc3a
00000390: 507c 08be 0253 543d 1154 d3ba a27d 40bc
000003a0: face 32bd e405 b23d dbef 113d eb09 46bd
000003b0: 16da f33d 2c46 ef3d ca0e 823c ff53 abbd
000003c0: 6284 bbbd 4518 80bd 49d1 65bb 2890 9dbd
000003d0: 0bfa 16be becd 28bd 5f55 98bc 5764 0b3c
000003e0: 4c6e 6abc 7a0f 483d a89a 0b3d 9102 fe3d
000003f0: 75c4 483b 0dd4 983d f4f3 70bd 89aa 3b3d
0.06682874 0.026718317 0.09243345 -0.043144435 -0.023371372 0.03013565 -0.09358769 -0.032241367
-0.0027226382 -0.13573627 -0.01046513 0.116047524 -0.026734896 -0.034213345 -0.0033715302 0.035166163
0.06898458 0.05134776 -0.091912344 -0.1842525 0.059173178 0.09980029 -0.11904941 0.15060446
0.11542787 0.049958665 0.14424717 0.06057902 0.080457054 -0.08635149 -0.031149743 -0.019213313
0.02762447 0.023574663 0.057261012 -0.073715754 0.079882175 -0.07612834 -0.07506765 0.1952389
0.21766594 0.23731719 0.023098832 0.16970465 0.04040996 -0.15066937 0.08952875 -0.04944398
-0.11738565 0.18764037 -0.0072913547 0.04151484 -0.046176378 -0.1482783 0.112266 0.039433096
0.07306928 0.07749865 0.18896143 0.36160743 -0.041207433 0.056941435 0.24597447 0.05281396
0.19155177 -0.09519187 0.10702825 -0.0046538506 0.04096134 0.059162643 0.122340925 0.21555263
-0.13149317 -0.13129874 -0.13500153 0.06103721 0.0247524 0.10658319 -0.010562955 -0.23946656
-0.045050178 0.0151460385 0.0368209 0.11173958 -0.08305366 0.05858407 -0.026716486 0.019683912
-0.024673887 0.111309685 0.1403867 0.035613917 -0.0037901695 -0.052846313 -0.0076290597 -0.025607113
0.07155771 -0.030380659 -0.0028098037 -0.04332778 0.042693105 -0.25164995 -0.08800377 0.14282678
-0.104978725 -0.114433445 0.07333196 -0.2447766 0.111009724 -0.10558791 -0.046174586 0.081635654
0.119149946 0.098012865 -0.049310166 0.066054404 0.05909814 -0.096910514 -0.09321126 0.01579955
0.11184004 -0.0457436 0.045338895 0.08768186 0.08230185 0.05528366 -0.04215906 0.10160036
-0.12396751 0.017472016 0.068166256 -0.0166616 0.11314568 -0.09926983 -0.087353595 0.15719987
-0.026447533 0.06846398 0.047599927 0.13384597 0.03468478 0.028350577 -0.044392027 0.026916167
-0.10445912 0.033575684 -0.016512409 -0.10336442 -0.040581506 -0.034282174 0.024449093 -0.11220016
0.11636446 -0.117132336 0.14908625 0.0067826766 0.08750379 0.047381356 -0.08077691 -0.113074765
0.042461287 -0.018112333 -0.056769665 -0.095173016 0.0011166014 0.04144738 -0.108128496 -0.1293917
0.09412291 -0.015737167 -0.02169673 -0.178161 0.075188234 0.21290007 -0.07311005 0.01974641
-0.12611116 0.11387147 0.027738653 -0.07945677 0.00812895 -0.13616195 0.019978894 0.0076700337
-0.13773198 0.07593123 0.10436767 -0.110456325 0.08853192 -0.116510846 -0.06781355 -0.01777125
-0.009017495 -0.12723787 -0.048919994 -0.020092458 -0.19358574 -0.014401378 -0.030678874 0.07811459
0.018811297 -0.011036008 -0.057792347 -0.11522209 0.14487661 -0.10586631 0.16032864 -0.114777245
0.117807925 0.08227731 0.08498905 0.124283336 -0.058756296 -0.1555511 0.008035439 -0.16501856
-0.013883985 -0.12724851 -0.03998552 0.1147691 -0.028394246 -0.06138182 0.1705014 -0.043715738
-0.1014189 0.0044959565 0.09612672 0.0014390859 -0.13328671 0.051836975 -0.0016123076 -0.011748703
-0.04365442 0.0869253 0.035629135 -0.048349302 0.11906831 0.11683306 0.015876193 -0.0836563
-0.091561094 -0.06254629 -0.003506737 -0.07693511 -0.14743821 -0.041211836 -0.018595396 0.00850781
-0.014308523 0.048842885 0.03408304 0.12402833 0.0030634676 0.074623205 -0.0588264 0.045816932

importance_map.upscale.bias f4 [6]
00000000: 0ebf ae3d c36b 1d3d faec 11be cd3e 01bd
00000010: 99f9 a6bd 0c9a 173d
0.085325345 0.038432848 -0.14250556 -0.031554032 -0.08153076 0.037012145

importance_map.genmap.weight f4 [18, 6, 3, 3]
00000000: 3910 cd3d 6015 743d 3411 0d3e 3f6b cd3c
00000010: 2601 c33d 2af2 2c3c 4bba 193e 4fdd d73d
00000020: 54ec 3d3e 773f 41bb f3a4 1a3d b9ea dbbd
00000030: d5d0 133e 73e0 eb3c 30e5 953d 40aa cdbd
00000040: 46b5 09bb c730 093e 4d96 39bc 1fdd 9a3c
00000050: bfe2 e03d 9cf3 933d e98c 963d 43cc afbd
00000060: 3e99 4dbd c631 113b 81e4 c0b9 8001 9cbd
00000070: a099 1bbe 1948 093e fa4a b6bc 1140 0b3e
00000080: 624e 59bd 54bb b23d f9ff 90bd eafa f03d
00000090: 6c85 083e 828f c03d 869d 92bd ed17 79bd
000000a0: 2108 16be eb91 a3bd 25c8 583d 15f0 903d
000000b0: 85cf 80bd b65f 7a3d 31ea 093d c9d5 dcbc
000000c0: 2a2a 28bd 7fc5 eb3d d41d 6c3d 6392 703d
000000d0: 3ff1 063e a46a a03d 12d1 d63d d190 b33c
000000e0: 6901 c83d 17bc 163e c521 f33d 4b51 fc3d
000000f0: dad4 90bc adcf e73c eb7c 1dbd f686 073e
00000100: 0a03 ed3a facd a8bd d160 0ebd 908a b6bd
00000110: 3b85 313d 6f7f 163e 6351 d03c f611 a3bc
00000120: c753 82bd 4e88 e1bd 4d84 283d e33a 953d
00000130: e351 e4bd 137c 423d 353c b33c d735 ffbd
00000140: 3197 783d 95ab 613d de76 16bd 8345 f53d
00000150: 9527 58bd da1f d83c 3c12 0f3e a325 053e
00000160: 3739 fa3d 0ac8 03bd 7257 08bd c8c1 663d
00000170: fe1a 053d 62cf fd3d f72e fd3d 7807 043e
00000180: 6d52 a03d e831 85bd 2505 fc3c 9580 413d
00000190: 9be6 963c 3451 c43b 8d04 16bc be01 b5bd
000001a0: 78bb 203c 6d91 9ebd d0b4 1f3e 4ed6 cabc
000001b0: 71af 593d 2ce8 1cbd d14c aabd 4f19 4a3d
000001c0: 1a69 e0bd 7e29 bc3d e927 9f3c 839b 8b3c
000001d0: 113f b43d f891 bb3d 3cf0 f93d ee13 c23d
000001e0: f53c 99bc 6e2e 6eba 0713 edbd 09f8 3f3d
000001f0: 9851 643c d2cf d73d 3efd d13d be2c 01be
00000200: 6b56 66bd 4b3e f63d 3460 1f3d 171e 0ebc
00000210: 5ab3 a8bd bae3 5dbe 2062 993d 2430 8f3d
00000220: 431e 563d edbc bd3d b85f 6ebd 4794 233e
00000230: 708f a63d 479a 963d 96a8 a8bb 5230 c4bd
00000240: b5ec 9a3d 0ff7 9a3d 2263 843d c41d 933d
00000250: 8ac4 1dbd 1d44 013e d469 773d b1f4 a9bd
00000260: 39da 75bc c931 51bd 83c6 b73d 31c8 debd
00000270: bdcd aabd 2125 a0b9 347b 07be 8fa8 1dbe
00000280: 63a2 b0bd 9fa2 603d 8410 99bd 5ec6 37bc
00000290: 6f3f 033e 03ae c8bc 04a9 1b3e 77b4 56bd
000002a0: 528c f53a ffcc 0b38 e3af 66bd c4cd 0c3e
000002b0: 4edc 7e3d 46e9 94bd 1aff 8e3d d1d7 0bbd
000002c0: 2384 58bd bb16 f13d bbbe 963d 0694 38bc
000002d0: 5f18 ec3c 3cf4 0f3d b02e 98bd 2075 0f3e
000002e0: a094 3d3e 765d f53d 72cf a0bd 4b19 023d
000002f0: 0244 e2bc 3c6d 2c3e 9886 11be e029 603d
00000300: 5a11 f73d 2736 91bd b149 ae3c ffdf 173e
00000310: 9f03 183d 4ddc 4d3e 80ec dd3d 6755 b13c
00000320: 7431 a0bc 3cbb 5cbd 27f4 c43d 2d96 3e3c
00000330: 462e 223e c971 053e 6662 9b3d ba38 283e
00000340: 095e 74bc a63f bd3d deb5 173e 12da 99bd
00000350: 73ae 7e3d 3023 9d3c 27d9 9d3d 3f16 e23d
00000360: 5491 25be ac0b b3be c494 32be d120 5fbd
00000370: 52dd 14be 515f 74bd cc37 6dbe 851d c4be
00000380: c69d 64be 64fc 21be f034 9dbc 8a70 223c
00000390: 95e5 43bc 03fd 08be ff9e 8bbe 8e77 f13c
000003a0: 1f8c 2abe 9865 01bd 08c2 663c 58f6 01be
000003b0: 8901 1b3e 6932 813c c235 5abe 38a6 703c
000003c0: 0b7e cbbc d406 9abd c903 da3c 71f4 1f3d
000003d0: 2ed4 92bd bddd 713c d07d 22be ce97 c6bc
000003e0: 74c5 0fbe d5bb d73d 12f8 433d b638 2b3e
000003f0: 1e0d ac3d ceb4 50be ac69 58bc c14b b7bc
0.1001286 0.059590697 0.13776094 0.025075553 0.095217034 0.010555783 0.15012471 0.10540258
0.18547183 -0.002948729 0.037754964 -0.10738129 0.14435132 0.02879355 0.07319105 -0.10042238
-0.0021012588 0.13397513 -0.011327338 0.018904267 0.109807484 0.07224199 0.07351095 -0.08583882
-0.05019497 0.0022154911 -0.00036791342 -0.076174736 -0.15195322 0.1340641 -0.022252548 0.13598658
-0.053053267 0.08727136 -0.07080073 0.11766608 0.13332146 0.09402372 -0.071589515 -0.060813833
-0.14651538 -0.07986816 0.052925248 0.07077042 -0.06289581 0.061126433 0.033670608 -0.02695741
-0.041055836 0.11512279 0.057645634 0.058733355 0.13177966 0.0783284 0.10489096 0.02191964
0.09765894 0.14720188 0.118716754 0.12320193 -0.01767962 0.02829727 -0.03844921 0.13235077
0.0018082571 -0.08242412 -0.0347603 -0.089131474 0.04333995 0.1469705 0.025429433 -0.019906025
-0.063636355 -0.11012326 0.041141797 0.072866224 -0.11148431 0.047481608 0.021879295 -0.12461441
0.060691062 0.055095274 -0.036734454 0.11976149 -0.052772123 0.026382376 0.139718 0.13002639
0.12217944 -0.032173194 -0.03328652 0.056337148 0.032496445 0.12393071 0.123624735 0.12893474
0.078282215 -0.065036595 0.030764172 0.047241766 0.018420508 0.0059911255 -0.009156358 -0.08838223
0.009810321 -0.077425815 0.15596318 -0.024760392 0.05314583 -0.038307354 -0.08315433 0.049340542
-0.109575465 0.091876015 0.01942821 0.017041927 0.088010915 0.09158701 0.12204024 0.094764575
-0.018705824 -0.0009085898 -0.11575895 0.046867404 0.013935469 0.105376855 0.1025338 -0.12614724
-0.05623476 0.120236 0.038910106 -0.008674166 -0.082373336 -0.21668902 0.07489419 0.06991604
0.052274954 0.0926455 -0.058196753 0.15974532 0.08132827 0.07353645 -0.00514705 -0.09579529
0.075646795 0.07566654 0.064642206 0.07183412 -0.038517512 0.1262364 0.06040366 -0.08298624
-0.015005642 -0.05107287 0.0897341 -0.10878027 -0.08340023 -0.0003054524 -0.13230592 -0.15396331
-0.08624723 0.054842588 -0.07473853 -0.011216728 0.12817167 -0.024497038 0.15201193 -0.0524182
0.0018733835 3.33311e-05 -0.056320082 0.13750368 0.062221818 -0.07271056 0.069822505 -0.034141365
-0.05286039 0.117719136 0.07360598 -0.01126576 0.028820215 0.03514503 -0.0743078 0.14009523
0.18513727 0.11980717 -0.07852067 0.031762403 -0.02762032 0.16838545 -0.142115 0.054727435
0.120638564 -0.07090407 0.021275373 0.14831541 0.03711283 0.2010357 0.108361244 0.021647168
-0.019554831 -0.053889498 0.09616881 0.011632484 0.15837964 0.13031687 0.075871274 0.1642789
-0.014914998 0.092406556 0.1481547 -0.07512297 0.062178086 0.019181818 0.07707434 0.11039399
-0.1616872 -0.34969842 -0.17439562 -0.054474656 -0.14537552 -0.059661213 -0.23165816 -0.38303772
-0.22325811 -0.15818936 -0.019190282 0.009914527 -0.011956592 -0.13377766 -0.27269742 0.029475953
-0.16655014 -0.031591028 0.014084347 -0.12691629 0.15137304 0.015771108 -0.2130957 0.014688067
-0.024840375 -0.075208336 0.026613133 0.039051477 -0.07169376 0.014762339 -0.15868306 -0.024242308
-0.14040166 0.10533873 0.047844 0.16720852 0.084009394 -0.20381472 -0.013208788 -0.02237499

importance_map.genmap.bias f4 [18]
00000000: 7a1e 503d 9a94 0f3e 954a 843d 9d10 003d
00000010: 8a7d 3cbe 913b f83d afca 073e 3055 d63c
00000020: ad7c 4abd e10b 7f3e 7135 fc3d 9b8b b43c
00000030: bd1f 663d b560 45bd 0c4d a83d 0b1e 7cbe
00000040: 6853 223e 2757 e03d
0.050810315 0.14021531 0.06459538 0.031265844 -0.18407264 0.121207364 0.13260911 0.026163667
-0.049435306 0.24906875 0.12314881 0.022039225 0.05618261 -0.04818793 0.082178205 -0.24620835
0.1585213 0.10954123
