experiment/meta/model/model_4.pt (torch, 28984 bytes, 14 tensors)

feat_extraction.stage0.rbr_dense.conv.weight f4 [14, 3, 3, 3]
00000000: 14cb 253e f556 d1bc 4993 033d b806 1e3e
00000010: 0897 12be 31a1 1b3e 91d8 a23c 116b 0c3e
00000020: 52a8 333d db73 013d ac33 dd3d e929 9b3d
00000030: 813b 043e 320b 1fbd 2172 ac3c 0300 153d
00000040: b103 7f3d 6e98 873c e112 403e d84e 9b3d
00000050: ab4a 2cbd 36c9 b9bd 2f05 00bd b668 a3bd
00000060: f2ad 18bd b66c 233c 2bf1 d43d d092 c83d
00000070: 911e 55be 4c33 d83d 33c4 563d 9ec8 2d3e
00000080: cc71 053e fab3 66be b325 68be 1161 f5bd
00000090: da85 2c3e 4e68 2abd 72b5 9a3d e02b acbd
000000a0: 481f 3f3e 21e6 91bd 4297 bf3d ea2d 1fbd
000000b0: 0d3b 02be 0433 1e3e 5916 51bd b9ff d83d
000000c0: ff56 643b d2cc 133d c3a7 f8bd 5f6d b7bd
000000d0: 8e5b f33d 7167 b2bc 6589 6f3e ddd7 453e
000000e0: 0c06 b43c f394 aabd 1008 213e ed48 cc3d
000000f0: a5f7 acbd abd4 253e 2b5a 1a3e 7560 513e
00000100: 63fc 97bd b6fa 88bb 961a 063d 6c25 803d
00000110: e5dc e0bd b9f7 dabd 8666 093e 18f8 8ebc
00000120: 19c5 033e 51d7 3e3d ec7e bb3d 6c82 a23d
00000130: 4ade da3d 01ab 073e 65cb 19be 2d07 013e
00000140: 67b6 e1bd 3bc2 17be 4731 8b3d f737 bdbc
00000150: affd c43d 0dac 8abd cea0 3bbe 79a7 c43d
00000160: 6c74 6abc e6de b03d 1f92 2c3d fec9 cabd
00000170: e22a 0e3d 6b6a a83c 263c b5bd fab0 debd
00000180: 7962 873c 8068 333d 50c5 dfbd 44f5 51bd
00000190: f496 6c3e dece 52bc dd4e ea3d 26a9 0b3e
000001a0: d717 e5bd 9c37 39be fc25 543e 4597 193c
000001b0: f8a9 273e 72b6 963d cc51 b03d 1b74 3a3e
000001c0: 7e8e 643e 14a5 cabd 031b 583d 98f1 383e
000001d0: af49 2a3e 0c61 233e 62b6 c4bd 5344 d5bd
000001e0: 6596 90bd ba60 963d 299f 6b3e 6db2 b3bd
000001f0: 9ce0 143e 4292 95bd 36f6 06be f181 fa3b
00000200: 3e38 163e 31cd 6e3e f74c 86bd e187 a53d
00000210: d6af 503e f3c6 2e3e c2c5 193e a323 103e
00000220: 9e4a 0e3e e855 243d 3927 05be 33ac f1bd
00000230: c637 aabd bca2 b3bc 0ebf 9fbd 0e3b aa3d
00000240: 016b 8e3d 5284 21bc 77e2 a13d 6f8c 873d
00000250: 1206 373e 0a07 1a3e a64b 88bd 83da 733e
00000260: 4b70 85bb 8671 fb38 e0d5 19be 946a f8bd
00000270: c7ba e4bd d18d d2bc f777 1c3e 8d62 8fbd
00000280: b36c c9bd 990c b03d 8829 1c3d 40d6 ec3d
00000290: 2a50 04be f1e4 123d 5b5f 4cbd 50fb 66bd
000002a0: c58c 27be 52fd 90bd bfd8 78bd 2e0b 8c3d
000002b0: 10b3 3b3d 1456 0b3d 55c3 483e 4e42 693e
000002c0: 0d50 093e eacc 87bb bef2 e0bd 391b 1a3e
000002d0: cbc4 98bc 12e9 063d e9df 1dbe c963 1f3c
000002e0: 3315 46bd fe7d 503e 74e8 16be 8302 d7bd
000002f0: 481a a23b cb79 0fbe 81ae 383d eeed f5bd
00000300: ad40 f7bd 7bbf f13b 7ab8 e13d 1a31 32be
00000310: f2fa 9c3d f9f4 c13d 776c 263e 8614 0fbe
00000320: 8a61 a33c b8f2 24be f787 383e 253a abbd
00000330: bc97 af3d 8b3d e53b 58e9 f5bc 4d95 7d3c
00000340: 60c8 9d3d 9666 dc3d 0406 793d 47ee fe3d
00000350: 56b8 0cbe b33e 1c3e c4e8 593e f9ff 3a3e
00000360: e337 293e da32 f0bd 8432 f7bc 2cb9 543e
00000370: 1e55 07be 6479 493e d434 efbd 38c7 e1bd
00000380: b243 d13d 7cff cbbd dac8 b6bc e9e1 393e
00000390: d9f2 4d3e 1e78 473e c12d a0bc a39b c8bd
000003a0: 2484 603e c14c eebc 677a 7cbd 2515 483d
000003b0: 512a c4bd 4e95 0a3e fbf7 c53d 4e1b 1bbe
000003c0: 51d1 06be 4bca 15bc d55b ac3d 4a16 74bd
000003d0: 1714 0abe 3ddf 7fbd 1c7b 71be 1b05 32be
000003e0: dca7 3bbe 05fe 933d f4c9 a63d 90d2 04be
000003f0: f08b 48bd 5c69 233d 9d04 5dbd b0b2 07be
0.1619075 -0.02555416 0.032122884 0.1543225 -0.14315426 0.15198208 0.019878658 0.13712718
0.043861695 0.03160463 0.10800871 0.07576353 0.12913324 -0.038829036 0.021050515 0.036376964
0.06225938 0.016552176 0.18757202 0.075833976 -0.042063396 -0.09071581 -0.031254943 -0.079789564
-0.037275262 0.009974649 0.10397562 0.09793627 -0.20812441 0.10556659 0.052433204 0.1697106
0.13031691 -0.22529593 -0.22670631 -0.119814046 0.16847935 -0.04160338 0.07554139 -0.08406806
0.18664277 -0.07123972 0.09355022 -0.038862146 -0.12717839 0.15449148 -0.051046703 0.1059565
0.0034841893 0.036084004 -0.12141373 -0.08956408 0.11882697 -0.02177784 0.23392256 0.19320627
0.02197554 -0.08329191 0.15725732 0.09974847 -0.08445672 0.16194408 0.15073459 0.20446952
-0.07421186 -0.0041802777 0.032740198 0.06257138 -0.10979632 -0.106917806 0.13418016 -0.017452285
0.12868156 0.04659206 0.09155068 0.07935032 0.106869295 0.13248827 -0.15018995 0.12600394
-0.110211186 -0.14820187 0.06796508 -0.023097975 0.09618699 -0.06771097 -0.18323061 0.096022554
-0.014309984 0.086362645 0.04213154 -0.09901808 0.034708865 0.020558557 -0.08849363 -0.10873599
0.016526448 0.04380083 -0.10926306 -0.051259294 0.23104459 -0.012866704 0.11440823 0.13638744
-0.11186188 -0.1808762 0.20717615 0.009374444 0.16373432 0.073590174 0.086093515 0.18208353
0.22319981 -0.098947674 0.052760135 0.1806091 0.1662967 0.15954989 -0.09605099 -0.104134224
-0.070599355 0.07342668 0.23009934 -0.087742664 0.14538807 -0.07303287 -0.1317986 0.0076448848
0.14669892 0.23320462 -0.06557649 0.080825575 0.20379576 0.1706808 0.15016845 0.14076094
0.13895652 0.04012099 -0.13003244 -0.118004225 -0.08311419 -0.021928184 -0.07800113 0.08312045
0.06954003 -0.009858208 0.07904523 0.066185825 0.1787341 0.15041748 -0.06655054 0.23813824
-0.0040722243 0.00011989758 -0.15022993 -0.12129703 -0.111684375 -0.025702389 0.15280138 -0.07001219
-0.09835186 0.08596153 0.038125545 0.115643024 -0.12921205 0.035862867 -0.049895626 -0.056392014
-0.16362293 -0.07079567 -0.06075358 0.0683807 0.045825064 0.034017637 0.19605763 0.227792
0.13409443 -0.0041443007 -0.109837994 0.15049447 -0.018648526 0.032937117 -0.15417446 0.0097283805
-0.04836006 0.20360562 -0.14737111 -0.10498526 0.0049469806 -0.14011304 0.045088295 -0.12008272
-0.12072883 0.0073775626 0.11021514 -0.17401543 0.076650515 0.09470553 0.16252314 -0.13972673
0.019943971 -0.16108215 0.18020616 -0.083606996 0.08573863 0.006995862 -0.030018494 0.015477491
0.07704234 0.10761754 0.060796753 0.124477915 -0.13742194 0.15258293 0.212802 0.18261708
0.16525225 -0.11728449 -0.030175455 0.20773762 -0.13216063 0.19675213 -0.11679998 -0.11024326
0.1021799 -0.09960839 -0.02231257 0.18152584 0.2011217 0.19479415 -0.019553067 -0.0979531
0.21925408 -0.029089333 -0.06164017 0.04884829 -0.09578384 0.13533518 0.09666439 -0.15147135
-0.13165785 -0.009142469 0.08415953 -0.05959157 -0.13484226 -0.062468756 -0.23582119 -0.1738476
-0.18325752 0.07226185 0.08143988 -0.12970948 -0.04896158 0.0398954 -0.053959478 -0.13251758

feat_extraction.stage0.rbr_1x1.conv.weight f4 [14, 3, 1, 1]
00000000: 45c4 a73e 948a de3d cf07 e1bd 0d7b 00bf
00000010: 2a1b e33e c3ff bbbd a483 aabe 032c cf3e
00000020: 67bf 773e 4c19 3f3e 37c9 97bd 202b 02be
00000030: 1505 0e3e c8f7 fd3e 82e6 0b3e b1e5 6abe
00000040: 2380 223f 573b 8d3d ee00 f43e 6d47 393e
00000050: 37e1 173f 6dc0 a83e a790 8ebe 8252 f13e
00000060: 708e 943c 87bd e6be f868 14be 8c17 0fbf
00000070: f892 a9be ee6b e2be 351e d33e 6c21 a2bd
00000080: 0333 b9bd 9231 8e3e 6e32 873e 6288 b3be
00000090: e940 253e 39c4 5f3e 63b9 f8be 41b7 063f
000000a0: 4657 b2be f7ba 77be
0.3276693 0.108662754 -0.109878175 -0.5018776 0.44356662 -0.09179642 -0.3330356 0.40463266
0.24194108 0.18661994 -0.074114256 -0.12711763 0.13869126 0.49603105 0.1366215 -0.22939183
0.6347677 0.06896084 0.4765696 0.18093653 0.59328026 0.3295931 -0.27844736 0.4713326
0.018134326 -0.45066473 -0.14493167 -0.55895305 -0.3311994 -0.4422297 0.41233984 -0.07916531
-0.09042933 0.27772194 0.26405662 -0.3506499 0.16138043 0.21852197 -0.4857894 0.52623373
-0.3483221 -0.24192415

feat_extraction.stage1.rbr_identity.weight f4 [14]
00000000: b313 653f 00c2 5b3f 3cd0 783f c96f 733f
00000010: d20e 7e3f 6281 763f c02c 753f b3c1 783f
00000020: a990 763f c7bd 6f3f 669e 643f efc6 753f
00000030: ac55 753f 5b43 643f
0.89483184 0.85842896 0.9719274 0.95092446 0.99241364 0.9629117 0.9577141 0.9717056
0.96314484 0.9364895 0.89304197 0.96006674 0.9583385 0.89165276

feat_extraction.stage1.rbr_identity.bias f4 [14]
00000000: 80a7 8e3d a57e 913d 693c 4c3c 8ddb e93d
00000010: 537b 5b3c d004 173d 2744 613d e97c 5d3d
00000020: 42f5 8b3d 1468 b93c 6f86 c73d 453a 243e
00000030: 7024 863c ca71 ab3d
0.06965542 0.07104234 0.012465575 0.11418829 0.013396102 0.036869824 0.054996636 0.0540742
0.068338886 0.022632636 0.09742438 0.16037853 0.016374797 0.08371313

feat_extraction.stage1.rbr_identity.running_mean f4 [14]
00000000: 6a1e 1f3f 95e6 c43c 0df4 3f3f 63b5 2d3c
00000010: ba6c 9a3f 3a3c b93e f812 223f ff1e ee3e
00000020: 45cc 093d b989 9433 8360 5a3d 57db cc3c
00000030: 5ebd 3633 3dc4 013e
0.62155783 0.024035731 0.74981767 0.010602328 1.2064431 0.36178762 0.63310194 0.46508023
0.033642072 6.916839e-08 0.053314697 0.025006933 4.2547406e-08 0.12672515

feat_extraction.stage1.rbr_identity.running_var f4 [14]
00000000: 23b8 033e 50a0 743b be41 473e b432 913a
00000010: 2c08 f93e 2358 3d3d ce2b 123e 8335 d73d
00000020: 45a8 d43a 5aea 652f a832 993b e26a fe3a
00000030: 4e7d 9e2f 34ef ab3c
0.12863211 0.0037327 0.19458672 0.0011077733 0.48639047 0.04622663 0.14274523 0.105082534
0.0016224465 2.0910687e-10 0.004675228 0.0019410516 2.8829067e-10 0.020988084

feat_extraction.stage1.rbr_dense.conv.weight f4 [14, 14, 3, 3]
00000000: 533f bb3a dc40 163e 4dfa ae3d 2f5f 123e
00000010: e675 7f3d 46fd db3d a4cd 0c3d 0b5e 7bbc
00000020: 9c0b 813d 179f 47bc 6a79 06bc c203 44bd
00000030: 5f46 d53b d599 003d b601 b83c 7619 a8bd
00000040: 07f9 3a3d 013e 233b 3bea df3d baad d13d
00000050: b71c acbc 7ead 073e fb69 6abd 02ae b13d
00000060: a4d1 453d 8428 943d d237 b9bc b0ca a23d
00000070: 8057 98bd 797f 03be 057e 673b 598b df3d
00000080: dba4 523d e93d a9bd a3db 033e 8e10 aa3c
00000090: 5dbe 463b 31ca debc 33ae c53d cbfb 2dbb
000000a0: f102 9e3d f749 25bd 38dd e03d 1239 823d
000000b0: 306c bb3c 808e ab3d d054 82bc c5b7 343d
000000c0: ecad 453d ffbd 99bc db0c ea3c af3d dc3b
000000d0: 5aab ee3d 79e3 ec3d 658f f03d f370 e73d
000000e0: 85a8 f8bc dcec 8e3d 4b16 723d 74ca e2bc
000000f0: ed4f 9c3d 8c6b aebc d613 1e3d 4336 493d
00000100: 6164 b93d 135a a3bc e3db 3ebd 1487 b93d
00000110: 667c 503d 481e 923d 0e82 3c3d 588e a2bc
00000120: 700f 1a3e 71af 0ebe 766d d53c 1e86 df3d
00000130: 9383 d83d 3969 58bd 78a2 c5bd fb79 dc3d
00000140: 7a8c b1bc c0d1 8abd 13e8 96bd cd09 43bd
00000150: df2f a0bc 9b16 5cbd 46e2 10bd 652a b3bd
00000160: 1304 3e3d 6403 dbbc 99e0 2dbc 88bb 853d
00000170: 1650 0abc 7787 d83d f0d7 ba3d 89ae 2cbd
00000180: 46a9 88bd ec67 34bd 10d2 4fbd f9cd a83d
00000190: 4547 ebbc 43e7 a93d 3f89 d83d fd4b a43d
000001a0: 4e39 863d 598b 98bd c5ec ae3d 2463 8e3d
000001b0: 1fed 1abd b59b 6ebd 2417 823c 1386 be3c
000001c0: 87b8 1e3d 4cd1 d53c ae85 71bc 53cb 8ebd
000001d0: b635 673d 1554 fc3c f589 cebb 5db0 0b3e
000001e0: 3d19 8a3d 4a94 3dbd e22b 45bc 126d cfbc
000001f0: 359b b9bc 6c2e b73d c0b0 9dbd a183 8e3d
00000200: d48e 3fbd 7fb8 2e3d 1b7d 8cbb e69d 33bd
00000210: 28c2 563d 5774 9abd 2c46 4abd dfcb b93d
00000220: 2cbe 1a3e 030b 3a3d b389 d03c 261d e93c
00000230: f645 2b3d 6871 623d f54f a43d 1514 1f3d
00000240: 5c64 623d d098 dc3c 3805 d8bc b5fa 9ebc
00000250: 6944 5b3d 519f 1a3d 1da9 be3d 16d0 a53c
00000260: 006a 05bd e51c 17bd 6e1d 1ebd f7ac 733d
00000270: f855 b03d a64b 2abd e596 a93d ae89 4d3d
00000280: 4e23 00bc 504d ad3d d41f fabb e11d c93d
00000290: a443 343d 6118 2cbd cbe2 fabc 0ede a23d
000002a0: 8d1b 6b3d f12e b63d d82b 943c c259 c63d
000002b0: c851 9d3d d1f6 613d 2063 773c 842b ff3d
000002c0: 4107 573d 95fc 0e3c 660a 1a3d 7f9b fb3d
000002d0: fcf4 ae3d 6685 853c 4b1a e43d a1be 8b3d
000002e0: 2ff2 afbc 5c26 52bd 8521 9e3d e537 e53d
000002f0: 11d7 87bc 2545 be3d 1782 793d dcb8 2e3d
00000300: 4dfc ee3c e6f9 a63d 0d97 ad3d 02bc dc3d
00000310: 7372 b43d e888 d23d 8631 36bc 84c4 273c
00000320: bb7e 4bbd cff4 bebd 2637 ce3c 0f47 08be
00000330: 3f81 a23c 4670 f438 a79a 00be 4c77 7a3d
00000340: f5aa 97bc 2607 8e3d f2ba a23d 204b acbc
00000350: 9d3d 1e3c 9a14 dbbc 4fd3 f3bc d144 3abc
00000360: 81dd 9dbd 9382 f5bd ef41 2fbe 72f8 b6bd
00000370: 4d6d 83bd 4a21 c0bd d397 483d 0377 383d
00000380: f04e f13c 91bc 933c 4cd4 e5bd eee8 8d3d
00000390: 8f30 f9bc 5ad4 43bd 807b 65bd f333 be3d
000003a0: 7be3 88bd ecbc f63b 6ad9 81bd 5a1e 7cbd
000003b0: 6a93 46bd 1a01 aa3d b870 47bc dc1b b23c
000003c0: deb6 bdbd 4cdd 983d 487e c9bc 0d6a 53be
000003d0: 9aa0 85bd ddad 28be 5c0b 81bd a632 57be
000003e0: cf6a 75be 085e 42be 8125 aebd 24b1 11be
000003f0: 42ce 86bd 1601 bb3c 0b99 a93b 8eb2 3e3d
0.001428584 0.1467318 0.08543835 0.14294122 0.062368296 0.107416674 0.0343758 -0.015342246
0.063010424 -0.012183926 -0.008207658 -0.047855146 0.006508633 0.031396706 0.022461753 -0.08207981
0.045647647 0.0024908783 0.10933348 0.10238214 -0.021009786 0.13249776 -0.057229977 0.086757675
0.048295632 0.0723429 -0.022609625 0.07948816 -0.07438564 -0.12841596 0.0035322916 0.1091525
0.05142675 -0.082637616 0.12876754 0.020759847 0.0030325868 -0.027196022 0.096523665 -0.0026547785
0.07715405 -0.04035374 0.10979694 0.063585415 0.022878736 0.08376789 -0.015909582 0.04412057
0.048261568 -0.018767355 0.028570583 0.0067212204 0.116537765 0.115668245 0.117461 0.1130084
-0.030353794 0.06978771 0.05910329 -0.027684428 0.07632432 -0.021291517 0.038593136 0.049124014
0.09052349 -0.019940412 -0.04659642 0.09058967 0.050899886 0.07134682 0.046022467 -0.019843265
0.15044951 -0.13934113 0.026053172 0.10914253 0.10571971 -0.052834723 -0.09650129 0.107654534
-0.02167343 -0.06778288 -0.073684834 -0.04761677 -0.019554077 -0.053732496 -0.03537204 -0.087483205
0.046390604 -0.026735015 -0.01061263 0.06529909 -0.008441946 0.10572713 0.09123218 -0.042158637
-0.06672911 -0.04404442 -0.05073744 0.08242411 -0.028720507 0.08296063 0.105730526 0.08022306
0.06553899 -0.074484535 0.08541254 0.06952503 -0.037823793 -0.058253963 0.015880175 0.023257291
0.038750198 0.026100777 -0.014741344 -0.06972375 0.056447707 0.030801812 -0.006303067 0.13641496
0.06743095 -0.046283998 -0.012034388 -0.025320563 -0.022657016 0.08944401 -0.07699728 0.069587
-0.04676707 0.042656418 -0.0042873747 -0.043851756 0.052431256 -0.07541721 -0.049383327 0.090720885
0.15111607 0.045420658 0.025456285 0.028456282 0.041814767 0.055283934 0.08023063 0.03883751
0.05527149 0.026928335 -0.026369676 -0.019406656 0.053532038 0.037749592 0.093095995 0.020240825
-0.032571793 -0.03689279 -0.038602285 0.059491124 0.08610147 -0.04157605 0.08280734 0.05018013
-0.007820917 0.08462012 -0.0076331887 0.09820152 0.04400982 -0.042015437 -0.030625721 0.0795251
0.05739932 0.08895672 0.018087313 0.09685089 0.07681614 0.055167023 0.015099317 0.12459472
0.052497152 0.008727212 0.037607573 0.12285518 0.08542821 0.01629896 0.111378275 0.06823469
-0.021477787 -0.051306114 0.07721237 0.11192302 -0.016582044 0.09290532 0.06091508 0.042656764
0.02917304 0.08153133 0.08476076 0.10778047 0.08810892 0.10280019 -0.011120206 0.010239724
-0.049681406 -0.09324037 0.025172781 -0.13308357 0.01983702 0.00011655739 -0.12558995 0.061148927
-0.018514136 0.06934957 0.07945813 -0.021031916 0.009658244 -0.026743222 -0.029763846 -0.011368946
-0.07708264 -0.11987796 -0.17114995 -0.08934106 -0.06417332 -0.093813494 0.048972916 0.045035373
0.029456586 0.018034251 -0.11222133 0.069291934 -0.030418662 -0.047809936 -0.056025982 0.09287252
-0.066840135 0.0075298455 -0.063402966 -0.061552383 -0.04848043 0.08300991 -0.01217287 0.0217418
-0.09263395 0.07464084 -0.024596348 -0.20645924 -0.06524773 -0.16472574 -0.06300995 -0.21015415
-0.23966525 -0.18981183 -0.08503247 -0.1422773 -0.06582309 0.022827666 0.005175715 0.046557

feat_extraction.stage1.rbr_1x1.conv.weight f4 [14, 14, 1, 1]
00000000: 793a 5a3d cae1 50be 336f a13c 5e71 f4bc
00000010: 1a26 49bd 25ba 88bc b97b b93d 3e64 5dbd
00000020: dcfd 11be f1a4 09be eb43 3cbe d355 21be
00000030: 2972 033e 8837 313e 7b50 473e 5616 da3d
00000040: 9222 9abd e5b6 3abe 14b8 1b3e 187f fbbd
00000050: ed18 673e 2ea5 b4bd 3137 94be b8ed 39be
00000060: 49fa 243e 279b 3b3e 9d21 773d 45e7 12be
00000070: 88e8 6d3e 4d0e e33d 1027 243e da5d 31be
00000080: a855 493d 07d6 7c3e 6d23 41be 99c3 8e3e
00000090: db4a 5ebe a8ae a2bd d294 16bd 8fea 703d
000000a0: 1bc5 a13d 5530 29be b315 003e 22b9 3f3e
000000b0: c661 39bc 9ddc 40be b544 8c3e d072 f0bd
000000c0: 5728 01be 89d0 913e 4377 febd fd70 203e
000000d0: 8e54 743e 373b 66bc f8f8 6abe efa6 2ebd
000000e0: 6a4a bb3d 8f78 7b3e 2260 e0bc 7474 16bd
000000f0: c72b acbd d405 47be 665b 823e 3781 debc
00000100: e5e5 d2bd 1586 3cbe 166e 4e3e 627b f53d
00000110: 923b 2f3e 0e85 993d fe92 19bd 807b d83d
00000120: 2c9d f93c 94eb bebc 89f0 b13d 9c30 fabd
00000130: 77f3 20be fd97 bdbc 2456 5ebe b1c7 a53b
00000140: aa11 623d 817a 793e 1896 a03d 0c16 14bc
00000150: e561 28be 8785 85bd 40a1 dc3b 04ec cdbd
00000160: 7ca4 bd3d f95a 713e adee 4d3e de1f 5ebd
00000170: 2efb 06bd d6a7 863e a956 0bbd ddda 33be
00000180: e201 66bb 1b13 30bc b36e b3bd 97f9 0b3d
00000190: 4c56 33be 73f9 093e a35e 1fbe 7684 023e
000001a0: eecc 763e 4158 f0bd e8c5 24bd 0d75 b53c
000001b0: 3bd0 b43c f043 583e 9851 9abc a82f 073b
000001c0: 5cfa 4abd 8407 223e 0177 9b3d 56a8 3abd
000001d0: 7047 173e d909 49bd 77e1 723e d1fe 95be
000001e0: 6f05 013e fc67 143e 06ed 843e dcb8 3d3e
000001f0: c3f6 fabd 863a 8cbd 5312 27be 1df6 9a3e
00000200: b1df 3ebe 0a5b 30bd a381 3a3e 7449 3d3e
00000210: eb9c 37be 1a9b bd3d c10f 9b3d 3d62 483e
00000220: 5897 913d c96a 903e 326e 54bd d879 a83e
00000230: db3e 4c3d f567 1fbe 0edb b23d 6575 47bd
00000240: eda5 e53d d633 6a3e 9269 26be 411d 47be
00000250: a9db 833e d09d c4bc f5a4 033d f2cf b93e
00000260: 0e43 e43d 595f b73d 441b a43d 0bea 823d
00000270: ee56 19be 6449 a63e c0c4 14be 8a40 c93d
00000280: f4b1 5d3e a5fe 79be 31f4 193e a0f4 893e
00000290: 0bc8 4b3e 2d82 db3d 4aed 313d b619 1ebe
000002a0: 5605 923d ec42 ad3e ddcd 933e 0eb2 453d
000002b0: 738a 0e3e f2a2 38bb b03e 8cbc 0720 893d
000002c0: 827e 52be 7a4e 793d 1554 2b3e d8b4 4bbb
000002d0: 4a7b 9fbd 9edf 4ebe 8d79 953d caea 9a3d
000002e0: 7a8c 853e 26f2 3cbe e64f 52be 2b9e 523c
000002f0: ebd7 833e b519 9d3b 926d 393e 34bf 513d
00000300: 2881 fd3c 8feb 4c3e 8373 403e a582 aabc
0.05327842 -0.20398632 0.019706344 -0.029839214 -0.049108602 -0.016690323 0.09056801 -0.054050677
-0.14256996 -0.13441826 -0.18385284 -0.15755396 0.12836517 0.1730634 0.19464295 0.106487915
-0.07526125 -0.18233831 0.15206939 -0.122801006 0.22568102 -0.08820568 -0.28948358 -0.18157089
0.16111101 0.18320905 0.06033479 -0.14346035 0.23233235 0.11086712 0.16030526 -0.17320958
0.049153954 0.2469102 -0.1886117 0.27883604 -0.21708243 -0.07943469 -0.03676302 0.058817443
0.07898923 -0.16522343 0.12508278 0.18722966 -0.011314815 -0.18834157 0.2739617 -0.11740649
-0.12613045 0.28479412 -0.12425091 0.15668102 0.2386038 -0.014052204 -0.22946537 -0.04263967
0.09145053 0.24557708 -0.02738959 -0.036732152 -0.08406787 -0.19435817 0.25460356 -0.027161224
-0.10297755 -0.18410523 0.20159182 0.11986424 0.17112568 0.07496081 -0.0374937 0.10570431
0.030470453 -0.023305692 0.086884566 -0.12216303 -0.15717874 -0.023143763 -0.21712548 0.0050592055
0.055192627 0.24363138 0.07841128 -0.0090384595 -0.16443594 -0.06519609 0.0067330897 -0.10054782
0.092598885 0.2356986 0.20110579 -0.05422961 -0.032954387 0.26299924 -0.034018192 -0.17563958
-0.0035096337 -0.010746743 -0.087613486 0.034173574 -0.17513388 0.13474064 -0.15563445 0.12745842
0.24101612 -0.11735583 -0.0402278 0.02215054 0.022071948 0.21119666 -0.018837735 0.002062777
-0.049555168 0.1582318 0.075910576 -0.045570694 0.14773345 -0.049081657 0.2371882 -0.29295972
0.12599729 0.14492792 0.25962085 0.1852755 -0.12254097 -0.068471 -0.16315584 0.30265895
-0.18640019 -0.04305557 0.18213515 0.18485051 -0.17930953 0.09258099 0.07571364 0.19568725
0.07108945 0.2820647 -0.051862903 0.3290546 0.04986463 -0.15567 0.087331876 -0.04869594
0.112132885 0.22871336 -0.1625121 -0.19444753 0.25753525 -0.024001032 0.032139737 0.36291462
0.11145602 0.08953733 0.08013013 0.063922964 -0.14974567 0.32477868 -0.14528179 0.09826763
0.21649915 -0.24413545 0.15034558 0.26944447 0.19900529 0.107181884 0.043439187 -0.15439495
0.07129924 0.3384012 0.28868 0.04826551 0.13920002 -0.0028173295 -0.017119735 0.06695562
-0.20556071 0.060865857 0.16731293 -0.0031083133 -0.077871874 -0.2020249 0.072985746 0.07564314
0.26083738 -0.18451747 -0.20538291 0.012855093 0.2575067 0.0047943243 0.18108204 0.051207736
0.030945376 0.20011733 0.18794064 -0.02081425

feat_extraction.stage2.rbr_dense.conv.weight f4 [12, 14, 3, 3]
00000000: 2aeb 96bd 34af afbd 9805 e2bc 751c fcbc
00000010: 4eb0 543d e428 c0bd dd62 fe3c 0afe 92bd
00000020: fa25 193b c3dc 433b 87b5 a33d fd9a 3abd
00000030: a7cc d2bc ab64 5c3d e140 bf3d 08ac 98bc
00000040: d077 6a3d 1356 143c c237 bfbd bb03 883c
00000050: a44a 30bc 5dca 423d 4217 8f3d 6e2c 963d
00000060: 836f 253d 133d 8fbd 5968 9dbd 2e69 4bbd
00000070: 494b a33d 5ad1 3abc 8ee3 d4bc 25f4 eabb
00000080: 62c5 12bc b1ba 6a3c bbe6 b73d c9f8 28bb
00000090: 5641 94bc 2900 113d 1023 e4bc 64c0 643d
000000a0: d903 943d fa54 393c 6159 a0bd 59b8 933d
000000b0: 50f9 51bd b803 48bd 8674 7f3d 944a 2dbd
000000c0: 7b4f b33c b34f b53d 3366 57bb 9b48 13bd
000000d0: d9e9 a03d b92b 443c 6be3 c53c fd08 efbc
000000e0: 99d3 9dbd 041a 803c bcdd 22bd 6a30 17bd
000000f0: 9b5f afbd 835e 953d 385c 7fbd fd36 053d
00000100: f06b 313d cd13 b13d 8fbc 453d abc7 32bd
00000110: f29f 623d eea1 6cbd 1857 953b 00b4 e4bc
00000120: c9af 983c b3d7 173b cc11 02be fd03 7d3d
00000130: c6d3 82bd 618a 9c3c e12d 90bc fe87 8cbd
00000140: b325 683c eb29 23bd c1d4 133d 0922 343d
00000150: d2f3 ba3d d754 093d 2910 ee3a 188e 2abd
00000160: 0cda f4bb 12e2 513d d937 debd 874f e6bd
00000170: ff5f 083c 9c5d 97bc 5171 5abc 649b 2abd
00000180: de85 6abd 4223 8abd 43ef 5bbd 5a86 89bd
00000190: 358f b7bc c7e3 053d 9861 a3bd b54d bd3d
000001a0: cdcc b6bd 87d3 f53b 68fd 743b f1f4 13be
000001b0: e48a b23c d1ab d63d 4da2 8fbc ab57 dd3d
000001c0: c344 e63c 04a1 013b 46d2 683d a361 bf3d
000001d0: cd53 c43d 5c71 943d 8ccd 9ebd 808e dcbc
000001e0: 3d16 c43c 7a5c 33bd 93ae 163d 9a9f 2ebd
000001f0: 4111 debd a8ee 6fbd 9df2 d5bd 1ead bdbc
00000200: 8b8c 34be 623a a9bd b4d5 0fbd ed24 83bd
00000210: ed89 e0bd 17c6 ba3c d1b9 0bbe 10aa 8bbd
00000220: b81e b63d d47b 49bd 83ea d63d b899 eb3d
00000230: fea3 863c 76c5 14bd 18c4 9abd fcba c8bc
00000240: 9273 463c f29c b5bc 4354 13be a3c5 8ebd
00000250: 7ea7 d7bc 74ec 9ebd dd3d d83c ee9a e0bc
00000260: 52e0 fcbc 487d 09be 8ba2 233e e788 41bb
00000270: 1d58 1abe ff78 29bb 5dc6 bfbc 4cc9 7ebd
00000280: 139a d43d bea2 86bd 1b76 f4bb 28a3 c5bd
00000290: 09d1 4c3c 598c a0bd 1af2 1abd 45d3 553c
000002a0: 0e92 843c 6a2c 06be 84a9 34bc bda6 5b3b
000002b0: 7f51 88bd f963 10bd b064 633d aa3c 463d
000002c0: 56b8 e0bd f184 1fbd 8cb8 c8bc b76f 14bd
000002d0: a899 573d ea60 c7bd ca95 14be bdf0 6cbd
000002e0: deba 72bd 64bc 3bbe 3b7b d4bd 78bc c9bd
000002f0: 3fc4 aebd da12 0c3d 5819 4b3d 2777 463c
00000300: becd 7abd ae1d 413c c82c e9bc 51e9 b3bd
00000310: 7f00 b4bd 6ee1 3dbd a2e2 64bd a4c8 213c
00000320: 0635 45bd b8ec e03b c366 8abb 6436 66bd
00000330: 97cc e03d ed12 04be f1cd 13bc 0369 783d
00000340: 5f04 0c3e 4b15 363d 61c8 c6bc 9e9c 763d
00000350: 46c1 af3d e813 433d 1e45 a0bc f130 a23c
00000360: 00a4 993b 7a39 3a3d e0bc a3bb 593b 353d
00000370: 2152 de3d fa89 ce3c 15c3 303d 052e 323d
00000380: 1dae 933c b31b 8abc 270c c23c a330 94bd
00000390: 69ad 9d3d 8d70 bc3d 88b2 ae3c c344 963d
000003a0: b1d6 773c baca 1dbd b474 d0bc 23ba 043d
000003b0: 2e4f 703d b8d1 bdbb beec d93c d062 613b
000003c0: 5957 353c 2739 ef3b 1eee 523d 1918 9e3c
000003d0: 9b45 8dbc bad2 323d 8241 563d 94a0 d1bc
000003e0: f0e5 3d3d 90b4 3bbd 47f6 863d 1c24 183d
000003f0: aa18 5439 8b20 a23c adfa 3bbd 2b27 b0bd
-0.07369073 -0.08578339 -0.027590558 -0.030775288 0.05192595 -0.09382799 0.031053001 -0.0717736
0.0023368583 0.0029886223 0.07993608 -0.045557965 -0.025732351 0.053806942 0.093385465 -0.018636718
0.05724317 0.009053725 -0.09336807 0.016603341 -0.010759983 0.04755627 0.06986858 0.07332693
0.04038955 -0.06994071 -0.07685918 -0.049660854 0.07973344 -0.011402452 -0.025987413 -0.0071702176
-0.008958193 0.014326737 0.08979555 -0.0025783053 -0.01809756 0.035400543 -0.02784875 0.05584754
0.072272964 0.011311764 -0.07829548 0.07212896 -0.051263154 -0.04883167 0.062366985 -0.04230745
0.021888485 0.08853092 -0.0032867312 -0.035957914 0.07857103 0.011973315 0.024156293 -0.02917909
-0.07706375 0.015637405 -0.039762244 -0.036911406 -0.08563157 0.07293417 -0.062343806 0.032523144
0.043315828 0.08646355 0.048275527 -0.04364745 0.055328317 -0.057771616 0.0045575015 -0.027917862
0.018638508 0.0023169338 -0.12702101 0.06177138 -0.06388049 0.019108953 -0.017600002 -0.06861876
0.014169144 -0.039834898 0.03609157 0.04397777 0.09128536 0.033528175 0.0018162775 -0.041639417
-0.0074722823 0.051240988 -0.10850496 -0.112456374 0.0083236685 -0.018477254 -0.013332681 -0.0416521
-0.057256572 -0.06745006 -0.053694975 -0.06715079 -0.022407154 0.03268793 -0.07977599 0.09243337
-0.089257814 0.0075020227 0.0037382487 -0.14448906 0.021794744 0.1048199 -0.017533446 0.10807737
0.02810896 0.001977981 0.056841157 0.093447946 0.09586296 0.07248184 -0.07754049 -0.026923418
0.023936385 -0.043789364 0.03678758 -0.042632677 -0.10843135 -0.05857721 -0.104466654 -0.023153838
-0.17631738 -0.08263089 -0.035115913 -0.064035274 -0.10963807 0.022799535 -0.13645102 -0.06819546
0.08892578 -0.049190357 0.10493948 0.11503929 0.01643562 -0.036321126 -0.07556933 -0.024503224
0.012112515 -0.022169564 -0.14387612 -0.0697129 -0.026324984 -0.077599436 0.026396686 -0.027417626
-0.030868683 -0.13426697 0.15979974 -0.0029531063 -0.15072675 -0.0025859473 -0.023410017 -0.06220369
0.1038095 -0.06574009 -0.0074603683 -0.0965026 0.01250101 -0.07839269 -0.037828542 0.013050859
0.016182926 -0.1310288 -0.011026744 0.0033516132 -0.06656169 -0.03525159 0.055515945 0.048397698
-0.10972659 -0.038945142 -0.024502061 -0.036239352 0.052636772 -0.09735282 -0.14510265 -0.057846773
-0.05926024 -0.18333584 -0.10375067 -0.09850401 -0.08533525 0.034197666 0.049584717 0.012113369
-0.061231367 0.011786861 -0.028463736 -0.08784736 -0.08789157 -0.046357565 -0.055880196 0.009874497
-0.04814627 0.0068641566 -0.004223676 -0.056204215 0.109765224 -0.12897845 -0.009021268 0.060647022
0.13673542 0.0444539 -0.02426547 0.060207956 0.08581786 0.047626406 -0.019564208 0.019798728
0.00468874 0.04546497 -0.004996881 0.04424605 0.108555086 0.025212277 0.043154795 0.04350092
0.01802736 -0.016858911 0.023687435 -0.07235839 0.07699091 0.09201155 0.021325365 0.07337334
0.01512687 -0.038523413 -0.025446273 0.032404076 0.05866926 -0.0057928227 0.026602145 0.0034391172
0.011068189 0.0073005143 0.051496617 0.0192986 -0.017245105 0.043657996 0.052308567 -0.025589265
0.046361864 -0.045826495 0.065899424 0.03714381 0.00020227084 0.019790908 -0.04589336 -0.08601221

feat_extraction.stage2.rbr_1x1.conv.weight f4 [12, 14, 1, 1]
00000000: 8844 05be c4b2 a4bd 5b58 59be ecbd d73d
00000010: acee b4bc b4ea 2b3d 1c11 8c3e 8168 7a3d
00000020: 5135 de3d 5286 843d 5f5b 7cbc e20f 403e
00000030: 6a06 f43d 79c5 0cbd 849f 10bd 2c8f 5abd
00000040: 0b6d 183c 22e4 3f3e 7550 543e af44 673e
00000050: 682d 42be dd80 4dbc a678 ea3c d2c1 6b3e
00000060: 9346 0cbd 5041 22bd 5068 0f3e 0781 0cbe
00000070: 7797 813e cac1 0cbe 3755 e53d 5a5a 7fbd
00000080: 7075 56be 5198 81be 3ff6 e93d 82ec cabd
00000090: e946 0bbe 3c65 973e fc76 423e d2b3 963e
000000a0: 8bb3 c8bd f117 a23c b2da 073d 8068 2fbc
000000b0: cf18 e93d a45e 833d 20e7 a2bd d8c1 31bd
000000c0: 80ef 09be ab90 3ebe 0cf4 cd3d 9f82 84bd
000000d0: f297 e7bd 3cf8 09be 1760 273e ecd3 84bd
000000e0: d7f1 483e 318c c23d 2bef b3bd 6dc6 7c3e
000000f0: e699 b2bd cf3d 7abe 33c3 393e 4ca4 1dbe
00000100: bf62 643e de31 613e 25fe 8fbd 8bf1 75bd
00000110: e9ad e53d 1810 df3d 35db 543e 16f3 a43d
00000120: 04ff db3c 2dc4 443e 464a 253d 07f1 54be
00000130: 621a 3bbd 6835 e8bc db30 24bb cd6a 69be
00000140: 90e7 83be f5f0 bdbd 36ae 9b3d 3554 e93d
00000150: d437 5dbe 19a8 fc3d 57ec 123d 015b 323e
00000160: b22d 0ebe fe80 9ebd 6135 ea3d c7fe 77be
00000170: b84f c43d 510e aabd 8d68 8a3d 1190 e1bd
00000180: a92c 823e 1203 783d 680e ee3c cb77 fabd
00000190: 9de1 3abe 1c86 9fbc 3a22 1fbe 90c9 fe3c
000001a0: b02d 853e 01fa f63d f14f 9fbd dce5 6cbd
000001b0: 0113 073e 8296 6fbc 3f16 33be 8c1d 95bc
000001c0: 9f9f 143e 08d7 f6bd a5fb 3fbd cd29 73bd
000001d0: 2578 1d3e 4252 f8bd d2b9 6bbd fe95 e93d
000001e0: d3de dfbd 50c7 843e fe55 34be 14d5 2fbe
000001f0: 5d8b 33bb 5f29 0fbe 0632 85be ef39 23be
00000200: 8391 70be bfab 803e 082d 0e3d 0062 f8bd
00000210: ab52 f53d 3e89 003d 7a71 ebbd f6c3 593e
00000220: 75c8 0fbe e997 6fbd 67f4 693e 3519 2b3e
00000230: ac4f e63d 9a9a e13d 4587 dabd 28bd 79be
00000240: 2850 e0bb caf0 0a3e 1f42 403e dee9 31bd
00000250: 19e8 efbd 66aa cf3c e186 5b3e 7bed 923d
00000260: b8ee 8d3e 075d e3bd 4dc9 803d 2ff0 0dbe
00000270: 09dd e73c 8ac3 443e 356e 56be cf8e 6b3e
00000280: 08c5 663e eb78 633e 2f86 9abd 3662 5a3e
00000290: bb08 8e3d 62af b2bd bcb7 973e 3748 69be
-0.13014424 -0.08041909 -0.21225111 0.105342716 -0.022086464 0.041971877 0.27356803 0.06113482
0.10850013 0.06470932 -0.015402644 0.18756059 0.11915286 -0.034368012 -0.035308376 -0.053359196
0.009303342 0.1873937 0.20733817 0.22584794 -0.18962634 -0.01254293 0.028621983 0.23023155
-0.034246992 -0.039613068 0.14004636 -0.13721095 0.2531087 -0.137458 0.11197894 -0.062342025
-0.20943236 -0.2531152 0.11423921 -0.099083915 -0.13601269 0.29569423 0.18990701 0.29434067
-0.0979987 0.019786807 0.03316755 -0.010706067 0.11381685 0.06414536 -0.0795424 -0.043397754
-0.13470268 -0.18609874 0.10056314 -0.064702265 -0.11308278 -0.134736 0.16345249 -0.064857334
0.19623505 0.09499396 -0.08785852 0.24685068 -0.0872076 -0.2443764 0.18140869 -0.15394706
0.22303294 0.21991679 -0.07030896 -0.060044806 0.11214811 0.108917415 0.20786746 0.080541775
0.026855 0.1921546 0.040354036 -0.2079507 -0.045679457 -0.028345779 -0.0025053534 -0.22794648
-0.25762606 -0.092744745 0.076015875 0.11393014 -0.21603328 0.123367496 0.035869922 0.17417528
-0.13884619 -0.07739447 0.114359625 -0.24218284 0.09585518 -0.08303512 0.06758223 -0.110138066
0.25424698 0.060549803 0.029059604 -0.1222988 -0.18250127 -0.019473128 -0.155404 0.031101972
0.2601142 0.12059403 -0.077789195 -0.0578364 0.13190843 -0.014623286 -0.17488955 -0.018202566
0.14514016 -0.12052733 -0.046870846 -0.059366036 0.15377863 -0.121250644 -0.05755026 0.11405562
-0.10931172 0.25933313 -0.17610928 -0.17171127 -0.00273963 -0.13980626 -0.26014727 -0.15940069
-0.23493008 0.25131032 0.034710914 -0.12128067 0.11978658 0.031380884 -0.11496253 0.2126616
-0.14041312 -0.058494482 0.22847138 0.16708834 0.11245665 0.11015816 -0.10670332 -0.24388564
-0.006845493 0.13568416 0.18775223 -0.043435924 -0.11714191 0.025349807 0.21438171 0.07174202
0.2772119 -0.11101728 0.06288395 -0.13861154 0.02830364 0.19215217 -0.20940478 0.23003696
0.22536099 0.22214095 -0.07545125 0.21326527 0.06935259 -0.08724858 0.29632366 -0.22781454

importance_map.upscale.weight f4 [12, 6, 3, 3]
00000000: 98da 693d b23a 433d 4b84 8f3d 4a6b 7ebb
00000010: 9d5d 33bd c799 353d 3328 01be 7e3e c1bc
00000020: 1a05 f4bc 3c31 1cbe a98b 33bc ef3a ae3d
00000030: e4cf 4e3c 87aa d4bc a6ae 543d 2832 0ebb
00000040: cc38 4f3d eb23 ce3c d62d 4dbd 8b6e 0dbe
00000050: a326 a23d 8ebf 173e 448b c1bd 1fc3 323e
00000060: 343f f63d 3b14 c73d d8cf 173e 9cd8 923d
00000070: b30c 563d f5e9 8dbd 3c1a 5cbd 1dfc 55bd
00000080: b0e9 f13c 5865 d13c e22c 023d 45c3 75bd
00000090: e0c3 913d 6a41 25bd e77b c0bd e7da 393e
000000a0: 73ec 273e 5bdf 423e ebc3 203b f8bc 4b3e
000000b0: 7436 b63c 3809 05be 5a00 093e da34 e1bc
000000c0: 09ea c7bd 9dca 143e 5065 f33c dc4d 4f3d
000000d0: f186 a4bc 7b0a 01be 3bba 143e 291c 9b3d
000000e0: e19c 803d 7850 b43d db0d 3c3e c928 953e
000000f0: 5f04 e2bc 0bfa 543d f2d1 4e3e a356 823d
00000100: 5e9b 493e cbe2 a3bd 6c43 1e3e 783c 03bc
00000110: 3070 203d 60a5 743d 806c a03d 80ba 5c3e
00000120: 3f78 01be d079 e4bd 4bfc cbbd 75a6 8a3d
00000130: e696 2c3d 5c12 e03d 9a95 313b 1701 64be
00000140: 117e 06bc 425a 853c 7021 b13d 766a e33d
00000150: 9d59 aebd 6d09 653d 1328 ddbc 5268 2bbc
00000160: c99e 973c c19a a03d 04ba a13d fb04 983c
00000170: d91c 7abd 7e3a 35bd 3efa 85bc 343f ccbc
00000180: f7a4 ee3c 956d 44bd 1416 39bd 5f2d f9bb
00000190: 4f23 7d3c 4dfe 4dbe 8201 bfbd b4c9 1c3e
000001a0: 09b2 a3bd 6813 b4bd 730e 303d 53df 54be
000001b0: 574f ec3d bfa1 e1bd 943c 2cbd f73d ac3d
000001c0: a921 003e 3c36 d23d d51f 3dbd e23a 813d
000001d0: 6373 813d af8b cabd 0b11 b9bd 85ae 653c
000001e0: f3eb eb3d 82cf 23bd 965f 3e3d 3ae8 b93d
000001f0: da5a b03d 30e8 713d 53f6 1ebd bcd6 bb3d
00000200: c9bc fabd 1d2d ae3c 35dd 483d f636 3dbc
00000210: 7238 fc3d 2750 e7bd 066a a7bd ebe0 143e
00000220: 5b1a d2bc 2bad 643d 4f02 313d 59ec 063e
00000230: a455 0a3d d32b 1f3c 578e 1ebd bb9a 0f3c
00000240: 75a9 cabd 7e24 243d e955 0dbc dc62 b4bd
00000250: ab8d ecbc 0e2a a5bc d2f3 133d 02f0 d5bd
00000260: b25c 043e 48ab 01be 73bd 0e3e 81d3 a03a
00000270: 90c9 8d3d 52fa 603d 7353 c4bd 2ed3 fabd
00000280: e971 023d 032f c6bc 18cd 01bd 9bab b1bd
00000290: 20f1 96bb 5b5b 513d 32e5 0cbe bb2f c1bd
000002a0: 7222 d13d 8c19 2f3c ec1a c6bb 481c 2dbe
000002b0: 5497 4d3d 4a46 233e 3124 a6bd 9935 303d
000002c0: ecae f8bd 0c41 bb3d d0f3 fe3c 85a4 c3bd
000002d0: a170 133d af98 1cbe 618d 373c ffee 313c
000002e0: a021 36be 4365 943d 6e08 fd3d e783 efbd
000002f0: fd2a e53d f4f2 eebd 21ad 54bd 6e06 febc
00000300: 105c 03bd da4b f3bd 2dcf c3bd 4419 32bd
00000310: b36d 26be 35c3 35bd a0c9 36bd 6354 b63d
00000320: 9271 b0bc 2fea 753b d799 85bd 1055 c8bd
00000330: 07a7 e13d 3fca dabd 0450 023e 4280 f3bd
00000340: e42e 0b3e e44b 823d f14d 563d b4b3 c63d
00000350: 38bc b0bd 897e 31be e949 2f3d 809b 2dbe
00000360: 799d d23c f57e ebbd 6384 9cbc d930 013e
00000370: dd73 123d db85 eabc 5b49 233e 282c 41bd
00000380: 81ed d3bd 0c30 283d b1b0 c63d 1187 ddbc
00000390: b0c7 cebd c48c 7d3d 26d3 813c b91c 6abd
000003a0: 3f6f 1bbd d1df e73c 27d8 d63d 5ae2 f8bc
000003b0: b41e 133e 433a 263e a47e 2b3d 2ee0 93bd
000003c0: 2660 05bd ca47 2ebd 14e5 e53c fb99 89bd
000003d0: 746e 33be ce92 fabc c0c6 86bd 7860 1f3d
000003e0: 9761 55bd 3f4a 3b3c df9e 353d fce9 a23d
000003f0: aca4 c13b 6284 913d 4958 d1bd 1a20 9b3d
0.057093233 0.047663398 0.07007655 -0.0038821273 -0.04379045 0.044336107 -0.12612991 -0.023589369
-0.029787589 -0.15253156 -0.010958591 0.085073344 0.012622807 -0.02596022 0.05192437 -0.0021697376
0.050591275 0.025163611 -0.05009254 -0.138117 0.079175256 0.14819166 -0.09450391 0.17457245
0.12023774 0.097206555 0.1482538 0.07170221 0.052258205 -0.069293894 -0.053735957 -0.052242387
0.029530376 0.02556102 0.031781085 -0.060000677 0.07117438 -0.040345587 -0.093986325 0.18149911
0.16398792 0.19030516 0.0024530839 0.19896305 0.022242762 -0.12991798 0.1337904 -0.027491022
-0.097614355 0.14530416 0.029711396 0.05061136 -0.020083876 -0.12601654 0.14524166 0.075737305
0.06279922 0.08804411 0.1836466 0.2913268 -0.027589975 0.051996272 0.20197275 0.06364181
0.19688174 -0.08002242 0.15455407 -0.008010022 0.03916949 0.059728026 0.07833195 0.21555519
-0.12643526 -0.111560464 -0.099602304 0.067700304 0.042136095 0.10941002 0.0027097226 -0.2226604
-0.0082087675 0.01627839 0.08648956 0.1110429 -0.08513186 0.055917192 -0.026996648 -0.010461884
0.018508332 0.07842017 0.07896808 0.018557062 -0.061062668 -0.044245236 -0.016354676 -0.024932481
0.029131396 -0.047956068 -0.04518707 -0.0076042856 0.015450313 -0.2011654 -0.093264595 0.15311319
-0.07992942 -0.08792764 0.04298253 -0.20788316 0.115385704 -0.11017179 -0.04204996 0.08410256
0.1251284 0.10264251 -0.046172936 0.06310059 0.063208364 -0.09889924 -0.09036454 0.0140186595
0.11519613 -0.039992817 0.046477877 0.09077497 0.086110786 0.059059322 -0.03880913 0.09171817
-0.12243039 0.021261746 0.049039084 -0.011548748 0.123154536 -0.11294585 -0.08174519 0.14538924
-0.025647333 0.05582921 0.043215092 0.13176097 0.03377308 0.009715038 -0.038709965 0.008764918
-0.098956026 0.040073864 -0.00862644 -0.088079184 -0.028876146 -0.020161655 0.036121197 -0.104461685
0.12925985 -0.12662995 0.13939457 0.0012270064 0.069232106 0.054926224 -0.09586229 -0.122473106
0.031846914 -0.024192339 -0.031689733 -0.08675309 -0.004606381 0.051112514 -0.13759306 -0.09432932
0.10211648 0.010687243 -0.00604569 -0.1690532 0.050193146 0.15944782 -0.08112372 0.043019865
-0.12142739 0.09143266 0.031122118 -0.09552864 0.035996083 -0.15292619 0.011203141 0.010860204
-0.17786264 0.07245877 0.123551235 -0.1169508 0.1118984 -0.116674334 -0.05192292 -0.031008925
-0.03207022 -0.11879702 -0.09561 -0.043481126 -0.16252784 -0.044375617 -0.04462588 0.08902814
-0.02153853 0.0037523618 -0.06523483 -0.097818494 0.11018186 -0.10683107 0.12725836 -0.118896976
0.13592106 0.06362131 0.052320424 0.097022444 -0.0862965 -0.17333426 0.042795096 -0.1695385
0.025709854 -0.114988245 -0.019106096 0.1261629 0.035755027 -0.02862828 0.15945952 -0.04716125
-0.10348035 0.041061446 0.0970167 -0.027041944 -0.10096681 0.061901823 0.015847754 -0.0571563
-0.03794789 0.028304966 0.104904465 -0.03038137 0.14367181 0.16233163 0.04186882 -0.07220493
-0.032562397 -0.042548932 0.028063335 -0.067188226 -0.17522603 -0.03058758 -0.06580877 0.03891036
-0.052095022 0.011431276 0.044340964 0.07954785 0.005909523 0.07105328 -0.10221917 0.07574482

importance_map.upscale.bias f4 [6]
00000000: 4569 a43d af28 5d3d 1cf8 efbd f3fd d5bc
00000010: b89d b1bd aa23 633d
0.08027891 0.053993877 -0.11717245 -0.026122069 -0.086726606 0.055453934

importance_map.genmap.weight f4 [18, 6, 3, 3]
00000000: 959d 8b3d b52f e03c e1b9 e13d 6d34 9e3c
00000010: c852 cd3d 532a d93b f09a f23d 5ef7 983d
00000020: 1cfa 243e 694a 10bc 9f2c db3c 47d9 f8bd
00000030: 4b2c 0d3e 2939 dd3c 358a 8f3d 9ba7 e0bd
00000040: 0f85 37bc 53f2 013e a6c4 abbc 374e f23c
00000050: 7251 eb3d 0c06 593d cd69 9b3d d8bc b9bd
00000060: 55e5 6abd 8a5a c53c b8ad 213c cb7a a1bd
00000070: a5d0 16be 6033 043e ac9a 3bbd e0d0 e53d
00000080: 8c6d 8cbd 8a74 a93d e66a 8dbd ab2e ec3d
00000090: 793b 003e fbf1 c93d 88c6 9ebd 9b03 72bd
000000a0: 0797 d7bd 692b 54bd 4255 273d 0daf a03d
000000b0: 3087 8bbd f957 a53d 4998 0e3d 6723 60bb
000000c0: 9780 9cbd 9342 923d fc90 d13c b64d b23d
000000d0: e1cf 113e be25 df3d ebb0 be3d 385b 8f3c
000000e0: 9fac c03d b9e8 0f3e dfdf 023e 133d fa3d
000000f0: 7a3e 03bd 693d c83c 333d 2fbd ef92 d03d
00000100: 1640 8abb 488a d6bd 31e1 3fbd 5104 b8bd
00000110: b76c 1c3d eb3b 033e b320 a93c da4d eebc
00000120: 326f 89bd f387 f0bd 2e4a 1e3d 6756 7c3d
00000130: ba78 e9bd acfe 743d 2903 803c 85af 0dbe
00000140: 9d03 693d 7471 ff3c 9c59 6abd 7bb4 d43d
00000150: 6a5d 8dbd 8618 7e3c 87c1 063e 19a7 de3d
00000160: 18e9 c23d 343f 2dbd 7671 75bd 8415 503d
00000170: ed09 383c 4ee7 d93d 702b f73d cd94 e43d
00000180: f139 6a3d a835 a0bd 29e3 843c 0a13 553d
00000190: 1ee0 873b a3dc 1a3c 6b76 8c3c 4599 c2bd
000001a0: 2838 683c 4119 9ebd 7672 143e 0fec 05bd
000001b0: 1dc4 4b3d f1dd 24bd fca9 adbd 5372 133d
000001c0: 26d5 f3bd a7d3 a83d c675 653c 3570 473c
000001d0: fd7e ae3d 8e10 b73d dbc0 e83d ed17 b53d
000001e0: 2f57 adbc a104 99bb 3ccd f3bd f5f7 153d
000001f0: 019d e33b 2a4c cd3d 0d06 ef3d ab1b d5bd
00000200: 9f31 3abd 9889 033e e1f7 293d 113e 2fbc
00000210: 4fcc 8abd 2f31 50be 2ee9 af3d d3e5 8b3d
00000220: a5c3 583d 75d2 b33d e6dc 73bd 8de9 2a3e
00000230: 03e6 a63d 6535 8a3d f363 babb 964a cebd
00000240: feea 8b3d 8f25 743d 3428 7a3d bc6b 973d
00000250: c0ed 32bd b582 083e 863f 433d df84 c5bd
00000260: 8ca9 b5bc 400c 4fbd 0570 bc3d 5f6e edbd
00000270: 0b6c b5bd b8c2 1cbb aeb1 0dbe 2cf2 0fbe
00000280: 135f aebd 688b 5c3d e591 a3bd b414 6cbc
00000290: 4a82 e33d 9737 cdbc e962 0b3e f7b8 92bd
000002a0: 6e0b 0d3a b603 e43a 89ac 91bd e407 043e
000002b0: 40f4 0c3d 6cbe b3bd 8984 953d 7ca9 20bd
000002c0: 7800 5bbd 8044 eb3d 7c71 823d b32b a2bc
000002d0: 3e63 2e3d 45ad 7f3d 5395 44bd db05 0e3e
000002e0: ff4b 543e 3d87 f43d 9d3a 5cbd e319 8d3d
000002f0: d3c9 a03c 75f6 1a3e 0e05 04be 1578 a23c
00000300: 53fa da3d 855e 80bd ce9d 3cbd af5e 0b3e
00000310: 8215 713d 4680 353e 56c1 d63d f0fd 1f3d
00000320: e31c 61bd 041b 07bd 7a2a c53d 5351 843c
00000330: 4f85 2c3e 6bd9 243e 33af 593d 7ab9 293e
00000340: d6bc 45bc 5a55 983d 1899 163e a16d 83bd
00000350: 7a83 703d 31ae a33c 2cde db3d 42e2 c63d
00000360: 5e89 2abe 4159 91be eb52 e8bd 9590 b0bd
00000370: aab8 3abd 12a7 23bd 2ff7 78be 79fe 92be
00000380: 824a 28be e1d3 39be 0364 36bd 9480 133c
00000390: 88d2 9f3c 9a7e ddbd f10b 67be 04d4 c03c
000003a0: 5f16 26be 8b93 6c3c be69 723c 1257 a7bd
000003b0: 38ed 173e 853e 6ebb e296 f7bd 2fb3 d73c
000003c0: 13a1 31bd 261e 31bd 0322 a03b d2f7 a1bd
000003d0: c97d 1ebe de6b a7bd 157f 6abd abcc 91bd
000003e0: ce7d d43b 4c74 e5bb c3f1 24bc 71a2 bd3d
000003f0: b296 af3c e392 06be 2e04 1fbd f88f c8bb
0.06817166 0.027366498 0.11021782 0.019312108 0.10025555 0.00662736 0.11845958 0.074690565
0.16111034 -0.008806803 0.026754675 -0.12150817 0.13786428 0.027004795 0.07008783 -0.10969468
-0.011201157 0.12690096 -0.020967793 0.029578311 0.11490144 0.052984282 0.07588539 -0.09069222
-0.057347614 0.024091024 0.009868078 -0.07884749 -0.14728029 0.12910223 -0.045801803 0.1122148
-0.06856832 0.08274181 -0.06905155 0.11532339 0.12522687 0.09860607 -0.077527106 -0.05908547
-0.10526853 -0.05179921 0.040852793 0.07845888 -0.06812894 0.0807342 0.0348132 -0.003420079
-0.07641714 0.07141604 0.02558183 0.087062284 0.14239456 0.108958706 0.09311088 0.017499551
0.09407925 0.1405362 0.12780713 0.1221868 -0.032042004 0.024443345 -0.042782973 0.10184275
-0.0042190654 -0.10475594 -0.04684562 -0.08985198 0.038189616 0.12815826 0.020645475 -0.029089857
-0.06710662 -0.1174468 0.038644962 0.061605837 -0.1139998 0.059813187 0.015626507 -0.13836487
0.05688821 0.031182028 -0.057214364 0.103859864 -0.06902583 0.0155087765 0.13159762 0.10871715
0.09517115 -0.042296603 -0.059922658 0.05080177 0.011232835 0.10639821 0.12068832 0.11161194
0.057184163 -0.07822734 0.0162216 0.05202011 0.00414659 0.009452018 0.01714631 -0.0950189
0.014173545 -0.077196606 0.14496788 -0.032695826 0.049747575 -0.040250722 -0.084796876 0.0359977
-0.11905889 0.082434945 0.01400513 0.012172748 0.08520315 0.089387044 0.11364909 0.08842454
-0.021159736 -0.0046697413 -0.1190438 0.036613423 0.0069462066 0.10024293 0.11671076 -0.10405668
-0.04545748 0.12845457 0.04149616 -0.01069595 -0.0677725 -0.20331262 0.08589397 0.06830945
0.052920956 0.08780376 -0.059536837 0.16690655 0.0814934 0.067484654 -0.0056881844 -0.1007282
0.068319306 0.05960613 0.061073497 0.073935956 -0.043683767 0.13331111 0.047668003 -0.09644484
-0.022175573 -0.050548792 0.092010535 -0.11593317 -0.08858498 -0.0023919772 -0.1383731 -0.14057225
-0.08514228 0.053843886 -0.079868115 -0.014409233 0.11108835 -0.025050921 0.1361195 -0.071641855
0.00053804263 0.0017396125 -0.071129866 0.12893635 0.034412622 -0.087765545 0.0730067 -0.039224133
-0.053467244 0.11487675 0.06369302 -0.019796228 0.042575113 0.062421102 -0.04799397 0.13869421
0.20732115 0.11939857 -0.053766835 0.06889703 0.019627487 0.15133078 -0.12892553 0.01983265
0.10692277 -0.06268028 -0.04604893 0.13610338 0.058858402 0.17724714 0.10486095 0.039060533
-0.05495919 -0.03298475 0.096272424 0.01615206 0.16847728 0.16098563 0.0531456 0.1657466
-0.012068948 0.074381545 0.14706838 -0.064173944 0.058719136 0.019980522 0.10735735 0.09711124
-0.16653964 -0.28388408 -0.1134394 -0.08621327 -0.045586266 -0.039954253 -0.24313043 -0.28709772
-0.16434672 -0.18147232 -0.044528972 0.009002823 0.019509569 -0.10815163 -0.22563149 0.023538597
-0.16219471 0.014439474 0.014795719 -0.08170904 0.14836586 -0.0036353183 -0.120893255 0.026330559
-0.043366503 -0.043241642 0.004886867 -0.07908596 -0.1547767 -0.08174871 -0.0572501 -0.071191154
0.0064847236 -0.007002389 -0.010067406 0.09259499 0.021434162 -0.1314197 -0.038822345 -0.006120678

importance_map.genmap.bias f4 [18]
00000000: 6650 153d 40d8 0e3e 4b2a 413d 77d0 a93b
00000010: eb6c 2ebe e2d6 e83d 48ec 0b3e 543c 29bc
00000020: a451 2cbd d0f7 263e 0147 d53d ff8b 97bc
00000030: 948a 383d 7761 79bd bd06 823d 081c 34be
00000040: cd76 c23d 60b6 d93d
0.036453627 0.1394968 0.047159474 0.0051823216 -0.17033736 0.11369111 0.13664353 -0.010329325
-0.042070046 0.1630547 0.104139335 -0.018499373 0.045054033 -0.060883965 0.063489415 -0.17588818
0.09495316 0.106304884
