experiment/meta/model/model_6.pt (torch, 28984 bytes, 14 tensors)

feat_extraction.stage0.rbr_dense.conv.weight f4 [14, 3, 3, 3]
00000000: b298 323e 8328 37bc 5a27 333d f90d 2a3e
00000010: 4abd 08be 20c5 233e dadc f43c 1c43 153e
00000020: 78aa 3a3d baaa 193d 79cf f03d 4bf3 ad3d
00000030: 97a3 093e a047 0bbd 1c82 ce3c 0090 213d
00000040: d929 843d 1d2e 6e3c 8237 3d3e 9859 9a3d
00000050: 5566 29bd 7c7e bebd b2f0 0fbd 12ba a9bd
00000060: 4e52 22bd f94f b63b ca22 c73d a838 d93d
00000070: 1f96 53be 49a5 cd3d d0c7 893d 041c 363e
00000080: 89e2 063e 4fb9 6cbe 81aa 6ebe fdb1 05be
00000090: 9e99 2b3e 5625 3cbd 5642 823d 13bd 9cbd
000000a0: 44ba 433e e4a5 99bd 4618 a93d 3257 46bd
000000b0: d2ca 11be 9f60 1f3e 592c 52bd df19 ca3d
000000c0: 2314 403c 1067 323d ddbd f9bd 3a26 c8bd
000000d0: 604c e73d d7af 09bd 1175 743e 9667 4a3e
000000e0: a75d b33c 33db a0bd be54 263e 6600 d33d
000000f0: 3fbb a8bd 3040 2a3e cb93 1b3e b2f9 4f3e
00000100: f8a2 96bd 346e e5bb 3728 033d 6c5a 843d
00000110: 07b5 debd b820 e3bd c8ad 093e 7ccf a1bc
00000120: 6320 053e 859c 4c3d 689c b83d 919c a63d
00000130: ce73 e53d c152 0a3e 0b9f 1cbe 9177 023e
00000140: 88e8 e7bd 34bc 17be cdb3 aa3d b9c4 8cbc
00000150: bfba bc3d e670 87bd de11 44be ffe0 af3d
00000160: 45d5 a4bc dc7a a43d 75cc 233d ee09 b0bd
00000170: c87b 163d 27cb a33c e5a0 a7bd daf0 e8bd
00000180: 383c 5f3c 15a6 393d f126 e3bd e25d 64bd
00000190: aff2 713e 1927 49bc 9478 e53d bf57 0d3e
000001a0: 4814 edbd 1070 3fbe 8e61 4f3e 7472 983b
000001b0: af3b 273e ed93 963d 54e8 aa3d 7c5b 3b3e
000001c0: 33d7 653e 412d d0bd 4bb1 4e3d 4212 3a3e
000001d0: 3f27 273e 7976 233e e9b2 c1bd 4cff d5bd
000001e0: 95b8 8cbd b30c 9d3d 8fda 6b3e c9e6 b5bd
000001f0: 4400 183e fc8c 96bd a2c5 01be e755 4b3c
00000200: f2e5 163e 08fd 753e 6302 71bd 6596 a83d
00000210: 6274 523e de61 333e 0edf 183e 2640 1b3e
00000220: cf92 133e 9b41 433d 6fd3 f5bd ffbb d7bd
00000230: 8e36 9cbd 1ad5 1fbc d724 86bd a4c8 bf3d
00000240: 53dd 963d ba0d 0dbc 9d6a a83d f399 8c3d
00000250: 06f8 403e 81eb 1d3e ca73 80bd a2e4 7b3e
00000260: ddca 6839 b9ff 34bc 3b7f 26be 18dd 08be
00000270: 336d febd ac7b e3bc 0d42 123e 83c5 a9bd
00000280: 267a d4bd bf0b 9a3d a936 263d f04a eb3d
00000290: 825d 06be 432d 1e3d ae5a 41bd b3d6 77bd
000002a0: d432 23be 34ed 89bd 29ec 6ebd 7cd7 7f3d
000002b0: a024 2d3d 2331 e73c 9a53 453e 6c07 6c3e
000002c0: 64a7 033e 8fb5 e8bb 8e04 e0bd 0676 173e
000002d0: 353f 59bc 8588 1f3d 090e 22be 3c23 a03c
000002e0: 8af3 0dbd 5c53 4e3e 25bc 13be ec1b cebd
000002f0: 5312 cc39 8481 10be b11d 2f3d c658 fdbd
00000300: e3bf f9bd ac84 043c 62b8 dc3d e4d3 33be
00000310: 6506 9a3d 7ce0 bf3d 08a1 243e bf8f 0fbe
00000320: a15c 973c cf53 25be f87a 3c3e 4c51 a9bd
00000330: 03d8 ad3d 48a4 063c b2eb ecbc bddb c13c
00000340: b757 b13d 74af e83d 1fea 913d dc97 0e3e
00000350: 2f5a 03be 84fb 233e 0e8d 633e 60eb 413e
00000360: 22d5 263e 2edb f0bd 4186 e1bc e16e 5b3e
00000370: 4491 08be b84f 4d3e 6ab5 ebbd a8d9 dbbd
00000380: 539d c63d 0e69 c7bd 0d6b afbc cc47 3d3e
00000390: bc72 563e ba22 453e 477a 7dbc 7dc9 c2bd
000003a0: 4fbe 613e 1cee 08bd 9883 7bbd 4d31 473d
000003b0: e91d b6bd 21de 0c3e b4b3 ba3d 2370 14be
000003c0: 9911 09be 0132 28bc abff a63d 0f83 81bd
000003d0: e459 0bbe cb67 87bd 5c0d 78be 9eb2 33be
000003e0: 68ef 3dbe d8b5 603d 83ea 833d 75b8 0abe
000003f0: 9201 63bd bdb6 153d ab61 7bbd 0e29 0abe
0.17441061 -0.011179092 0.0437387 0.16606893 -0.13353458 0.15993166 0.029890466 0.14576381
0.045572728 0.037516333 0.11758322 0.0849367 0.13441311 -0.034003854 0.025208525 0.03944397
0.06453294 0.014537361 0.18478206 0.0753662 -0.041357357 -0.09301469 -0.035141654 -0.08287443
-0.039629273 0.0055637327 0.09723432 0.106065094 -0.20662735 0.10041291 0.06727564 0.17784125
0.13172354 -0.23117565 -0.2330723 -0.13056178 0.16757819 -0.045934044 0.06360309 -0.076532505
0.19114023 -0.07502344 0.08256583 -0.048423 -0.14237526 0.15564202 -0.051311824 0.09868216
0.011723551 0.04355532 -0.12194417 -0.09772916 0.11293864 -0.03361496 0.23872782 0.19766077
0.021895243 -0.07854309 0.16243264 0.1030281 -0.08238839 0.16626048 0.15193097 0.20310095
-0.073553026 -0.0070016626 0.032020774 0.06462559 -0.10874372 -0.11090225 0.13445199 -0.019752257
0.13000636 0.049953956 0.09014207 0.081353314 0.112037286 0.1350813 -0.15295045 0.12740923
-0.11323649 -0.14817888 0.083350755 -0.017183648 0.092153065 -0.066133305 -0.19147441 0.085878365
-0.020121226 0.08031246 0.039989907 -0.08595644 0.03673914 0.019994332 -0.08184985 -0.11374064
0.013625197 0.045324404 -0.11091412 -0.055753596 0.23627733 -0.012277388 0.11204639 0.13803004
-0.11576134 -0.18695092 0.20252058 0.0046523158 0.16331361 0.07352433 0.08345094 0.18296617
0.22445373 -0.101648815 0.05046205 0.18171027 0.16323565 0.15963162 -0.094579525 -0.10449085
-0.06871144 0.07668438 0.23032592 -0.088819094 0.14843851 -0.073511094 -0.12673047 0.012410617
0.14736155 0.24022305 -0.058840167 0.082318105 0.20552209 0.17517802 0.14928839 0.1516119
0.14411472 0.047669988 -0.120032184 -0.10533904 -0.07627593 -0.009755397 -0.065499954 0.09364441
0.07366433 -0.00860923 0.0822346 0.06865301 0.18844613 0.15421869 -0.06272085 0.24598935
0.00022200817 -0.011047297 -0.16259472 -0.1336559 -0.12423172 -0.027768932 0.14283009 -0.082896255
-0.103748605 0.07521772 0.04057947 0.114889026 -0.13121608 0.038617384 -0.04720562 -0.060507488
-0.15937358 -0.06734696 -0.05833069 0.06246136 0.042271256 0.028221672 0.19270173 0.23049706
0.12856823 -0.0071017216 -0.10938369 0.14791116 -0.013259699 0.038948555 -0.15825666 0.019548051
-0.034656085 0.20148987 -0.1442724 -0.100639194 0.00038923565 -0.14111906 0.042752925 -0.12370448
-0.121948026 0.008088272 0.10777356 -0.17561299 0.07520751 0.09368989 0.16077054 -0.14019679
0.018476786 -0.16145252 0.18406284 -0.08267459 0.084884666 0.008217879 -0.028920982 0.02366435
0.086593084 0.1136159 0.07124733 0.13925117 -0.12827371 0.16013914 0.22221777 0.18937445
0.16292241 -0.11760555 -0.027529838 0.21429016 -0.13336664 0.20049942 -0.11509211 -0.10734874
0.09697976 -0.097368345 -0.02141335 0.1848442 0.20942205 0.19251528 -0.015471048 -0.09511087
0.22045253 -0.033430204 -0.061404794 0.048631 -0.08892424 0.1375661 0.09116307 -0.14495902
-0.13385619 -0.010265828 0.081542335 -0.063238256 -0.1360851 -0.06611594 -0.24223846 -0.17548606
-0.18548357 0.05486092 0.06441214 -0.13546927 -0.05542142 0.036551226 -0.06137244 -0.13492224

feat_extraction.stage0.rbr_1x1.conv.weight f4 [14, 3, 1, 1]
00000000: 2eb1 ac3e 6c6c e83d 7bfd e8bd 52cc fcbe
00000010: b468 e53e acb2 acbd 4edd a7be 3039 d03e
00000020: 1d0a 7d3e e1b6 403e f52d 8abd 857c 00be
00000030: c94d 0f3e d8a2 ff3e 7acc 123e 94ed 5dbe
00000040: 9dfc 243f e1ff 883d 7d61 f53e 8b0c 3c3e
00000050: 4b63 1b3f b01d a93e 1797 8cbe cce2 f83e
00000060: d3ac 8a3c 39e8 e7be 1c0b 1abe c582 0fbf
00000070: 5e91 aabe 06df e3be c15f d43e b8b6 90bd
00000080: 13c4 aabd 41f2 8f3e 1d8d 883e a8c7 b0be
00000090: b920 223e 62c0 5e3e 40d2 f9be 513f 0a3f
000000a0: 1ee1 b0be 68a6 79be
0.33728927 0.11348805 -0.113764726 -0.49374634 0.44806445 -0.084325165 -0.3278603 0.4066863
0.24710889 0.18819763 -0.06747047 -0.125475 0.13994516 0.49928927 0.14335814 -0.2167266
0.6444796 0.0668943 0.4792594 0.1836416 0.60698384 0.33030462 -0.27459022 0.48610532
0.016928112 -0.4529436 -0.150433 -0.56058913 -0.3331403 -0.4450609 0.41479304 -0.07066101
-0.083381794 0.28114513 0.2667016 -0.34527326 0.15832795 0.21753076 -0.4879322 0.54002863
-0.3454675 -0.24379885

feat_extraction.stage1.rbr_identity.weight f4 [14]
00000000: 8305 583f eb24 493f 13ee 753f 3fc1 693f
00000010: b76d 7a3f a7c4 723f 41f8 6c3f da3d 713f
00000020: 1eee 713f f26a 6c3f 78b1 513f 8504 633f
00000030: a0e6 733f 391d 543f
0.8438341 0.7857196 0.960664 0.91310495 0.9782366 0.9483132 0.92566305 0.94235003
0.94503963 0.92350686 0.8191142 0.8867877 0.9527378 0.8285709

feat_extraction.stage1.rbr_identity.bias f4 [14]
00000000: 6aeb 923d 3d29 be3d 7001 6b3c 0e5f 1c3e
00000010: c25e f23c 163a 243d e943 8e3d cb77 843d
00000020: 6ee5 c73d b56b 363d 987f e33d 0ee1 473e
00000030: b1c4 ee3c 33e7 ce3d
0.07173808 0.09285209 0.014343604 0.15270635 0.0295862 0.040094458 0.069465466 0.06468161
0.09760557 0.04453631 0.11108321 0.19519445 0.029146524 0.101026915

feat_extraction.stage1.rbr_identity.running_mean f4 [14]
00000000: dcbc 2c3f e71d a73c 3191 443f 1cba 493c
00000010: 1d71 9c3f 8633 ca3e 5cc5 253f e6e6 fe3e
00000020: 5f81 2b3d 1c67 e931 72b3 353d edf0 f93c
00000030: fad8 6d31 f91d 333e
0.67475677 0.0204 0.76784045 0.012312438 1.222202 0.39492434 0.6475427 0.49785537
0.041871425 6.7929147e-09 0.044360586 0.03051039 3.4611376e-09 0.17491902

feat_extraction.stage1.rbr_identity.running_var f4 [14]
00000000: b3fb 1a3e 3752 733b c949 503e eaa8 b03a
00000010: cfeb ff3e 1c01 663d 6231 193e dfa2 fa3d
00000020: 482e 033b 6775 b92c e168 8d3b 1c9c 1e3b
00000030: e584 3d2c 0a36 de3c
0.15135078 0.0037127861 0.20340647 0.0013478075 0.49984595 0.0561534 0.14960244 0.122380964
0.00200166 5.2710505e-12 0.004315481 0.0024201935 2.6932287e-12 0.027125377

feat_extraction.stage1.rbr_dense.conv.weight f4 [14, 14, 3, 3]
00000000: 556f 593c 98bf 1e3e 679c be3d a769 1c3e
00000010: 994e 8c3d 7466 e83d e1c8 2c3d 068f 38bc
00000020: 5344 843d 6364 aabc 7496 92bc f746 6dbd
00000030: 147b 80ba 6b98 bc3c ba7d 663c a49c cbbd
00000040: 1324 f13c 0121 46bc 2490 e73d e03d d83d
00000050: a4b7 87bc 1e99 0a3e ee78 6abd ecc9 b33d
00000060: 5348 4c3d 0b8c 923d b338 ccbc 00b6 6d3d
00000070: fcf1 83bd d03e d5bd 9ef1 9dbc 395e 0d3e
00000080: acaf 8a3d 381d dbbd f6af 213e 6a9b da3c
00000090: f8af ef3b 4678 c4bc 10b8 cc3d c829 c43a
000000a0: 7cf0 a03d 53e8 22bd f95e e83d 3f0a 843d
000000b0: 7efa b13c 9ae7 b13d cf76 1cbc b1e8 523d
000000c0: b276 513d ab78 94bc 6fe6 023d d2d7 e13b
000000d0: c50e e93d 2dae e83d c97b f63d 1bf0 f13d
000000e0: de46 b9bc e3ce 8f3d 620b 6d3d 1657 d3bc
000000f0: 62b5 9d3d fe64 bfbc 956f 0f3d 5f6e 333d
00000100: 05b3 b03d 5846 abbc c14b 4dbd 0578 ad3d
00000110: de21 3f3d 76ef 8f3d 3479 2c3d 013d cabc
00000120: 0fd1 2f3e 5f26 23be 6f11 9d3c 734b f13d
00000130: 9674 b43d c6f2 80bd 9887 dabd d009 bd3d
00000140: 3819 47bd dc56 8abd e725 96bd c124 44bd
00000150: 2c08 a0bc 9b16 5cbd f0ba 10bd 3f32 b3bd
00000160: 2c08 3e3d 3ab6 dabc fc75 a43b 1122 b13d
00000170: 8d02 863c 6f8e bf3d 9461 b63d 3c65 33bd
00000180: 0fbe ccbd f560 6abd 72ea adbd 96c7 803d
00000190: 2db9 9cbc 0610 eb3d aba5 bb3d 4280 db3d
000001a0: 45fe ab3d 03b5 edbd df13 a33d 8c3c 633d
000001b0: bd25 1cbd ec73 6fbd 2485 803c 3284 be3c
000001c0: 85bc 1e3d f42c d63c 9295 71bc 5ccb 8ebd
000001d0: 2349 673d 78e0 413d df31 38bb c104 043e
000001e0: 6168 a23d 9120 53bd ef42 9cbc ad2b 8cbc
000001f0: 7c23 cabc 3a40 b13d c085 a6bd 5e8b 823d
00000200: 7399 56bd 77a7 1a3d d3bf 28bc cd1f 4cbd
00000210: ffed 463d c8de a4bd 7fd1 59bd faf6 ec3d
00000220: 686a 373e e590 943d be4c 463d 09e3 643d
00000230: 27e5 863d 189f b43d dcab f13d 6fec 943d
00000240: a194 6a3d d8d2 e63c f1d7 ccbc 5c0b 8dbc
00000250: 317d 683d 3acd 223d 605b c43d 3682 c43c
00000260: 58c0 ebbc f343 10bc 7b6d 45bc ae9f 963d
00000270: fc76 e83d aaf5 9bbc cb4a cd3d ec93 a93d
00000280: adc6 773b 57ef de3d a4e1 e1bb 841f c83d
00000290: ea52 323d 20af 27bd fdec f7bc a3a1 a33d
000002a0: 83f3 6b3d 75e1 b53d aa39 983c 70ab d43d
000002b0: c1ee a53d c281 703d 869f bc3c 779f 063e
000002c0: e18a 6a3d 71bf 663c c54f 333d ee26 033e
000002d0: 3e4c b53d 3ed8 8c3c c2d5 e53d c2af 973d
000002e0: d639 8cbc 87b0 44bd 5614 a73d 6ef5 f03d
000002f0: 9a31 38bc 95c3 cf3d fb96 8e3d e4d9 543d
00000300: 7f80 193d 83eb bb3d 55f6 c23d 9ea2 e83d
00000310: fd99 c73d e359 e53d 67d4 e4bc b228 2cbb
00000320: 5a36 94bd 26a7 e3bd ba83 3b3c 7400 1bbe
00000330: 88cd 193c bee7 b4bc ba9a 02be aba3 783d
00000340: 9df5 8dbc bbdd 8e3d 042a a33d a2fe a9bc
00000350: 2a64 233c 6074 d5bc 0160 f7bc d0ca 34bc
00000360: 5a08 c6bd 88d6 17be abd9 48be 7bf8 bfbd
00000370: a883 a0bd 0f7c e1bd 6e92 5e3d 1431 3b3d
00000380: 5353 023d 2384 963c 9868 f0bd 81f1 8f3d
00000390: 134d 48bc ebd4 27bd 71aa 0cbd 9290 db3d
000003a0: 6baa 5cbd 02e7 0d3d 6dda 81bd 6817 7cbd
000003b0: 918c 46bd e602 aa3d a167 47bc 9536 b23c
000003c0: 7e9d bdbd 34e9 983d b22f c9bc b9c1 78be
000003d0: e460 dfbd 3e13 55be c7ec ccbd 87f7 82be
000003e0: 4757 90be faee 67be c63d 05be 115d 39be
000003f0: 2962 87bd 9e92 b03c beb3 b93b 19a0 383d
0.0132711725 0.15502775 0.09307175 0.15274678 0.06850929 0.113476664 0.04218376 -0.011264568
0.06458344 -0.020799821 -0.017894007 -0.057929005 -0.0009802305 0.023021897 0.0140680615 -0.09941986
0.029436147 -0.01209283 0.113067895 0.10558677 -0.016567059 0.13534972 -0.057244234 0.08778748
0.04987366 0.07155617 -0.02492938 0.058034897 -0.06442639 -0.10412371 -0.019280251 0.13805474
0.06771788 -0.106989324 0.1578978 0.026685435 0.0073146783 -0.023983132 0.09996045 0.0014966065
0.07858369 -0.039772343 0.113462396 0.06447267 0.02172589 0.086867526 -0.009549811 0.051491443
0.051138587 -0.018123945 0.03195804 0.006892183 0.1137977 0.113613464 0.12035329 0.118133746
-0.0226168 0.070218824 0.057872184 -0.025798362 0.07700612 -0.023363587 0.035018522 0.04380643
0.08627895 -0.020907566 -0.050121073 0.084701575 0.046663158 0.070280954 0.042107776 -0.024687292
0.17169593 -0.15932606 0.019173352 0.11781969 0.088112995 -0.06296305 -0.10670394 0.09230387
-0.048608035 -0.06754848 -0.07331448 -0.047886614 -0.019535147 -0.053732496 -0.035334527 -0.08749818
0.046394512 -0.02669822 0.0050189476 0.08649076 0.016358638 0.09353339 0.0890533 -0.043797716
-0.09997188 -0.05722137 -0.084919825 0.06288068 -0.019131267 0.114776656 0.09162458 0.107178226
0.083981074 -0.11606791 0.079627745 0.055477664 -0.038121928 -0.05846016 0.015688486 0.023256395
0.038754005 0.026144482 -0.014745133 -0.069723815 0.056466233 0.04733321 -0.0028105897 0.12892438
0.07930065 -0.05154473 -0.019074885 -0.01711067 -0.024675123 0.08654828 -0.081309795 0.063742384
-0.052392434 0.037757363 -0.010299641 -0.049835015 0.048566815 -0.08050305 -0.053178307 0.115705445
0.17911685 0.07254199 0.04841303 0.05588058 0.06586676 0.08819407 0.11800358 0.07271659
0.05727065 0.02817671 -0.025005313 -0.01721733 0.056760017 0.0397465 0.09587741 0.02398787
-0.02877824 -0.008805263 -0.012050028 0.07354675 0.113508195 -0.01903804 0.10024031 0.08280167
0.003780763 0.10885494 -0.0068933535 0.09771636 0.043536104 -0.040938497 -0.030264372 0.07989814
0.057605278 0.08880893 0.018582184 0.103842616 0.08102179 0.058717497 0.023025285 0.13146769
0.05726135 0.014083729 0.043777246 0.12807819 0.08852433 0.017192956 0.11222412 0.0740657
-0.017117422 -0.048019912 0.08158176 0.11765562 -0.011242295 0.10144726 0.06962391 0.05196561
0.03747606 0.0917578 0.0951964 0.11359142 0.09746168 0.11198785 -0.027933313 -0.0026269373
-0.07236929 -0.111158654 0.01144498 -0.15136892 0.009387381 -0.02208316 -0.12754336 0.06070296
-0.017329032 0.069758855 0.07966998 -0.020751301 0.009972611 -0.026056468 -0.030197145 -0.011034682
-0.09669562 -0.14827931 -0.19614284 -0.09373566 -0.078376114 -0.110099904 0.054338865 0.0457011
0.031817745 0.018373555 -0.117387 0.07028485 -0.012225407 -0.04097454 -0.034342233 0.10720934
-0.05387346 0.034644134 -0.063404895 -0.06154576 -0.0484739 0.08301334 -0.012170703 0.021754542
-0.09258555 0.07466355 -0.024558876 -0.2429265 -0.10907152 -0.20808122 -0.10006099 -0.25579473
-0.28191587 -0.22649756 -0.13011846 -0.18101908 -0.066105194 0.021554288 0.005667179 0.045074556

feat_extraction.stage1.rbr_1x1.conv.weight f4 [14, 14, 1, 1]
00000000: c261 733d 2975 59be 3a51 a13c fca3 75ba
00000010: 1a4b 43bd d374 83bc 57f6 b63d 3c82 75bd
00000020: 6605 24be f1a4 09be 007f 3ebe 8cbb 05be
00000030: 2173 033e 6ed4 2b3e 6128 413e 4f20 093e
00000040: 2586 93bd baa2 23be cf16 1c3e e66b edbd
00000050: 0b90 6b3e 92b3 9fbd 8e3e 9bbe 43a4 39be
00000060: 216f 163e ee9a 423e db23 773d 9ba3 41be
00000070: 50a6 6b3e 2d51 a13d 8d99 243e 574e 17be
00000080: d474 4b3d bfd8 7c3e e811 41be de0e 913e
00000090: 19fa 66be a8ae a2bd 9e27 37bd 3683 7a3d
000000a0: 1bc5 a13d c8c2 31be 87a5 fc3d 69f6 5e3e
000000b0: aa17 06bc e684 16be d67b 8d3e 44c1 01be
000000c0: b700 febd 7ce7 963e 888c eebd f5bd 1f3e
000000d0: df68 863e 284e 743a 73cd 6abe 77dc 68bc
000000e0: 9b06 cd3d 92c2 7b3e 59b9 c8bc 1883 b9bc
000000f0: 64eb a2bd 88b3 43be 7e3b 833e daa2 f5bc
00000100: 54cc 79bd 1586 3cbe a5a1 633e bae1 073e
00000110: 923b 2f3e 1835 ef3d 4c29 2abd c555 ee3d
00000120: 8952 0a3d b38e d1bd 2d0c b53d 2db6 f4bd
00000130: 5be6 1cbe fbf3 4dbc 449c 74be b1c7 a53b
00000140: 61b4 3d3d 4181 533e 0496 a03d b475 c2bc
00000150: a87b 24be 2d12 81bd e017 6e3c ca84 8ebd
00000160: 886e ca3d bb39 763e d270 563e cbbf 2fbd
00000170: 8c4e 23bd d6a7 863e d9fe 14bd 6fbc 38be
00000180: 7302 66bb 023a 8ebc 5c8b bbbd 65df 343d
00000190: 3160 2fbe 05dc e43d 973e 1dbe 1aed 023e
000001a0: 3365 7d3e b506 d8bd 30e7 83bd 0d75 b53c
000001b0: b781 113d 912c 3d3e 9851 9abc 1386 a9bc
000001c0: 625a 35bd 71eb 4d3e 20b4 9c3d 5082 683d
000001d0: 663e 183e 2cfd 44bd ae62 713e 51b2 9abe
000001e0: f6d8 293e 4e15 153e d45f 903e ce09 523e
000001f0: c40f fabd 3038 2ebd e0fd 23be 433a a23e
00000200: c888 3bbe b64d 06bd 8749 3e3e 680e 403e
00000210: c3fe 31be 0cad c33d cca1 ae3d f276 3e3e
00000220: 0fb5 bf3d 9647 9f3e 20d7 61bd 1897 b53e
00000230: de08 783d 35d7 30be c6fd b33d c189 58bd
00000240: ec3c ea3d b038 6e3e 5386 24be b6ab 52be
00000250: 25ea 933e 8a23 f5bc 8373 763d 2953 c33e
00000260: 1e37 e03d fef3 0c3e 637c ac3d fef9 a03d
00000270: d639 1bbe 8fea aa3e 85bd 14be 76ba e43d
00000280: 67ab 5f3e de1e 83be 80b3 3a3e d2f8 873e
00000290: 02fb 5c3e fe9e 233e 7e19 343d f3c3 0cbe
000002a0: c184 8b3d 5828 ba3e c6ab 963e bc85 9e3d
000002b0: f341 113e 6368 38bb 0a00 1bbc 4d68 a13d
000002c0: 7558 6bbe 3151 4c3d 33b7 2d3e 7094 bfb9
000002d0: 5e25 a4bd 424f 6bbe e2ff 993d 1e2e 7e3d
000002e0: a371 833e a371 19be bfca 53be 4c95 4f3b
000002f0: 600d 813e 290e 68bb ebef 503e 09e3 573d
00000300: 4193 3b3d 2d6f 513e fad2 403e df2d ba3c
0.0594194 -0.212361 0.019692052 -0.0009370444 -0.047679044 -0.016046917 0.08933704 -0.059938654
-0.16017684 -0.13441826 -0.18603134 -0.13059825 0.12836887 0.16780254 0.1886306 0.13391231
-0.072033204 -0.15980044 0.15243076 -0.115928456 0.23004167 -0.07797922 -0.30321163 -0.18129067
0.1469083 0.19004413 0.06033693 -0.18910067 0.23012662 0.07876811 0.160742 -0.14775978
0.049671963 0.24692057 -0.18854487 0.28331655 -0.22556342 -0.07943469 -0.044715516 0.06116029
0.07898923 -0.1735946 0.12336259 0.21773686 -0.008184353 -0.14699134 0.27633542 -0.12671381
-0.1240248 0.29473484 -0.11647898 0.15599807 0.26251885 0.00093195075 -0.22929935 -0.014212719
0.100110255 0.24585941 -0.024502443 -0.022645518 -0.079550534 -0.19111454 0.25631326 -0.02998488
-0.060985878 -0.18410523 0.22229631 0.13269702 0.17112568 0.11680049 -0.04154329 0.11637453
0.033770118 -0.10232296 0.08840213 -0.1194881 -0.15322249 -0.0125703765 -0.23887736 0.0050592055
0.0463146 0.20654775 0.07841113 -0.023737766 -0.16062796 -0.06302295 0.014532059 -0.06958921
0.098843634 0.2404546 0.20941475 -0.042907517 -0.03986983 0.26299924 -0.036375854 -0.18040632
-0.0035096675 -0.017361645 -0.0915744 0.044158358 -0.17126538 0.11174778 -0.15355907 0.1278576
0.24745636 -0.10548154 -0.0644058 0.02215054 0.035524096 0.18474032 -0.018837735 -0.020693814
-0.04427565 0.20109345 0.076515436 0.0567649 0.14867553 -0.048093006 0.235728 -0.3021417
0.1658667 0.14558908 0.2819811 0.20511553 -0.12210038 -0.042534053 -0.16014814 0.31685075
-0.18313897 -0.032788955 0.18582736 0.18755496 -0.1738234 0.095544904 0.08526954 0.18600062
0.09360706 0.31109303 -0.0551368 0.35466838 0.06055533 -0.17269595 0.08788638 -0.052865747
0.11437401 0.23263812 -0.16066866 -0.20573315 0.28889576 -0.029924173 0.060168754 0.38149384
0.10948013 0.1376495 0.084221624 0.07860182 -0.15158781 0.3338208 -0.14525421 0.11168377
0.21842729 -0.25609487 0.18232536 0.26557022 0.21580127 0.1597862 0.043969624 -0.13746624
0.0681243 0.36358905 0.29427928 0.077403516 0.14185314 -0.0028138391 -0.0094604585 0.07881222
-0.22982962 0.049882118 0.16964416 -0.00036540953 -0.0801494 -0.22979453 0.07519509 0.0620557
0.25672635 -0.14984755 -0.2068281 0.0031674681 0.25205517 -0.003540883 0.20404021 0.052706752
0.04579473 0.20452566 0.18830481 0.022726951

feat_extraction.stage2.rbr_dense.conv.weight f4 [12, 14, 3, 3]
00000000: 3dd1 91bd 74b5 b0bd 6372 cbbc 4ff9 f8bc
00000010: b243 4a3d 4262 bdbd efad 053d 0286 92bd
00000020: 6e09 d73b 2e0d adba befa a53d 7374 41bd
00000030: 30b9 c4bc 0a6e 723d eb6d c13d 4b38 65bc
00000040: a5ff 7d3d f84b 393c b196 c8bd b7a0 6f3c
00000050: 894d 0ebc d3fd 3a3d 48b3 8d3d 4eac 9c3d
00000060: 4c42 1e3d 300f 93bd 436e 96bd fec5 3fbd
00000070: 3962 9b3d b191 cabc 5bbc 03bd d8e5 4fbc
00000080: 4031 4ebc 5b6b 9b3c 5a03 b83d 3670 2dbc
00000090: 6f8e 99bc 1ed1 1e3d 24e7 84bc 5cb7 553d
000000a0: 4c32 923d 553c 883c 1aa0 a3bd 4486 943d
000000b0: c30b 31bd 79b0 49bd cedf 883d 6c11 0bbd
000000c0: 41e6 ca3c 0d55 c13d 1a7b 973b b92d 14bd
000000d0: 275e a43d b370 9a3c 4e2b ac3c 15a1 0bbd
000000e0: 03bb a1bd cd5f 853c 44e6 23bd 4f25 14bd
000000f0: 843b b0bd fea9 903d 18d2 7dbd a4f6 d53c
00000100: 61cf 213d a7ae b13d ddf4 2f3d 06ad 3cbd
00000110: 1328 5f3d d900 83bd 2309 e6ba 3c11 fcbc
00000120: e48b 413d 0edf 223d 76c6 05be 4103 603d
00000130: 41b0 96bd 65dd b93c 8725 fbbb 1773 fbbb
00000140: bfd2 273d 583a 29bd 925d 0e3d ec0f 2a3d
00000150: ef81 b93d 5d63 073d 6615 bf39 d104 3ebd
00000160: d075 44bc 3e8f 3e3d 4f0a e4bd 6e3e fdbd
00000170: f12c 6dba e2d9 85bc a7e6 92bc 7809 35bd
00000180: 4aae 59bd a45a 91bd e453 5dbd 7b58 8abd
00000190: 067a 08bd f511 093d f092 a9bd 2257 b63d
000001a0: f58a aebd 8fc4 6f3c 21cb 3dba 2798 13be
000001b0: e45e ce3c e44f df3d 939d 7abc a52c eb3d
000001c0: c579 113d 8d23 f03b 621c 793d 614a c83d
000001d0: 96c2 ca3d 1b9d a83d d8f8 88bd 8391 6dbc
000001e0: d217 ef3c a561 22bd db21 353d 795a 1abd
000001f0: f9d0 cbbd 5a66 2cbd aed7 d0bd 2c4d b5bc
00000200: 1d5e 25be 2b2f afbd 05f4 31bd 85fd 84bd
00000210: 1380 d9bd 9025 a33c 74e1 09be d6d2 9fbd
00000220: cf59 c53d 2329 59bd 2513 c73d 692b 013e
00000230: 79be 823c 68ac 5cbd c1af b9bd 4efa 2fbd
00000240: a5c7 8e3c c5ec 0bbd 2ffe 4ebd fe16 90bd
00000250: dfef 54bd 8102 0dbd dc47 783d abf9 14bd
00000260: 670f 273d df56 05be 20e6 323e 3bcd c3bb
00000270: b4fb 16be 96f6 b73b eac4 ddbc afe9 85bd
00000280: ff94 eb3d 1614 9bbd e80b 00bd 7872 d6bd
00000290: fac2 3f3d 213f c3bd b0dd 2ebd 9e6a 1c3d
000002a0: 27e1 a33c bb08 05be 7941 3a3c cef3 4bbc
000002b0: 7298 91bd f895 c4bc 25ca 243d 394d 353d
000002c0: 3798 e7bd 5e8c 13bd 6c10 dcbc ca8f 22bd
000002d0: 5444 563d 61c4 d8bd d0ea 08be 3ee1 7ebd
000002e0: f517 79bd 84ed 38be 9232 c9bd 4fc0 ccbd
000002f0: 911e a9bd 7aa9 443d faf8 663d 13f0 763d
00000300: aab6 65bd 820f 883c c855 0d3b 530d 97bd
00000310: 92b9 c3bd 2ceb 0ebd 3136 7abd 6c7c 1f3c
00000320: 018a 3abd 9c31 253c 912b 25bc f0d5 5abd
00000330: 7194 d23d 43d2 02be f13b 37bc 1ac4 813d
00000340: 5cab 1a3e 17ea 563d 90c3 92bc 4d2c a03d
00000350: 3752 c53d 187d 3e3d da54 36bc 615d aa3c
00000360: 4988 8bba efbd 503d 9e20 16bb 63c0 183d
00000370: 4974 f33d 14e1 003d dd8a 073d 695b 2e3d
00000380: 7af6 793c d7b8 12bd cf1a f53c 3883 d5bd
00000390: 8210 963d b767 f53d 1b6d 853c 3018 823d
000003a0: 5844 053d 514d 78bd e078 f2bc bf4d 1d3d
000003b0: f1fd 5c3d 308d 20bc 28cd 0a3d d969 9eba
000003c0: 328b 093b 4a15 063c 79e9 293d 9980 213c
000003d0: 538a 36bc 829b 4f3d 6d63 563d f817 26bc
000003e0: 21e4 6e3d 887e 58bd afec 8f3d eb21 1c3d
000003f0: e0f6 18b9 c9db a23c 7232 3dbd d5f0 b2bd
-0.07119987 -0.086283594 -0.024834817 -0.030392317 0.049380966 -0.09247257 0.03263658 -0.07154466
0.0065624034 -0.001320278 0.08104466 -0.047230195 -0.024014086 0.059186973 0.09444793 -0.013990472
0.06201138 0.011309616 -0.09794367 0.01462572 -0.008685478 0.045652222 0.06918961 0.07650052
0.038637444 -0.07180631 -0.073452495 -0.04681968 0.07587094 -0.024727674 -0.03216205 -0.012689076
-0.012584984 0.01897209 0.08985014 -0.010585835 -0.018744675 0.03877365 -0.016223498 0.05217682
0.071384996 0.016630331 -0.07989521 0.07252172 -0.043224107 -0.049240563 0.06683312 -0.03395216
0.024767997 0.0944005 0.004622829 -0.036176417 0.08025771 0.018852567 0.021016743 -0.034089167
-0.07896998 0.016281033 -0.04001452 -0.036168393 -0.08605102 0.070636734 -0.06196794 0.026118584
0.039504413 0.086758904 0.04295813 -0.046063446 0.054481577 -0.06396646 -0.001755033 -0.030769937
0.04725255 0.039763503 -0.13063988 0.054690603 -0.073578365 0.022688577 -0.0076643857 -0.007673632
0.040972468 -0.041315407 0.034757204 0.04151909 0.09057986 0.033053745 0.00036446302 -0.046391312
-0.011990979 0.046523325 -0.11134779 -0.12365423 -0.00090475293 -0.016339246 -0.01793225 -0.044198483
-0.05314473 -0.070973665 -0.054035082 -0.067551576 -0.033319496 0.03346439 -0.08279979 0.08903338
-0.08522598 0.014634266 -0.00072400464 -0.1441351 0.025191732 0.1090391 -0.015296358 0.11483125
0.03551652 0.0073284567 0.060818084 0.09779812 0.099003956 0.082330905 -0.06688088 -0.014500025
0.029186163 -0.039643902 0.04422174 -0.037683938 -0.09951968 -0.042089798 -0.10197388 -0.022131525
-0.16149183 -0.085539185 -0.043445606 -0.064936675 -0.10620131 0.019915372 -0.1346491 -0.07803886
0.0963627 -0.053017747 0.097204484 0.12614216 0.015959965 -0.053875357 -0.090667255 -0.04296332
0.017429182 -0.034161348 -0.050535377 -0.070356354 -0.05198657 -0.034426216 0.060615405 -0.036370914
0.040786173 -0.1302142 0.17470598 -0.005975393 -0.14744455 0.005614112 -0.027071435 -0.06538712
0.11503028 -0.075721905 -0.031261355 -0.10471052 0.046816804 -0.09533525 -0.042691886 0.038187616
0.020004822 -0.12991612 0.011368149 -0.012448264 -0.07109155 -0.023997292 0.040231843 0.0442631
-0.113083296 -0.036022536 -0.0268633 -0.03968791 0.052311257 -0.10584331 -0.13370824 -0.062226526
-0.060813863 -0.18059355 -0.09824099 -0.099976175 -0.08257783 0.048013188 0.056389786 0.060287546
-0.056082405 0.016608957 0.0021566022 -0.07375588 -0.09556879 -0.034892246 -0.061086837 0.009734254
-0.045541767 0.010082629 -0.010081188 -0.053426683 0.10282219 -0.12775521 -0.011183725 0.063362315
0.15104431 0.05246934 -0.017915517 0.0782095 0.09634822 0.046506017 -0.011128629 0.02079648
-0.0010645475 0.050962385 -0.0022907625 0.03729285 0.11887414 0.03146465 0.033091415 0.042567644
0.0152565185 -0.03582081 0.02992001 -0.104254186 0.07327367 0.11982673 0.016287377 0.0635227
0.03253588 -0.06062061 -0.029598653 0.038404223 0.053953115 -0.009799287 0.03388706 -0.0012085988
0.0020987508 0.008183787 0.041482423 0.00985732 -0.0111413775 0.050685413 0.052340914 -0.0101375505
0.05832303 -0.052855045 0.07027566 0.038118284 -0.00014587818 0.019880192 -0.046190687 -0.08737341

feat_extraction.stage2.rbr_1x1.conv.weight f4 [12, 14, 1, 1]
00000000: a7df 07be 27ae 99bd 680a 5abe 7670 cc3d
00000010: d034 bcbc 5ef5 433d ffef 8b3e 2483 703d
00000020: d458 ca3d 968d 833d acdb a3bc ae94 3c3e
00000030: 0899 013e 5695 f7bc d0bd 32bd f314 2dbd
00000040: a201 86bc b749 483e 9a55 4f3e d908 633e
00000050: b7c4 43be 00ff fcbb 857c ba3c c430 7e3e
00000060: af04 c4bc ed4b 41bc 1dde 163e f65c f9bd
00000070: 85c4 803e f996 0fbe cd54 db3d a8dd 81bd
00000080: 3988 4dbe 7ded 82be 7a7d e33d 3de1 cfbd
00000090: 77d3 0ebe 9316 993e cc57 443e 588e 9a3e
000000a0: 615a d4bd 7f03 bc3c 7add 023d c7a5 42bc
000000b0: 9da2 e63d 8267 8b3d 4e66 abbd 8627 2cbd
000000c0: ed8b 0abe e9ff 42be b614 d83d 64b9 85bd
000000d0: 8c0a e5bd 31ec 07be d47c 293e 1c23 87bd
000000e0: 269f 473e 0b2c c03d 1bc6 b4bd a942 813e
000000f0: 1d04 b4bd b17c 77be 1ff2 363e 5697 21be
00000100: 7fdf 603e 4ea7 5e3e df77 8abd d56d 79bd
00000110: 5ca6 e83d b7ed e43d 8436 523e 3da1 ab3d
00000120: a690 f63c 5d14 423e b775 1e3d e659 4ebe
00000130: d5f2 37bd 955b cebc 1514 1cba e3bd 6abe
00000140: b080 86be 65fc afbd 4898 a23d 962b df3d
00000150: db7f 5bbe 1287 003e 7e77 263d 4a2b 2e3e
00000160: fe4c 09be ece9 90bd 29e9 f03d ced4 77be
00000170: cfb5 b83d 25df acbd 4a37 893d bcd4 e1bd
00000180: bd06 853e 88bd 6a3d cd77 e03c 3f91 f7bd
00000190: ca5d 3ebe 52bb 7bbc 3226 16be ffa4 c23c
000001a0: 3b6f 843e c7ee f53d f5f8 b6bd 0197 60bd
000001b0: 7ded 073e 7ca3 8fbc e65c 34be f524 82bc
000001c0: a905 123e 8184 f6bd bbc3 3ebd 9ba0 87bd
000001d0: c268 153e d1a3 fdbd b879 87bd 7b48 d63d
000001e0: 5651 fcbd a21f 843e 7bc8 32be 111c 3fbe
000001f0: 5ec9 82bb ea95 14be fd6e 85be 35ab 1ebe
00000200: 540b 70be 80a8 7c3e 61b3 183d b3e1 f7bd
00000210: 7de3 f53d 8787 0c3d 0c66 eebd c150 5d3e
00000220: aa4f 0abe 557f 5cbd cfd4 6a3e 0f0f 2b3e
00000230: dca4 e63d 329a e43d 6d23 d3bd acf2 80be
00000240: 8ced 0cbc de28 0d3e c38c 403e dc14 31bd
00000250: 74f8 eebd 1ab7 d53c b404 5a3e 6a9f 943d
00000260: 2cee 903e 92e5 e6bd 2757 813d 8f6d 09be
00000270: d13a 023d 7509 3a3e a8cf 54be 5115 6e3e
00000280: aac7 673e 4693 643e 437e 9bbd 0cd5 593e
00000290: fd09 8f3d 8581 b8bd 92f0 993e cad6 67be
-0.1326891 -0.0750392 -0.21293032 0.09982388 -0.022974402 0.047841422 0.2733154 0.058718815
0.09880224 0.0642349 -0.020002209 0.18416092 0.12656033 -0.030222576 -0.04363805 -0.042256307
-0.0163582 0.1955937 0.20247498 0.22171344 -0.1911801 -0.007720828 0.022764454 0.2482329
-0.023928015 -0.011797887 0.14733167 -0.12175934 0.25149933 -0.14022435 0.10709534 -0.06341106
-0.20071496 -0.25571814 0.11107917 -0.10150383 -0.13947855 0.29900035 0.19174117 0.30186725
-0.10368801 0.022950886 0.031949498 -0.011880345 0.11261485 0.06806852 -0.083691224 -0.04202988
-0.1352994 -0.19042934 0.10550825 -0.06529501 -0.11183652 -0.13273694 0.16551524 -0.065984935
0.19494304 0.093834005 -0.08826848 0.2524617 -0.08789847 -0.2416866 0.178658 -0.15780386
0.21960257 0.21743509 -0.06761145 -0.06089576 0.113598555 0.11178153 0.20528609 0.08380363
0.03009827 0.1895308 0.03868648 -0.20151481 -0.044909317 -0.025190154 -0.000595392 -0.22923999
-0.26270056 -0.08593062 0.079392016 0.10896985 -0.21435492 0.12551525 0.0406413 0.17008701
-0.13408276 -0.07075867 0.11763222 -0.24202272 0.09019052 -0.08440999 0.06699999 -0.11026904
0.25981703 0.057309657 0.027400875 -0.1208825 -0.18590465 -0.015364485 -0.14663008 0.023760317
0.25866112 0.12008434 -0.089342035 -0.05483151 0.13274188 -0.01753401 -0.17613563 -0.015886763
0.14259972 -0.12036992 -0.046573382 -0.0662243 0.14590743 -0.12384761 -0.06615013 0.10463043
-0.12320201 0.25805384 -0.1745929 -0.1866305 -0.00399129 -0.14510313 -0.2606124 -0.15494998
-0.23441821 0.24673653 0.037280444 -0.121035956 0.120062806 0.034308936 -0.11640558 0.21612836
-0.13506952 -0.05383237 0.22932743 0.16704963 0.11261913 0.11162223 -0.10309491 -0.25185144
-0.008601557 0.13785121 0.18803696 -0.043232784 -0.116684824 0.026088286 0.21290857 0.07256968
0.2830671 -0.11274256 0.06315451 -0.134207 0.031794373 0.1816767 -0.2078234 0.23250319
0.2263476 0.22321805 -0.07592442 0.21272677 0.06984327 -0.09009079 0.30066353 -0.2264053

importance_map.upscale.weight f4 [12, 6, 3, 3]
00000000: c4f4 493d 6053 203d 8429 983d 6e07 e2bc
00000010: dce9 04bd 4e16 063d f2a7 f8bd 795d eabc
00000020: bfc9 bebc e571 1dbe 5dd7 44bc e49c d73d
00000030: 7a31 17bc 4a6d e1bc 49d9 af3c b237 233c
00000040: 45b3 5f3d 0306 2e3d 2791 85bd 5c1d 21be
00000050: c1ef 9b3d 8ad4 043e a996 d5bd 1ece 2a3e
00000060: e8a5 f23d 793b a33d 7df7 183e f3db 863d
00000070: 4208 8b3d e262 98bd 3425 35bd 40f0 0cbd
00000080: 4838 fc3c 7274 e03c 7ff2 283d ec4b 7abd
00000090: 2ec6 a03d 3c08 69bd 8fba a4bd 5834 383e
000000a0: ee7f 443e e5e6 513e f3c1 5c3c f684 413e
000000b0: 785f 033d 2288 0dbe 0f50 f63d 5c77 0dbd
000000c0: 2637 d7bd a2f0 2f3e 0708 6f3c c325 453d
000000d0: af4b e7bc f9c9 08be d170 093e 9ecd 823d
000000e0: 4762 813d f00a b53d 8b1d 443e 1fac a53e
000000f0: 1321 eabc 79ca 693d ade7 5f3e aeff 603d
00000100: 4001 483e e604 adbd ee83 0f3e 6227 51bb
00000110: a8af 223d 4a3b 7b3d 6366 c53d a7c8 653e
00000120: 746f 09be 4535 ffbd 72e2 e2bd a60b 733d
00000130: b82a 083d 5822 de3d a9a0 7bbb ccd9 6abe
00000140: 5dca 7ebc 1c76 323c 0d74 663d 4f2f da3d
00000150: cd36 aebd 8dcf 663d 43c0 ebbc 24a6 fbba
00000160: 0655 09bc db9b b33d 0e2c cd3d 3f0d e63c
00000170: 4c08 20bd 42c0 54bd 50b4 83bc c6ed c6bc
00000180: b8e1 423d 21b2 0ebd 9554 c1bc dc52 b5bc
00000190: 898d b03c fed9 68be d408 c1bd 2863 183e
000001a0: 699e c7bd e57d c6bd 4d5d 673d 35fe 66be
000001b0: fb66 e83d d017 dfbd 469b 34bd d84e a93d
000001c0: 3dd6 f83d e423 cf3d 17df 41bd 35d2 843d
000001d0: dc4d 7c3d 45d1 ccbd ba34 b9bd 0968 6e3c
000001e0: f2f2 e73d 4d09 2bbd 3068 3d3d 8ea9 b33d
000001f0: a52d b03d d3ec 6c3d 5f4b 24bd 2db9 c23d
00000200: 4f17 fabd 8689 9e3c bef6 5d3d 7d7d 4ebc
00000210: 98a1 f53d 3949 ddbd d3a4 a8bd 38b4 193e
00000220: f279 d2bc d1ae 793d 9ea9 313d 72e5 053e
00000230: d1c9 053d 0b24 963c 3fe0 29bd 8115 8d3c
00000240: 6bdb cebd 61d1 1b3d 2d91 29bc c816 bebd
00000250: 1aa9 07bd 4bce bebc b632 013d 9366 dabd
00000260: f596 003e a1c9 ffbd 7f44 133e ca2f 2c3b
00000270: c670 9d3d 7362 523d 1ca7 b5bd 23c8 f6bd
00000280: 5ba4 133d 7364 b4bc ef0c 28bd b9ac aebd
00000290: 5393 e33a 428e 2b3d 0ff7 fabd 6b17 e5bd
000002a0: f9c7 ca3d 2eb0 dd3b 5a54 11bc 3a45 33be
000002b0: 5eb5 673d c2f4 3c3e dcd5 a4bd 8041 163d
000002c0: 7960 00be 98b1 cb3d efcc db3c 58ca a9bd
000002d0: 2726 e23c 4973 17be 096a 773c e574 043c
000002e0: 3aab 24be b2ee 933d 3729 f53d 67c8 ebbd
000002f0: 7330 de3d 65fd ebbd 2df8 76bd 5488 bebc
00000300: 1099 a7bc 9523 ffbd c8f7 98bd b1c5 14bd
00000310: 08ac 33be 87d8 0dbd c7dc 10bd 2fa1 a73d
00000320: 26a1 3fbb 4f57 a2bb 1c2a 74bd 5a6d dfbd
00000330: 8a9f 023e 53db e3bd 1af0 133e 1312 f0bd
00000340: a814 083e a70d 973d e67f 843d b75f cc3d
00000350: b1c9 97bd da22 29be 201b 133d 2d20 27be
00000360: 8adc 263c c2d5 f1bd 4edf dcbc c200 f53d
00000370: fe66 c23c 66b9 2cbd 1f04 263e 5e18 35bd
00000380: 0635 d2bd c7ad 763c 850c c53d 0233 bcbc
00000390: d525 f8bd da9b 823d 50f9 043b 6161 3fbd
000003a0: 7ca4 2bbd 3372 493d 63fa a73d 576a 2dbd
000003b0: db93 0c3e 6b96 173e 29f1 143d 4e38 9abd
000003c0: 2070 44bd 344e 5dbd c68f bd3c ae5e 8bbd
000003d0: 4f0a 2dbe 755f 01bd 1b9a 44bd 6b9f cc3c
000003e0: 0373 1abd bf0d ea3c 7bd3 1c3d 8ac7 c63d
000003f0: 1985 efb9 d166 883d 5d72 b7bd bfc4 853d
0.049305692 0.039142013 0.074297935 -0.027591433 -0.03244959 0.032736115 -0.12141408 -0.028609024
-0.02328956 -0.15375479 -0.012014237 0.105279714 -0.009228105 -0.027517933 0.021465914 0.009962009
0.054614324 0.042486202 -0.06521826 -0.15733856 0.07614089 0.12971702 -0.10429127 0.1668019
0.1184805 0.07970328 0.1493816 0.06584921 0.067886844 -0.074407354 -0.044224933 -0.034408808
0.030788556 0.027399275 0.041246887 -0.06110756 0.078503 -0.05689262 -0.08043396 0.17988718
0.19189426 0.20498236 0.0134739755 0.18898377 0.032073468 -0.13821462 0.12026989 -0.034537658
-0.105085656 0.17181638 0.014589316 0.048131716 -0.028234331 -0.13358296 0.13421942 0.063868746
0.06317573 0.08839977 0.19151895 0.3235788 -0.028580224 0.05707786 0.21865721 0.054931335
0.19531727 -0.084482 0.14015171 -0.0031914343 0.0397183 0.06133584 0.09638669 0.22439824
-0.13421422 -0.12461332 -0.11078347 0.05933728 0.033243865 0.10846394 -0.0038395321 -0.22934645
-0.015551177 0.010892417 0.05626302 0.10653555 -0.08506546 0.05635028 -0.028778201 -0.0019199294
-0.008382088 0.087699614 0.100181684 0.028082488 -0.039070413 -0.051941164 -0.01607719 -0.024283301
0.047578543 -0.034837846 -0.023599902 -0.022134237 0.021551864 -0.22739407 -0.09425512 0.14881575
-0.09747011 -0.09691981 0.056485463 -0.2255791 0.11347767 -0.10893214 -0.044093393 0.082669914
0.12150238 0.101142675 -0.047331896 0.06485406 0.06159769 -0.100008525 -0.0904326 0.014551171
0.11325635 -0.041756917 0.04624194 0.08772574 0.08602456 0.05784304 -0.040110942 0.09507976
-0.12211477 0.019352686 0.05419039 -0.012603161 0.11993712 -0.10804982 -0.08234563 0.15010154
-0.025692914 0.060957734 0.04337465 0.13075808 0.03266317 0.018327734 -0.041473623 0.017222168
-0.101004444 0.038041476 -0.010349554 -0.09281689 -0.033120252 -0.023291728 0.031542502 -0.10664096
0.12557586 -0.124896295 0.14381598 0.0026273602 0.076875255 0.05136342 -0.08869764 -0.12049892
0.036045413 -0.022020554 -0.04102796 -0.08529038 0.0017362632 0.041883714 -0.12254154 -0.11186107
0.09901423 0.006765387 -0.008870209 -0.17506877 0.05656945 0.18452743 -0.08048603 0.03668356
-0.12536801 0.09945983 0.026831118 -0.08290547 0.027606083 -0.14790072 0.015100964 0.00808451
-0.16080943 0.07223262 0.11970752 -0.11512833 0.10849085 -0.115229405 -0.060295273 -0.023258366
-0.020458728 -0.124579586 -0.074691355 -0.036321346 -0.17546093 -0.034630325 -0.0353668 0.0818504
-0.002924034 -0.0049542557 -0.05961047 -0.10909529 0.12756172 -0.11125817 0.1444706 -0.117221974
0.1328913 0.07375651 0.06469707 0.09979194 -0.074115165 -0.16517201 0.03591454 -0.16320868
0.010184417 -0.11808349 -0.026961949 0.11963035 0.023730751 -0.042168997 0.1621251 -0.04421269
-0.1026402 0.01505608 0.096215285 -0.022973541 -0.12116591 0.063773826 0.0020290203 -0.046723727
-0.04190491 0.049181174 0.08202054 -0.04233774 0.13728277 0.14803474 0.0363628 -0.075302705
-0.047958493 -0.05402966 0.023139846 -0.06805168 -0.16898464 -0.031585176 -0.04799853 0.02497836
-0.03770734 0.028571008 0.03828762 0.09706028 -0.00045684798 0.06660236 -0.0895736 0.06531667

importance_map.upscale.bias f4 [6]
00000000: e361 aa3d f438 473d 1c74 01be 5fde d8bc
00000010: e69f adbd 4cb6 473d
0.08319452 0.0486383 -0.12641948 -0.026473222 -0.08477764 0.048757836

importance_map.genmap.weight f4 [18, 6, 3, 3]
00000000: 2f18 9e3d 5e6c 1a3d 1290 f33d bc34 b13c
00000010: 9d91 cb3d 48f0 113c eafb 013e 9e5e ad3d
00000020: bca5 2c3e 7a61 d7bb 4c5f f23c c22a f0bd
00000030: 23e9 103e 7a93 e93c c9ae 943d 1248 dabd
00000040: 6508 10bc ffa4 043e e9d2 9bbc 7f41 de3c
00000050: b044 e63d c904 6b3d a07e 9c3d 1a3a b5bd
00000060: 71ce 69bd 0197 8a3c 4749 a13b 29ed a0bd
00000070: 416e 19be 2914 063e 1ff7 22bd 7152 f43d
00000080: d6c5 82bd db37 ac3d cdbb 8fbd 961e f03d
00000090: e8e3 013e 390b c53d fffa 9cbd 0763 86bd
000000a0: 3aef f2bd cb56 85bd a1eb 333d c73d 9b3d
000000b0: 7cca 89bd 847e 943d b935 0c3d 0134 4dbc
000000c0: a312 87bd 3fa9 bf3d 12f3 0b3d bad9 a13d
000000d0: 07e0 0d3e 1132 cc3d 2978 c33d abce 9c3c
000000e0: 9946 c13d 5f95 153e 9c40 023e 266e 013e
000000f0: f707 f2bc ee9a ce3c c2a1 2fbd 28ea e43d
00000100: 4684 e039 fa19 c7bd d611 33bd 66a8 b2bd
00000110: bcf0 223d e7df 093e 1d8c c83c ac93 d0bc
00000120: 3b1e 7dbd 5610 eebd c34c 363d 5743 933d
00000130: dd4d ebbd 53e4 7c3d fb1a ad3c ecce 0cbe
00000140: 7e99 7f3d 04a1 273d 684d 53bd 850b e53d
00000150: 62d4 84bd 3b61 8d3c 4841 093e 73a8 ee3d
00000160: 4742 cf3d 6627 18bd bddf 34bd 3799 6d3d
00000170: cc25 ce3c 3e45 ec3d bbce fc3d d317 f53d
00000180: db39 903d 2fee 8dbd 2055 dd3c 55c4 4b3d
00000190: fee9 723c 3d37 f93b da82 5b3c 5e02 bfbd
000001a0: 2dc0 5f3c 658d 9dbd baf0 1c3e 0fdd fbbc
000001b0: 878b 533d 5ab2 20bd 0bdb aabd 43c0 273d
000001c0: a65c ebbd 7cca af3d 0542 8a3c 3b35 723c
000001d0: f681 b23d c44d b93d 156b ef3d 26cc b83d
000001e0: e129 9bbc b08e 56bb 991a f0bd 39f1 273d
000001f0: fec7 283c 54ca d23d 525f de3d e526 edbd
00000200: fec9 56bd 07c6 fa3d cb44 303d b779 20bc
00000210: 64cb 9bbd d133 58be 3c01 a23d 61c5 903d
00000220: 662d 5d3d d81c b93d 5993 6ebd f4bd 2e3e
00000230: 133e a73d 7882 923d 90e4 60bb 2e28 c8bd
00000240: bf01 933d d138 843d 71f2 813d bbd4 933d
00000250: 5284 27bd a0a3 053e 0228 5b3d f53a bdbd
00000260: 808e 92bc d4ec 58bd 4a78 ba3d 2436 e8bd
00000270: bb15 afbd 8b2b 0ebb bcdd 07be 1f07 18be
00000280: 2756 aebd 4fca 593d 26d9 a0bd a212 51bc
00000290: 3bd5 ee3d 8320 dabc 226d 113e cbfb 8abd
000002a0: 48e3 6c3a d167 c03a a230 86bd bee8 053e
000002b0: 6f30 2d3d 9c24 acbd abfd 923d d166 16bd
000002c0: 1e97 5bbd 3324 ef3d c658 883d de86 84bc
000002d0: f894 313d 2862 563d 2c28 4cbd be97 0f3e
000002e0: 13a0 563e cd60 f83d feb0 78bd 2507 583d
000002f0: 8c17 0f3c 4228 223e 9437 0cbe bedc 023d
00000300: ba65 ef3d ceaf 85bd 57a7 85bc a8a6 103e
00000310: 131b 483d 5fca 3e3e 31bf d73d 1bb4 fd3c
00000320: 4875 39bd ad79 26bd 4002 c83d f25a 5a3c
00000330: 3eae 273e 8302 193e b6b8 6f3d 0bce 263e
00000340: e59d 92bc 0189 a23d f047 183e 9a7b 8fbd
00000350: b422 7b3d 34c0 893c b4d1 c53d 2fb6 cb3d
00000360: eb4f 3dbe b8e1 a1be d34b 15be 1e5c abbd
00000370: ff14 a1bd 8c1c 50bd d904 85be 9a56 a8be
00000380: 129d 47be be30 36be 4c30 29bd e976 8d3b
00000390: d60a b03b f209 f7bd 4f45 7bbe 8365 bd3c
000003a0: 7bde 2cbe c87f c93a 344b 613c cfca d2bd
000003b0: 1653 183e 6120 be39 6fcd 19be 3cee bc3c
000003c0: c943 21bd 3e25 7bbd c35f 333c 3f42 a3bc
000003d0: 6ad5 04be 2299 06bd 7c74 c3bd 64bc 7abd
000003e0: 26f4 29bd a5f0 3d3d 33e8 9a3b eef1 053e
000003f0: afd0 533d c1d7 19be 6b63 adbc 0144 52bc
0.077194564 0.037701003 0.118927136 0.021631591 0.09939883 0.008907385 0.12693754 0.084653124
0.16860098 -0.0065728994 0.029586457 -0.117269054 0.14151435 0.028512705 0.072599 -0.106582776
-0.008791064 0.12953566 -0.019021468 0.02713084 0.1124357 0.05737761 0.07641339 -0.088489726
-0.057081643 0.016917707 0.0049220654 -0.07857735 -0.14983465 0.13093628 -0.039786454 0.11929787
-0.063853905 0.08409091 -0.07018242 0.11724584 0.12684596 0.09621281 -0.07665061 -0.06561857
-0.11862035 -0.06510695 0.043925885 0.075801425 -0.06728074 0.072506934 0.03423092 -0.012524606
-0.065953515 0.09358453 0.034167357 0.07902856 0.13854991 0.09970487 0.09544403 0.019141516
0.094372936 0.14607762 0.12719959 0.12639675 -0.029544814 0.02522036 -0.042878874 0.11177474
0.0004282316 -0.097217515 -0.04371818 -0.08723526 0.039780363 0.13464318 0.024480874 -0.02546104
-0.06179641 -0.116242096 0.0445068 0.071905784 -0.114894606 0.061741184 0.02113103 -0.1375081
0.06240224 0.04092504 -0.051587492 0.11183838 -0.06485821 0.017258277 0.13403809 0.11653223
0.10120063 -0.03714695 -0.044158686 0.058007445 0.025164507 0.115366444 0.12344118 0.11967435
0.07042285 -0.069301955 0.02701813 0.049747784 0.014826296 0.007605462 0.013397897 -0.093266234
0.013656658 -0.076929845 0.15326205 -0.030745057 0.051646736 -0.03923259 -0.083425604 0.04095484
-0.11492281 0.08583543 0.016877184 0.014783199 0.08716194 0.09048036 0.11690346 0.09023313
-0.018940868 -0.0032738857 -0.11723823 0.041001532 0.010301588 0.10292497 0.10858025 -0.11579684
-0.05243873 0.12244802 0.043034356 -0.009794644 -0.07607153 -0.21113516 0.07910392 0.07068897
0.053998373 0.09038705 -0.05824599 0.17064649 0.081661366 0.07153791 -0.0034315921 -0.09773289
0.071780674 0.06456149 0.0634507 0.072183095 -0.040897675 0.13050699 0.05350495 -0.09239761
-0.017890215 -0.052960232 0.091049746 -0.113384515 -0.08549067 -0.0021693434 -0.13268179 -0.14846466
-0.08512526 0.053171452 -0.07853918 -0.01276079 0.11661764 -0.02662683 0.14201787 -0.06786307
0.0009036553 0.0014679377 -0.06552245 0.13077065 0.042282518 -0.0840542 0.071772896 -0.036719147
-0.053610913 0.11676826 0.06657557 -0.016177591 0.04335496 0.052339703 -0.049843 0.14022729
0.20959501 0.12127838 -0.060715668 0.05274119 0.008733641 0.1583567 -0.13693076 0.031948797
0.11689325 -0.06527673 -0.016315145 0.14126074 0.048853945 0.18631886 0.10534514 0.03096967
-0.045277864 -0.040643383 0.09766054 0.013327347 0.16375062 0.14942364 0.058525763 0.16289537
-0.017897556 0.07936288 0.14871192 -0.07005997 0.061312392 0.016815282 0.09659138 0.09946858
-0.18487518 -0.31617522 -0.14579706 -0.08367179 -0.07865333 -0.050808474 -0.2598026 -0.32878572
-0.19493511 -0.17792031 -0.041305825 0.0043171537 0.0053723855 -0.12062444 -0.24538158 0.023119694
-0.16881745 0.0015373165 0.01375084 -0.10292589 0.14875445 0.00036263748 -0.15019773 0.023062818
-0.039371286 -0.061314814 0.010948124 -0.01992905 -0.12972036 -0.032860883 -0.09543702 -0.06121482
-0.041492604 0.046372075 0.0047273873 0.1308057 0.051712688 -0.1502371 -0.02116557 -0.012833596

importance_map.genmap.bias f4 [18]
00000000: aa0a 2c3d 1be8 0f3e b077 5a3d 36e0 553c
00000010: 6cec 29be 6f78 ed3d 656e 0b3e 72aa 8a3b
00000020: 0079 49bd 91a6 4f3e ec61 e73d 715a e8bb
00000030: 00b4 373d b2df 6abd c493 8d3d f402 51be
00000040: afa5 ea3d 702f e23d
0.042002358 0.14053385 0.0533368 0.013053944 -0.16594094 0.115952365 0.13616331 0.0042317444
-0.04918766 0.20278384 0.11297974 -0.0070908596 0.044849396 -0.05734224 0.0691295 -0.20411283
0.11457383 0.11044204
